models/rnn-op_mode.pt (torch, 114787 bytes, 5 tensors)

l1.weight_ih_l0 f4 [285, 2]
000000 6b 22 ee bc 7a fa 15 3d 96 a0 e6 bd da c3 3a 3d
       -0.029069146 0.036615826 -0.11261098 0.045596935
000010 ac d4 cc bd be 70 a1 bd 6e 25 0d 3b 9c 48 75 3d
       -0.100015014 -0.07882832 0.0021537202 0.0598837
000020 56 7d 34 bd 82 87 b5 3c bc f3 d7 bd 41 3c c5 3d
       -0.044064842 0.022159342 -0.105445355 0.09630633
000030 97 67 6f bc f5 22 d6 bd 92 3b da bd ff 34 2f bc
       -0.0146121 -0.10455886 -0.106558934 -0.010693788
000040 cb d4 b3 bc c4 5a 67 3d fe 27 23 be f8 0c d7 3d
       -0.021952054 0.056483045 -0.15933225 0.105005205
000050 04 79 16 3d a8 dc 4e 3e a7 14 ef 3b e4 02 19 3e
       0.036736503 0.20201361 0.007296163 0.14942509
000060 d6 5a 88 3d be 18 18 bd 57 bd dd 3d 2c 98 a2 bd
       0.066579506 -0.03713297 0.10827129 -0.07939181
000070 48 2a da 3c 61 4d e5 bd 58 34 01 bc 8d b7 93 3c
       0.02663149 -0.111963995 -0.007886015 0.01803186
000080 dd 45 c2 bd 8a 6d 2a 3e 20 7a 8f bd 85 2d 3c be
       -0.094859816 0.16643348 -0.07005715 -0.1837674
000090 d4 7a 53 be 98 86 97 3e 83 ac cc 3d 4a 37 0c bc
       -0.20652324 0.29594874 0.099938415 -0.008558104
0000a0 ea b4 e5 bc 5d c8 37 3d 0c 53 99 3c 38 42 e6 bd
       -0.028040368 0.044868816 0.018716358 -0.11243099
0000b0 51 86 a0 bd e0 50 bc bd 56 02 f9 bc 89 cf ff 3d
       -0.07838119 -0.09195113 -0.030396622 0.12490756
0000c0 73 2b a9 bd 0d 55 09 3d 34 7d df 3c 5c 7d 1a 3d
       -0.082602404 0.033528376 0.027281381 0.03771721
0000d0 1c 5f 3e 3e 6c 82 3b be 05 33 d9 3d 81 5b 06 be
       0.18590969 -0.18311471 0.10605434 -0.13120843
0000e0 e2 12 02 be d7 96 01 be 7c 5a 90 bc 96 65 9b bc
       -0.12702516 -0.12655197 -0.017621271 -0.018969338
0000f0 d1 2f 01 3e bc 1d 92 bc 7e 35 ce bc ec 36 b6 3c
       0.12615897 -0.017836444 -0.025171991 0.022242986
000100 f2 43 a1 3d b7 83 17 3c 51 7d dc bd 2b 60 14 3e
       0.07874288 0.009247712 -0.1076609 0.1448981
000110 7a 9f 43 bc a2 b4 48 3e 19 2e c1 bc 4c 91 3e 3d
       -0.011939878 0.19600156 -0.023581551 0.046525285
000120 52 66 de 3d bc 88 89 bd a5 eb 2f 3b 29 7e 34 3e
       0.1085936 -0.06715533 0.0026843336 0.17626251
000130 29 12 e7 ba f7 7e ac bd 20 eb 02 bd 91 c6 09 bd
       -0.0017629314 -0.08422654 -0.031962514 -0.033636633
000140 2b 9e 05 be 49 11 49 3e b2 08 f4 3d c5 f4 1b be
       -0.13048618 0.196355 0.11915721 -0.15230091
000150 f9 62 a2 bd fe d8 d7 3d 4a 56 f8 3c 15 eb 9b 3d
       -0.07929034 0.10539435 0.030314583 0.07613198
000160 43 ce e6 3d ec da ac bd 66 e8 ba bc 9e bc 89 3e
       0.1126981 -0.084401935 -0.022815894 0.26901716
000170 c5 d6 05 3d cc 7e 07 3e c3 3d 06 bd 15 fe ca bd
       0.032675523 0.13231963 -0.032773744 -0.099117436
000180 c1 34 47 3c d8 17 a9 3d f4 b5 4c bc a1 31 b4 bd
       0.012158574 0.08256501 -0.012494553 -0.087985285
000190 21 57 0b 3e 39 92 bc 3d b0 2f a0 bd 8c 7b 67 bd
       0.13607456 0.09207577 -0.07821596 -0.056514308
0001a0 5a 9f 82 bd 3a e4 3e bd 74 3e 6d 3c 55 c5 20 be
       -0.0637805 -0.046604373 0.014480222 -0.15700276
0001b0 88 7f 50 3d 22 09 0e bc 21 76 f7 3b d6 94 01 3d
       0.050902873 -0.00866917 0.007551924 0.03163608
0001c0 ba fe 08 be 62 9f e3 3d e2 e7 ed 3d b5 fd 00 bd
       -0.1337842 0.11114384 0.11616494 -0.031491954
0001d0 08 04 1b bd c5 4c 22 3e 34 c9 1e 3d 0b f3 42 be
       -0.03784564 0.15849598 0.0387661 -0.19038026
0001e0 cb c7 80 bd f0 b5 0d 3d 4f 66 4d bb 32 f5 2f 3e
       -0.062881075 0.034597337 -0.0031341498 0.17183378
0001f0 88 b7 04 be 90 31 07 be 7c 44 39 bd b6 7f 4d be
       -0.12960637 -0.132025 -0.045231327 -0.20068249
000200 a7 2e 6d 3d a7 82 17 be eb ec 51 3c 3c a8 03 be
       0.05790582 -0.14795934 0.012812833 -0.12857145
000210 e2 d9 13 bd b6 64 83 3d f8 c6 08 3e a6 64 c3 bd
       -0.03609646 0.064156935 0.1335715 -0.095406815
000220 12 05 18 3b f0 15 6d bd 0a c5 53 3d 54 1f b2 3b
       0.0023196382 -0.05788225 0.051701583 0.0054358635
000230 ff 8f 30 3e 5f fb c9 3d 77 80 f8 3d fc fd b0 bc
       0.1724243 0.09862398 0.12133878 -0.021605484
000240 4e fe 98 bc 3f 25 51 bd 99 60 0c 3e 1f ff 81 bd
       -0.01867595 -0.05106091 0.13708724 -0.063474886
000250 c4 54 88 bd 2a 58 c2 bd 66 ce 26 be c1 2e f5 3d
       -0.06656793 -0.09489472 -0.16289672 0.11971808
000260 8a 1b 96 bd 2e df a9 3d de ba 7c 3d c6 63 ad bd
       -0.073294714 0.08294521 0.061701648 -0.08466296
000270 02 ce 48 3e 82 23 41 be 37 76 12 bd 9d fc 6e 3b
       0.19609836 -0.18861201 -0.03575727 0.0036466487
000280 18 72 7d 3a c9 e0 f0 bc 22 ac 8d bd de 63 6f bd
       0.00096681854 -0.02940406 -0.06917597 -0.05844485
000290 14 e5 bb bc dc 03 08 be 0c 8d 82 bd 99 db 07 3b
       -0.022936381 -0.13282722 -0.06374559 0.0020730256
0002a0 d0 30 17 be 40 04 ad 3b f9 0a 57 3e 97 2b f6 bd
       -0.14764714 0.0052800477 0.2100028 -0.12020033
0002b0 32 03 7b 3c 62 8c 0a 3e 33 9a 0b be bc d7 8b 3e
       0.015320586 0.13530114 -0.13633041 0.2731303
0002c0 32 9d c6 bd ff 92 6f bd f3 3d 08 3e f1 ec 6b bd
       -0.096979514 -0.058489796 0.13304882 -0.05759901
0002d0 83 1e ca 3d 6d 06 50 be 20 f0 cb 3d 70 21 df 3d
       0.09869101 -0.20314951 0.099579096 0.108950496
0002e0 80 ed b1 bc 94 6f 22 3d 55 09 25 bb 5a 7a 88 3d
       -0.021719694 0.03965719 -0.0025182564 0.06663962
0002f0 46 2a d5 bd e9 19 3c 3e 15 7b 4a 3e 3d 6b c7 3d
       -0.10408454 0.18369259 0.19773515 0.09737251
000300 1c 5a 38 be dd 18 e8 bd 04 45 0d be c2 3e 51 bd
       -0.18003124 -0.11332867 -0.13795859 -0.05108524
000310 93 43 a5 3b 08 b3 c7 3d 4d 78 33 3c 00 0b 3e bc
       0.005043456 0.097509444 0.010953975 -0.011599302
000320 f7 79 ab 3d ed e6 92 3d 45 ea 26 be 5c a1 ef bd
       0.08372872 0.07172952 -0.16300304 -0.11700699
000330 e6 3f cc 3c 28 ea 90 3d 1c 39 0f 3d a9 fc f4 3d
       0.024932813 0.07075912 0.034966573 0.119622536
000340 39 a2 70 bd 4a a7 31 bd d8 c2 97 3d 37 f9 b3 3c
       -0.058748458 -0.04337243 0.0741021 0.02196942
000350 22 7c 6b 3d dc 41 31 bd 2d 7b 96 3d e1 fe 58 3d
       0.05749143 -0.0432757 0.07347713 0.052977446
000360 0d 9c a3 bd 59 c8 48 3d bc ba 19 3e 6a bc 88 3b
       -0.07988749 0.04901919 0.1501264 0.0041728513
000370 b2 2a 4f 3d fa 5e 34 3e f4 61 5f 3d 4e d3 87 3b
       0.050577827 0.17614356 0.054536775 0.0041450625
000380 ac 87 5e bc 7b e3 00 3e ff ed 96 b9 82 26 b9 bc
       -0.013582151 0.12586777 -0.0002878755 -0.02260137
000390 57 ea 01 bd 0a e0 93 bd e0 ef 9e 3d a8 0f 06 3d
       -0.031717625 -0.072204664 0.07760596 0.032729775
0003a0 a0 75 36 bd b8 eb d0 3c 17 17 ea 3d ff 9a 5f bd
       -0.04454577 0.025503024 0.11430185 -0.054591175
0003b0 1c 1d a5 3d 9a b4 eb bc 74 52 e2 3c 56 9d c0 3c
       0.08062193 -0.028772641 0.027627207 0.023512524
0003c0 6a 61 36 3e fa 43 16 3e 94 01 28 bd c1 91 35 3d
       0.17810598 0.14674369 -0.04101713 0.044328455
0003d0 a1 b6 c9 3d fe dc 51 bc a2 42 ee 3d 46 f8 ee bd
       0.09849287 -0.012809036 0.11633803 -0.11668448
0003e0 fe 2a 4b 3d 1d f8 18 bd 2f 2f 28 be 4e 34 a9 bd
       0.049601547 -0.037345994 -0.16424249 -0.082619295
0003f0 2d 3c 84 3d 1b 5f 26 bd e2 3f 28 3c bc 6e ed bc
       0.0645679 -0.040618043 0.010269137 -0.028983466

l1.weight_hh_l0 f4 [285, 95]
000000 5c fd 08 3e ac 9a 1f 3d bc 7e 39 bd f5 bf c6 bd
       0.13377899 0.038965866 -0.04528688 -0.09704582
000010 dd ac 25 bd 05 2c 47 3d 1e 8a 17 bd 62 dc 76 bd
       -0.04044806 0.048625965 -0.036996953 -0.060268767
000020 f1 72 fa 3c c9 f0 a7 3d 30 d6 de bd 67 5d 50 bd
       0.030572386 0.08200223 -0.10880697 -0.050870325
000030 4b a1 17 bd a1 87 1c bc 09 54 51 bc 80 7d 4a bd
       -0.037019055 -0.009553821 -0.012776383 -0.049436092
000040 2a 7c 30 3d 5f 79 8f 3d d4 5c 24 3e 48 f6 8d 3d
       0.043087162 0.070055716 0.16051036 0.0693174
000050 c2 19 1a bd 3d c0 e4 bd 79 49 cd bd 83 11 21 3e
       -0.03762222 -0.11169479 -0.100237794 0.15729336
000060 6f e7 87 3d b7 0e 8a 3d d6 b5 da bd 68 5a d0 3d
       0.06635939 0.06741088 -0.10679214 0.101734936
000070 9e f9 bd 3d 77 88 8a 3d 94 5b a1 bd cf f3 1b bd
       0.09276126 0.0676431 -0.07878795 -0.03807431
000080 d7 a8 27 bd 39 df 94 3d d4 02 0f 3c 83 f4 ee bd
       -0.040932503 0.07269139 0.008728702 -0.11667731
000090 11 e1 16 3d 8e 94 b8 bc 2b f1 b8 bc 0a 4d 81 3d
       0.036835734 -0.022531774 -0.022575935 0.06313522
0000a0 38 37 1e 3d 93 90 b1 bd 42 bf e7 3c c7 fa b3 bd
       0.03862688 -0.086701535 0.028289441 -0.08788066
0000b0 1e c3 42 bb ff 3c b5 3b 0b ac f2 3c 75 0e 60 bc
       -0.002971835 0.005530953 0.029623052 -0.013675322
0000c0 7c 2a 11 3e 58 c3 b6 3c eb 51 99 bd 79 ee e1 3d
       0.14176363 0.022309944 -0.07486328 0.11031813
0000d0 ce b6 c7 3c 93 c7 e9 bd e4 54 a1 bc 59 c9 44 bc
       0.02437916 -0.11415019 -0.0196938 -0.012010896
0000e0 b7 50 dd 3d 1e 00 4e bd 27 e2 cb bd af d2 94 bc
       0.10806411 -0.05029308 -0.099552445 -0.018166868
0000f0 80 48 86 3d cb ad 97 3d cc 57 25 3d d9 b9 0d bd
       0.06556797 0.07406195 0.040366933 -0.034601066
000100 a7 03 4d 3d 28 30 af bc f3 2e 13 3d b4 83 cb bd
       0.05005231 -0.021385267 0.035933446 -0.0993723
000110 cf db e2 bd 94 74 8b 3b 58 14 c1 bb 45 e4 b0 bb
       -0.110770814 0.0042558406 -0.0058923177 -0.0053983056
000120 13 c7 b8 3c 4d 70 b6 bc be 1d 95 bd f9 8e 80 39
       0.022555863 -0.022270346 -0.072810635 0.00024520585
000130 98 55 6c bc 35 db c7 3d 37 c1 90 bd 32 ac bd 3a
       -0.014424704 0.09758607 -0.07068103 0.0014470874
000140 34 83 7c 3d f6 9f 09 bc 26 3e 2f 3d f5 3f a7 bc
       0.061648563 -0.008399954 0.04278388 -0.02041624
000150 1d dd 82 bd 3c 8e 07 bd 19 b9 2b bd 01 34 7a 3c
       -0.0638983 -0.03309463 -0.04192457 0.015271188
000160 74 e6 cb 3a b9 59 2a bc a3 d8 8d 3c bf 9f fd 3c
       0.0015556351 -0.010397368 0.017315214 0.030959962
000170 3c 3d bd 3d 97 a0 d2 bd ee 28 1e bd dc 55 f9 3d
       0.09240195 -0.10284536 -0.038613252 0.121745795
000180 ef 39 18 bc c4 e8 72 3d ea 75 79 bd 1e 6a 4e 3d
       -0.009291156 0.059304014 -0.060903467 0.05039417
000190 9e f0 c1 bd 07 fb 55 bd 51 c0 4c 3c 5a 1f 9e ba
       -0.09469722 -0.05224135 0.012497024 -0.0012063787
0001a0 98 05 e6 3c a1 97 91 3d 8a a5 c4 3b 97 fe cc 3c
       0.02807884 0.07108999 0.006001179 0.025023742
0001b0 97 e2 49 3d 4a 75 61 bd 80 a7 d9 3d 81 58 39 bd
       0.04928836 -0.055043496 0.10627651 -0.04525042
0001c0 7d d5 19 3c 9e 22 2e bc 87 92 b1 3d 30 6f 7a 3d
       0.0093892785 -0.010628371 0.08670526 0.061141193
0001d0 6e ae a4 3b 6c 54 f4 bd 91 f8 94 3d 70 c0 63 3d
       0.0050256765 -0.11930165 0.07273973 0.055603445
0001e0 8b 22 46 bc 61 93 ed bc 76 9d c2 3d a5 82 d5 3d
       -0.012093197 -0.02900094 0.095026895 0.10425309
0001f0 41 d4 9c bc e0 bc 0a be 0a d2 d8 3d e8 a2 50 bd
       -0.01914418 -0.13548613 0.10586937 -0.05093661
000200 11 b2 78 3b 0c 43 8f 3c 91 06 4b bd b1 9e 34 3c
       0.0037947933 0.017488025 -0.04956681 0.011024163
000210 d8 60 83 bd 79 aa 30 3d 2c 35 41 bd 6b 69 24 3c
       -0.06414956 0.043131325 -0.04716985 0.010034899
000220 01 66 b9 bc 92 97 86 3d aa 43 66 bd ad bc 09 3d
       -0.022631647 0.065718785 -0.056216873 0.0336272
000230 30 d2 86 bc 78 5f a2 bd af 7e f1 bd af 91 90 bd
       -0.016457647 -0.079283655 -0.11791741 -0.07059037
000240 d1 c0 07 3e cb e6 4d bd 62 59 15 3d c3 1f 83 3d
       0.13257147 -0.05026893 0.036462195 0.064025424
000250 55 00 d9 3d 88 b0 52 3d 5e 9b d5 3d 0e 41 90 bd
       0.105957665 0.051437885 0.104300246 -0.07043658
000260 3f 85 41 bd f8 2c 96 bd 02 57 12 bd 67 8a 8c 3c
       -0.047246214 -0.07332796 -0.03572751 0.01715584
000270 dd 2b c4 3d 9c b5 7c bd 79 90 f1 3c 1c 65 94 bc
       0.09578679 -0.061696634 0.029487835 -0.018114619
000280 ff 44 0c bd 7d 1a c7 3d 7e 2c 79 3c bb 2c 57 bc
       -0.034245487 0.09721849 0.015208362 -0.013133223
000290 ff d1 c5 bd f1 d9 dc 3d da 59 3f bd 37 b6 e2 bd
       -0.09659194 0.107837565 -0.04671655 -0.11069911
0002a0 cf 9b 57 3a 86 3f 84 bd 7e 36 a6 bd 18 01 0f 3d
       0.00082248164 -0.06457429 -0.08115862 0.034913152
0002b0 e3 e6 e4 3d bd ea 0f bc 4a 4a a3 3d 59 26 f1 3d
       0.11176851 -0.008783993 0.07973154 0.11774892
0002c0 2c ad b9 3d c6 5a a8 bd a5 31 76 3b 70 a6 2f bd
       0.09066233 -0.08220439 0.0037566212 -0.042883337
0002d0 03 64 8d bd 9e 69 33 3c c8 5f 97 3d 75 b0 d5 3d
       -0.06903841 0.010950474 0.07391316 0.10434047
0002e0 08 14 1e bc c6 aa 54 3d b7 3c 00 bd 32 38 e5 3d
       -0.0096483305 0.051920675 -0.031307902 0.11192359
0002f0 3a bc aa bd 21 dc cb bd d0 63 6a bc 91 b6 a6 bd
       -0.083366826 -0.09954096 -0.014306024 -0.081402905
000300 9a 03 42 be 76 1d 0d 3d 69 4a 1f bd 78 b3 3c 3b
       -0.18946686 0.034451924 -0.038889322 0.0028793495
000310 0c cc 42 3d 34 4d ae 3d f0 80 c8 bd 89 fb bb bc
       0.047557876 0.08510819 -0.09790218 -0.02294709
000320 cc 08 90 3c 42 9a 05 be 21 b0 73 3d 8b 79 17 bd
       0.01758232 -0.13047126 0.05949414 -0.036981147
000330 3e 1d 53 3d a7 88 dc bc 9a 53 9b bc 8e 38 c1 3c
       0.05154156 -0.02692063 -0.018960763 0.023586538
000340 48 76 44 3d b1 47 fb bd 6d a2 04 3d d8 a3 fc bb
       0.047964364 -0.122695334 0.032381464 -0.0077099614
000350 16 56 c6 3c 57 be 73 3c a9 a3 8f bd 99 bd 8b 3b
       0.02421097 0.0148769235 -0.070136376 0.004264545
000360 0f bc 29 bd 01 32 3c bd 55 32 c5 3d cc 78 58 3d
       -0.041439112 -0.045946125 0.09628741 0.052849576
000370 25 a5 50 3d ff 3a 1f 3b 27 40 7c 3d f7 a0 1f 3d
       0.050938744 0.002429664 0.061584618 0.038971867
000380 90 27 a3 39 a3 e0 93 bd 88 39 08 be 76 e4 c3 bd
       0.0003111926 -0.072205804 -0.13303196 -0.0956506
000390 a3 e2 55 bd 76 87 e8 3c d6 0f c7 3d 76 54 78 bc
       -0.05221809 0.028384905 0.09719817 -0.015156856
0003a0 bc d1 cc 3d 65 62 6f 3c c0 9e 73 3d a0 f3 07 3d
       0.10000941 0.014610861 0.059477568 0.033191323
0003b0 cd c3 df 3d 4c 10 0c bc d2 0f 94 3c 35 6a 17 3c
       0.10926018 -0.008548807 0.01807395 0.00924163
0003c0 1c e4 b6 bb f6 1f f4 bc 03 cb 2e bc 5b cf b0 bd
       -0.005581392 -0.029800396 -0.010668519 -0.086333
0003d0 be 31 15 3d 44 68 d3 3c aa 74 05 ba 7e 21 8c 3d
       0.03642439 0.025806554 -0.00050909317 0.06842326
0003e0 77 b5 0d 3e 03 e7 e4 bd 0d 4b 31 3e 3e e0 0c be
       0.13838755 -0.111768745 0.17313786 -0.13757417
0003f0 19 62 c5 bc 7b a4 2a bd b6 f4 ad bc 9d 3b 35 bc
       -0.024094628 -0.041660767 -0.021234851 -0.011061576

l1.bias_ih_l0 f4 [285]
000000 8a e8 fb 3d 3f 01 fe 3c ba ca 31 3d 0c bd 0c 3d
       0.12300213 0.031006454 0.043406226 0.034359977
000010 04 c5 9a 3d 82 13 14 bd f2 eb ca bd e4 7c 48 3c
       0.07557109 -0.036151417 -0.09908284 0.0122368075
000020 6b 61 ef bd 8b e9 59 3d 20 58 e7 bd ad 0f ac bd
       -0.11688503 0.05320124 -0.112961054 -0.084014274
000030 e7 15 8c 3c d5 da 03 be e2 0b ba 3d 15 26 ab 3d
       0.017100288 -0.12876447 0.09084298 0.08356873
000040 23 94 ba bc be 39 c5 bc de 3e 8e 3d c9 07 34 3d
       -0.022775715 -0.024075385 0.06945585 0.043952737
000050 02 df 9a 3b 34 c4 75 bd 1c 6f ab bd 9a fa da 3c
       0.0047262916 -0.060001567 -0.08370802 0.026730824
000060 de 03 32 bd b2 72 25 bc dd db 3e 3d 9b 49 04 be
       -0.04346072 -0.010098146 0.046596397 -0.12918703
000070 6d e8 99 3c 97 4c 0b be 1d 22 0c bd b0 1b 67 3d
       0.018787587 -0.13603435 -0.03421222 0.05642289
000080 96 00 82 bd ea 46 c4 bd 60 55 df bc c2 1e e4 bc
       -0.06347768 -0.09583838 -0.02726239 -0.027846698
000090 d5 a7 51 3d 15 10 26 bd e9 6c 4d bc 8c 0e 12 be
       0.051185448 -0.04054268 -0.012538173 -0.14263362
0000a0 90 06 d5 bd 80 4f 95 39 f1 b3 3f bc 1e 47 df 3c
       -0.10401642 0.00028478727 -0.011700616 0.027255591
0000b0 9c e2 ad 3d 81 b9 db ba 1b c9 87 3d 71 30 64 bc
       0.08490488 -0.0016763658 0.06630155 -0.013927565
0000c0 2d 88 df bd 19 56 b4 bd c0 64 59 3c ca e4 fd bd
       -0.10914645 -0.08805484 0.01326865 -0.12397154
0000d0 ae 01 1a bd a7 37 88 3b 39 2b 9d 3d bb 5f fc bc
       -0.037599258 0.004157025 0.0767426 -0.030807367
0000e0 88 a0 a0 3d 43 8b 6f bd 4c 0e f5 bd 28 9d 0f bd
       0.07843119 -0.05848242 -0.119656175 -0.035061985
0000f0 51 82 8d 3d 7e a0 8d 3d f2 35 59 3c 7c 8d 47 bb
       0.069096215 0.06915377 0.0132574905 -0.0030449321
000100 37 97 fb 3c 1b 78 c6 3d f2 ff 90 bd 43 14 5f 3d
       0.030711753 0.09690877 -0.07080068 0.054462682
000110 a5 f7 a7 bc 7d 60 5f 3d c7 21 bf bd 17 40 b4 bd
       -0.020503828 0.054535378 -0.093326144 -0.08801287
000120 f7 b3 93 3d 5f e5 04 3c bd 51 f6 bc 44 4f 82 bd
       0.0721206 0.008111327 -0.030068273 -0.06362775
000130 5c e1 85 3c be 2e 1a bc 24 cc 35 bc 65 81 fa 3c
       0.016342811 -0.009410558 -0.011096034 0.030579278
000140 00 e9 a5 bd 17 e8 a4 bb 22 11 ad bd ca d9 89 bc
       -0.08101082 -0.00503255 -0.084505334 -0.016827483
000150 99 8a 09 3d 97 5c 73 3d f6 4c 96 3d ea 64 67 3c
       0.033579443 0.059414472 0.07338898 0.014123181
000160 8e 90 dc 3c e0 ef 2d bd e8 b6 8d 3b 68 cc db bc
       0.026924398 -0.04246509 0.0043247826 -0.026830867
000170 05 8c 61 bd ca 4f 8f 3c 72 ba 5a 3d 0b bf 13 3d
       -0.055065174 0.017494101 0.053400464 0.036070865
000180 ae d7 3f be 27 61 42 be 7f 46 72 be d1 b3 10 3d
       -0.18734619 -0.18982373 -0.23659705 0.035327736
000190 2c 42 58 be 6d 70 86 be 99 90 0e be 40 8f 21 be
       -0.21118993 -0.2625765 -0.13922347 -0.15777302
0001a0 8a 8e 9a bd c1 3d 06 be 5d 16 3b be b7 b2 47 3c
       -0.075467184 -0.13109495 -0.1827025 0.012188605
0001b0 1f 54 36 bd af 20 9d bd 09 91 c6 bd f3 6b 01 be
       -0.044513818 -0.076722495 -0.09695632 -0.12638836
0001c0 1c 29 8e bd 87 ec b7 be 05 19 1f be 8a a5 9b be
       -0.06941435 -0.35922644 -0.15536888 -0.30399734
0001d0 2a ec bf bd 8e 32 4a be f3 08 31 be d3 a0 54 be
       -0.093712166 -0.19745848 -0.1728857 -0.20764475
0001e0 75 b8 70 bd 5b bf 56 3d d3 7d ed bc 94 53 80 be
       -0.058769662 0.052428585 -0.028990662 -0.25063765
0001f0 f9 66 91 be c8 d7 23 be 6e e6 d2 bd 2d 8a 48 be
       -0.28398874 -0.16000283 -0.10297857 -0.1958396
000200 28 1e bf bd bb 7e 01 3d dc 94 02 3d 29 cf f4 bd
       -0.09331924 0.031615 0.031880245 -0.11953575
000210 bd 6d 33 be 84 d5 ef bd aa 9a 3b bd 4e 69 24 be
       -0.1752233 -0.11710647 -0.045801796 -0.16055796
000220 54 6d 42 be 1b ba 84 be 9d 32 69 be 83 67 4b bd
       -0.18987018 -0.25923237 -0.22773214 -0.049659263
000230 94 98 29 be 72 7f 0d be 67 ef ac be 21 73 04 be
       -0.1656211 -0.13818148 -0.337764 -0.12934543
000240 0a 9d ad bd 4d 84 32 be 54 99 a0 bc 18 00 89 be
       -0.084772184 -0.17433281 -0.019604363 -0.26757884
000250 13 33 21 be 68 87 63 bc d9 0c 88 be 3b ad 54 be
       -0.1574214 -0.013887264 -0.26572302 -0.20769207
000260 31 ff e5 bd 0e a5 42 be 03 50 df be 34 4e 2e 3d
       -0.112303145 -0.19008276 -0.43615732 0.04255505
000270 25 5f 3e be 28 ec 84 3d fa e4 3f be cc b1 95 be
       -0.18590982 0.06490356 -0.18739691 -0.2923721
000280 1b 30 f7 bd 91 03 3e be 48 92 2f be 1d 46 39 be
       -0.12069722 -0.18556048 -0.17145646 -0.18093152
000290 8e 55 0c be 97 07 ff bc 9a 0c c9 bd e7 30 1a be
       -0.13704512 -0.031131549 -0.09816857 -0.15057717
0002a0 be f7 ce bd 73 55 6f be 33 a2 6f bd aa f3 ca bd
       -0.10105847 -0.2337244 -0.058504295 -0.099097565
0002b0 ab b0 73 be dd 0f c9 bd db 31 31 be 2d f6 36 bd
       -0.23797862 -0.09817479 -0.17304175 -0.044668365
0002c0 ab d8 e6 3b 83 1a 59 be cd 08 6d be d1 2c a0 be
       0.007044872 -0.2120152 -0.23147888 -0.31284192
0002d0 01 ab 1f be 90 0c 58 be 37 60 85 be e7 4c f4 bd
       -0.15592577 -0.21098542 -0.2604997 -0.119287305
0002e0 9c 85 0b be 6a e1 43 be f4 52 76 be 17 63 18 be
       -0.13625187 -0.19128957 -0.24055082 -0.1488155
0002f0 75 38 6b be 49 3d 73 bd 65 ab 78 3d 35 5f 6c bd
       -0.22970755 -0.059384618 0.06071033 -0.057707984
000300 ac df 8c 3d ae 70 60 3c 34 c7 b4 3c 57 c3 10 3d
       0.068785995 0.01369874 0.022067644 0.03534254
000310 0d 25 97 3c 3c a6 e8 3b 7c 5d 84 3d f0 67 7b bd
       0.018450284 0.007099895 0.06463143 -0.06137842
000320 95 83 b7 bd 17 0a 80 3c 60 e8 c1 3d 55 bd 93 3b
       -0.08960644 0.015629811 0.0946815 0.004508654
000330 eb fc 96 3d dc 0c 51 bd f0 1e 48 3d d0 4c d4 3c
       0.07372459 -0.051037654 0.04885763 0.025915533
000340 57 0c 8f 3d 7f 92 c8 bd 45 67 ff bb 29 f0 09 bd
       0.069847755 -0.09793567 -0.007794293 -0.0336763
000350 32 cb b2 3d 0f c1 f5 3b cf e2 08 bd 0d cd 8b 3d
       0.08730163 0.007499821 -0.033419427 0.0682622
000360 ff 7d 07 be 43 ac 80 bd 80 a5 3e bb 41 1d 67 39
       -0.13231657 -0.06282856 -0.0029090345 0.00022040775
000370 5b 02 d6 3d 11 80 a5 bd 75 a4 71 3d 57 ea ca bd
       0.10449668 -0.08081067 0.05899473 -0.09907978
000380 73 c8 dd 3d 69 ca 78 bd c4 f6 1d 3d ea 58 3e bd
       0.10829248 -0.06073991 0.038565412 -0.046471514
000390 b2 27 ef bb 2b ac 9d 3d 69 11 82 bd 28 7b 64 3b
       -0.007298433 0.07698854 -0.06350977 0.0034863446
0003a0 bd c4 4e 3d 85 29 66 bd 97 76 51 bd 58 f7 0a bd
       0.050480593 -0.05619194 -0.051138487 -0.03392729
0003b0 b2 48 cc 3d 72 20 8d bd 6e 18 3b 3d 0e b9 69 bd
       0.09974803 -0.06890954 0.045677595 -0.057061248
0003c0 b9 42 1e 3d 94 5b 9a bc 7f 4f b3 bc 14 87 0c be
       0.03863785 -0.018842496 -0.021888493 -0.13723403
0003d0 71 96 cd 3d 2e e4 ac 3d 92 c7 e4 3d 5b 78 5a 3c
       0.1003846 0.08441959 0.111708775 0.013334359
0003e0 99 0f 8e 3b 74 c1 ab 3d 8a eb 95 3c f6 55 37 3d
       0.0043353555 0.08386508 0.01830079 0.044759713
0003f0 c0 79 a8 3c c6 91 3a bd 89 e1 c9 3b 9f dc bd 3d
       0.020565867 -0.045549177 0.006160919 0.09270596

l1.bias_hh_l0 f4 [285]
000000 46 e9 da 3d 69 fc ff bb 64 2e b2 bc b4 e4 a1 3c
       0.106890246 -0.007812072 -0.021750636 0.019762374
000010 ef 5e a8 3d 67 57 b0 3d 9d 45 89 bd 7d 2b 6d 3d
       0.08221232 0.08610421 -0.06702731 0.0579028
000020 c5 67 b2 bd d9 6b 49 bd be 12 18 3d d7 62 01 be
       -0.08711199 -0.049175117 0.03712725 -0.1263536
000030 57 41 d6 3c fe 50 32 3d 3d 31 54 bd 0d 13 5e bc
       0.026154203 0.04353427 -0.05180477 -0.013554347
000040 c7 59 5d 3b 1b cb df bd 92 b9 75 3d d7 91 29 bd
       0.0033775435 -0.10927411 0.059991427 -0.04139885
000050 97 df ad bd df 02 b0 bd c5 c1 1f bb 65 ed 21 bc
       -0.08489912 -0.085942976 -0.002437697 -0.009883259
000060 27 0e 0d 3d 0c 6b 8e bc e0 1e 61 bd 00 e2 10 bd
       0.034437325 -0.017385028 -0.054961085 -0.03537178
000070 78 8c cf bd b3 16 a9 bc 92 cd 43 3d 15 2c 09 be
       -0.10134214 -0.020640707 0.04780347 -0.13395722
000080 2d 58 be bd 1d 84 16 3d c0 09 fa 3d 6d 52 e4 3c
       -0.09294162 0.036747087 0.12208891 0.027871335
000090 bc f7 45 bd be 22 8b bd 10 0b 4f 3c 19 09 39 3c
       -0.04833196 -0.06793736 0.012636915 0.011293673
0000a0 07 be 8d 3d 0f 6c 4f 3d f0 c3 5d 3d 03 13 c9 bc
       0.069210105 0.050640162 0.05414194 -0.024545198
0000b0 89 05 27 3c 03 d5 2e bc 32 ff cd 3c 1b 64 41 bc
       0.010194191 -0.010670903 0.0251461 -0.011803652
0000c0 17 12 04 bd cd da 77 3d d2 6c bd 3d 4e d8 68 bd
       -0.032243814 0.0605114 0.092492715 -0.05684691
0000d0 e2 15 85 3d e9 fb 8c 3d b1 8e 14 3c 9f 3a 30 3c
       0.064983144 0.068839855 0.009067223 0.010756164
0000e0 b9 00 9f 3d 27 24 d8 bd b6 30 c6 bc 59 23 fb 3c
       0.0776381 -0.105537705 -0.024193149 0.030656504
0000f0 28 27 b8 bd 73 2b 1e 3d 65 00 c7 3d 2d 22 ce 3d
       -0.089918435 0.038615655 0.09716872 0.10065112
000100 6e c5 63 3b 81 69 20 3d a6 34 03 3d e4 a8 a4 3d
       0.0034755128 0.039163116 0.03203263 0.08040026
000110 74 69 22 bd 62 e9 b3 bd 25 0c a8 bd f5 ed 2b 3d
       -0.03965135 -0.087847486 -0.082054414 0.04197498
000120 13 31 ca 3d 4d 6f ae bd 5a 13 44 3d 7c 8e 61 3d
       0.098726414 -0.08517323 0.047870018 0.055067524
000130 06 d7 19 3d 4c 09 b3 bd 59 d5 94 bd 90 df 94 bd
       0.037558578 -0.087420076 -0.07267255 -0.07269204
000140 6a a7 55 3d 5f f2 cf bd 08 1b c2 bc 35 94 f4 bb
       0.05216161 -0.101536505 -0.02369453 -0.0074639567
000150 e2 90 ac bd 95 ed 8a 3c ff e7 00 3c 62 e0 26 3c
       -0.08426072 0.016958991 0.007867812 0.010185333
000160 72 be 64 bd 21 96 b1 bd 70 c8 9c bd 41 ef 89 3d
       -0.055845685 -0.08671213 -0.07655418 0.06735087
000170 c5 1c e1 bd e5 5c 1b be 00 5b fb bc b3 8c bf 3d
       -0.109918155 -0.15172155 -0.03068304 0.09353008
000180 6d 39 e5 bd 6d d7 14 be a5 5b 48 be 2c 04 b8 bd
       -0.11192594 -0.14535303 -0.1956621 -0.08985171
000190 ee 69 eb bd f6 e9 4f be e9 cf 71 be 68 9a f9 bd
       -0.11494814 -0.20304093 -0.23614468 -0.12187654
0001a0 d7 67 61 bd 20 93 65 be cc 51 c7 bd 4f 3b 33 3d
       -0.05503067 -0.22419405 -0.097323984 0.043757733
0001b0 2c 2d a3 bd f7 91 3d 3d 3b cf 25 bd 68 77 4c be
       -0.079676 0.04628178 -0.040480834 -0.19967425
0001c0 72 4d 43 be 24 04 34 be 7e 64 25 be f7 d1 8b be
       -0.19072512 -0.17579705 -0.16151616 -0.27308628
0001d0 45 6b fe bc 49 5e 89 be 66 17 34 be 6e 6c a6 be
       -0.03105701 -0.26829746 -0.17587051 -0.325046
0001e0 04 96 ab 3d 5e bf 1c bd 63 10 37 be 53 0d 87 be
       0.083782226 -0.03826844 -0.17877345 -0.26377353
0001f0 63 3c 8a be f2 42 d7 bd 54 8b 4e bc e0 02 61 be
       -0.26999196 -0.10510816 -0.012606461 -0.21973753
000200 6a b2 63 3d 02 98 5c bc e0 1c 8a bc 43 a1 58 be
       0.05559007 -0.013463976 -0.016859472 -0.21155266
000210 20 cc 1a be d5 86 03 be 4e 17 ef bd cf 90 1c bd
       -0.1511693 -0.12844403 -0.11674367 -0.038224038
000220 97 27 82 be e1 b9 90 be 25 12 c0 bd 51 de 3c bd
       -0.2542083 -0.28266814 -0.09378461 -0.046110455
000230 40 74 96 bd c7 67 16 be a6 76 90 be 85 14 5b be
       -0.07346392 -0.14688025 -0.28215522 -0.21394546
000240 2c 64 bc bd 46 44 cd bd fc e0 74 bd af bf 03 be
       -0.09198794 -0.10022788 -0.059784874 -0.1286609
000250 cf ce 0d be d6 52 fb 3a 48 43 a9 bd 7e 24 4c be
       -0.13848422 0.0019174467 -0.08264786 -0.19935796
000260 9b b6 28 be dc aa 8e be 2b 33 cc be 63 06 d9 bc
       -0.16475908 -0.2786473 -0.39882788 -0.026492303
000270 61 4a 0d be b2 e1 ce 3c 15 e4 67 be 0d c7 c9 bd
       -0.13797905 0.025254104 -0.226456 -0.09852419
000280 f2 7a 5f be 98 eb 5b be 99 55 36 be ed 29 b6 be
       -0.21824244 -0.2147659 -0.1780609 -0.35578862
000290 c9 1b 1c be ad 91 65 bd 16 07 35 be da 12 26 be
       -0.15244974 -0.05604713 -0.17678484 -0.16218129
0002a0 ac 64 51 be 84 23 c8 bd 4e ee ab bd eb f3 17 be
       -0.2044856 -0.09772399 -0.083950624 -0.14839141
0002b0 20 e3 03 be b2 e6 1c bd 91 a9 63 be b5 3d 9d bd
       -0.1287961 -0.038305946 -0.22232653 -0.07677785
0002c0 91 76 89 3d a6 7f 0f be b9 86 53 be 12 58 40 be
       0.06712068 -0.14013538 -0.20656861 -0.18783596
0002d0 fe ad 5c bd 39 8b cd bd 2d 7b 93 bd 03 50 3d be
       -0.05387687 -0.1003632 -0.07201228 -0.18487553
0002e0 4c 5f da bd 21 35 5f be da eb 6e be 2b ff 65 be
       -0.10662708 -0.21797611 -0.23332158 -0.2246062
0002f0 e1 56 6b be 4c 1c 18 be 79 43 ec bc 8f 14 93 3d
       -0.2298236 -0.14854544 -0.028840767 0.071816556
000300 8a ea 9d bc 7f 2a 83 3c 56 94 47 bd 28 73 19 bd
       -0.019276876 0.016011475 -0.04872545 -0.037463337
000310 f8 f0 a1 3d f5 4e c4 3c b5 b7 c9 3c 0c c5 4e bc
       0.07907289 0.02396343 0.024623731 -0.012620222
000320 14 44 49 bd 2d e9 d4 bb a1 53 3e bd a8 ef 48 3d
       -0.04913719 -0.0064975233 -0.046466473 0.04905668
000330 ce 87 da bc 15 e8 87 bd db 23 91 bc b8 47 63 bc
       -0.026676085 -0.06636063 -0.017717293 -0.01387208
000340 ae 64 f3 3d 66 f7 f5 3c 83 7a f6 bc b8 dc 88 bd
       0.118844375 0.030025195 -0.030087715 -0.06682724
000350 78 51 78 3d 5a 92 4e 3d 34 39 19 3d 09 4f 5c 3c
       0.06062457 0.05043254 0.03740807 0.013446578
000360 11 86 88 bd 77 c8 89 bd 86 11 72 bc 3d 0c a6 bd
       -0.06666196 -0.06727689 -0.014774686 -0.08107803
000370 41 90 82 3c f0 a3 9e 3a 92 61 53 bd b3 aa 14 3d
       0.015937926 0.00121033 -0.051606722 0.036295604
000380 66 10 c3 3d 44 8c 82 bd 59 17 0f 3d fb 61 63 3d
       0.09524612 -0.0637441 0.034934375 0.055513363
000390 2c 37 9f 3d 8f 32 15 3d 0f cf bf 3d 60 76 51 3d
       0.07774195 0.03642517 0.09365665 0.05113828
0003a0 e0 ac b6 bd 38 13 b5 bc 3f d7 a5 3d 9b 84 d7 bd
       -0.08919692 -0.02210389 0.080976956 -0.10523339
0003b0 4f 9f b7 bd da a6 3e 3d 25 55 4c 3d 33 24 8b bd
       -0.089659326 0.04654584 0.049885888 -0.06794014
0003c0 4d ed 12 bd da ad 95 bd 72 81 b5 bd 03 fc 83 bd
       -0.03587084 -0.0730855 -0.0886258 -0.06444552
0003d0 58 d7 95 3d 17 c7 eb 3b 4c 37 9a 3d bc d1 65 bd
       0.07316464 0.007195364 0.07530078 -0.05610822
0003e0 6f 39 0d bd 32 86 be bd d0 61 8a bd c3 70 ad 3d
       -0.0344786 -0.093029395 -0.067569375 0.08468773
0003f0 79 93 e8 ba 38 39 65 bc 42 55 2d bd f2 9e d3 3d
       -0.0017744146 -0.013990693 -0.042317636 0.10333051

l2.weight f4 [1, 95]
000000 4f 9f db bc 40 22 3e bd 7b 30 6d 3c 98 72 01 3e
       -0.026809363 -0.046419382 0.014476891 0.1264137
000010 01 e7 25 3c 45 2f 0e 3e ea 63 03 3e 92 8d 47 be
       0.010125876 0.1388522 0.12831083 -0.19487599
000020 5d 84 9f 3d c0 dc 18 3d 9b 33 ea 3d 60 da 26 be
       0.07788918 0.0373199 0.11435624 -0.16294241
000030 5c ae cd bc 19 55 6b 3c 0a e5 9c 3c da 1f 94 bd
       -0.025107555 0.014363551 0.019152183 -0.07232638
000040 cd 07 cf bd 41 9e 04 be 86 51 2b be 84 a7 bb bd
       -0.1010891 -0.12950994 -0.16730317 -0.091628104
000050 94 9a 47 3e 07 04 a4 bc bc 31 0f 3e e2 9d 18 be
       0.1949256 -0.020021452 0.13983816 -0.14903978
000060 28 92 31 be c8 da d3 3c de 79 4d bd 8f 41 12 be
       -0.1734091 0.025861159 -0.05016505 -0.14282821
000070 fe 09 d9 3d 2d 82 06 3e 4f 51 fb 3d 57 e0 7c bd
       0.10597609 0.13135596 0.12271368 -0.061737385
000080 aa 18 02 be cd 77 07 3d d5 7f 04 bd 8e 6d df 3c
       -0.12704721 0.033073235 -0.032348473 0.02727392
000090 7f 6b 3f 3e 63 1c 5d be f6 35 cb bd f9 ac 16 be
       0.1869335 -0.2159286 -0.099224016 -0.14714421
0000a0 2e 74 b5 bd 19 e4 9d 3d 45 05 f5 3d d2 2d d6 3d
       -0.0886005 0.07709522 0.11963896 0.10457958
0000b0 96 fe 8d 3d 44 bf f8 3d 06 3a c0 3d a4 9f 46 3e
       0.06933324 0.12145856 0.09386067 0.19396836
0000c0 6f 45 1e be b3 37 1c be c0 30 92 3d a5 d1 c6 bd
       -0.15456174 -0.15255623 0.071382046 -0.09707955
0000d0 99 6c ae bd 14 0b e1 bc a5 c4 17 3d e6 99 d5 bd
       -0.08516807 -0.027471103 0.03705277 -0.104297444
0000e0 f1 bd 4e 3d ea 3f 47 3e b9 7c 92 3d 2b 23 1a be
       0.05047411 0.19457975 0.07152695 -0.15052478
0000f0 e7 43 04 3d ba c9 81 bd 5f 71 a9 bc a9 be 01 3e
       0.03229132 -0.063373044 -0.020683942 0.12670387
000100 c8 61 28 be 86 9c a6 3d 78 f5 c8 bd 2f be ac bd
       -0.1644355 0.08135323 -0.098124444 -0.08434712
000110 4a 44 f1 3d 84 39 77 3d 02 8d c1 bd 90 f9 d3 3d
       0.11780603 0.060357586 -0.09450723 0.10350335
000120 42 bc 95 3d 1b 8a 2e 3e 81 37 a2 3d 56 2a f7 3d
       0.07311298 0.1704487 0.07920743 0.12068622
000130 6c 2d 1a be f1 91 12 be 59 e8 ca bd ed ad 0f be
       -0.1505639 -0.14313485 -0.09907598 -0.14031191
000140 96 8f bb bd 0a c9 37 bd 05 c6 b1 3d f0 87 27 be
       -0.09158246 -0.04486946 0.08680347 -0.1636045
000150 72 44 d7 bd 0a 56 c7 bd ed 55 2d 3e d8 0a a7 3d
       -0.10511102 -0.097332075 0.1692731 0.08156365
000160 d8 e3 4a be 90 00 bc 3d 61 69 3f be 07 83 32 be
       -0.19813478 0.09179795 -0.18692543 -0.17432795
000170 29 1d 11 be b4 b7 26 3e 9b 5b 1d 3e
       -0.1417128 0.16281015 0.15366976
