models/rnn-Relative_atmospheric_humidity.pt (torch, 117091 bytes, 5 tensors)

l1.weight_ih_l0 f4 [285, 4]
00000000: 3ca2 183d 574d 5a3d 672c 4ebd 8614 bbbd
00000010: 8097 1a3c db14 4b3e 99cc 8e3b 14a0 a43d
00000020: 6f04 aebd 256b 4dbd 35b4 90bc ac64 033d
00000030: e752 31be 8301 1fbe 4a5e 24bd b795 31bd
00000040: e45a 0f3e dcf0 063e 2fe2 acbd e1ed 9bbd
00000050: d908 273e 26d8 323e ebe1 02bd 2bcf ae3d
00000060: a694 273e 3922 6cbd ed26 d23c e545 54be
00000070: 22b3 5fbe 9651 fd3d 174d 883e 81f4 923e
00000080: d01b 373d f229 d7bd 3019 a8bd d664 51be
00000090: a32d e9bd 1adf 093e 043c 893d 3059 29bd
000000a0: f35f 663d ca48 83bc 8477 d13c fd92 0abe
000000b0: 98af 00bd 91f6 01bd c930 bf3d b4e1 ccbc
000000c0: 23e4 7fbd 6cf0 96bd a0f8 ee3c ec25 8cbc
000000d0: e3bf 8e3c 2460 39bc 9e2c e53d 4e66 41be
000000e0: 517a ee3d cc56 28bd acb1 97bd 15d9 25be
000000f0: ddbb b93d ec58 163e f57f 25bd 4b60 c73d
00000100: 36ce 2bbd 4d42 c03d dc22 6e3e 4073 2f3e
00000110: 7137 ad3d 68f5 6e3d c861 04be 4905 8cbd
00000120: c2bd 3ebd 648a 3f3e 231a 8d3e 9943 773e
00000130: adae 443e 0002 9bbd 1b7f cabb 37b2 47be
00000140: 189e 5bbc 3bb2 573e 0b76 cb3d e83e 15be
00000150: e07b d6bc ec4e 3bbc e0bd e23d 1e8b 91bc
00000160: f355 02bd 11c6 8bbd 54d9 a93d 9fb9 413e
00000170: 198e f23d 429c 173e 8fa7 b0bd 5d6e a9bd
00000180: d980 f73d e365 003e c18e a3bd 1874 96bd
00000190: 1f0a 143e 385d 043e 2db7 96bc 6793 febd
000001a0: 9ef6 25be 5f66 61bd 9538 a1bd fd93 693d
000001b0: 4688 c5bd 8104 3c39 9545 c2bc ce29 623e
000001c0: bca8 1bbe f527 173e 6f75 473d 377c 92bd
000001d0: 6ee6 63bd c588 ab3d 4633 ac3c 3b0c aebd
000001e0: c498 bc3d 46c7 e43d c2dc 33bd 5354 5d3c
000001f0: 3868 3abe 6271 43bc e759 59bd 5f50 a2bd
00000200: b1c7 fc3a 82e4 20be e8c0 02bd d014 c73d
00000210: 9942 59be fc40 923d 7f13 c33e ebad 0e3e
00000220: eb7f 6bbd 48b6 c63d f07a 743d 746f 033e
00000230: a4e7 203c 2f7a b33d a933 343e aa3b 443d
00000240: 8423 6abe 4ede 733a 8a6e 513e 9fb7 1b3e
00000250: a3b5 8ebd b6ea 0e3c 3da1 92bd 6906 1bbe
00000260: 2872 a23d 8fe7 493e 1926 6a3d 43e3 f3bd
00000270: 247c 183e cdcb a5bc d6d7 c1bc 6807 f3bd
00000280: 0384 a83c cc23 a9bd d7c9 04be 3cd0 fbbd
00000290: 94ee a93d 5f93 143e ce13 0fbd 4b18 2e3e
000002a0: 87e9 3ebd eabd 7c3d 1de4 9d3d 2a6d 64bd
000002b0: c335 563e e690 2c3e 1212 bdbd 8846 153d
000002c0: 10c9 5cbc 0c71 d33b dad9 c73d 3ef0 08be
000002d0: 212d 80bd 1b53 d0bd c1e5 d03d c6c6 95bc
000002e0: 3fbe 423d 0190 313e 070e 843d 8e68 db3d
000002f0: a1cb dbbd 184a e53c 6eb6 0a3e 3531 653d
00000300: 5612 16be b279 793d 63b8 21bd 99f8 15bd
00000310: 2efa 12be 9658 3cbc ffca 49bd 8413 e93d
00000320: 9737 903d e6e9 c43d 7e50 cebd 2b49 3dbe
00000330: d8d2 c13d 4644 ea3d be9a 54bd fa75 59bd
00000340: a020 1c3d 42b5 3b3e 201a 8e3c 9d6d a43d
00000350: 57fd 983c 703a 7e3d 8948 233d b112 94bd
00000360: d77a 57be 29bb e7bd bc2f 7a3e 6bb3 b03d
00000370: c10b 953d 0c3f 013e e560 953c be6f f0bc
00000380: 6477 00be 1554 d23d 38c9 d7bd c7c3 4fbd
00000390: fc7a b0bd 90a9 10bd 66b1 023d e902 563e
000003a0: a7b3 783d 2161 363e 597a be3d 2b47 26be
000003b0: beaa 553e 21b9 913d e28a c43c 21c2 103d
000003c0: 37d1 8c3e a6a5 603e e46b 723c 0450 3bbd
000003d0: 7feb 38bc e740 0ebe c084 ee3d f51e 17be
000003e0: ad54 4f3d 0ccd 873d cf26 45bd 88e4 d4bb
000003f0: 93d2 1f3e c9a5 a7bc c09c 82bd 1ddd f0bd
0.037264094 0.053296413 -0.050335314 -0.09134774 0.0094355345 0.19832174 0.004357886 0.08038345
-0.084969394 -0.05015101 -0.017664054 0.03207843 -0.17316781 -0.1552792 -0.040128984 -0.04335567
0.13999516 0.13177818 -0.084415786 -0.07613731 0.16311969 0.17465267 -0.031953733 0.08535608
0.16365299 -0.057649825 0.025653327 -0.20729788 -0.21845677 0.12369077 0.26621315 0.28702167
0.04470426 -0.10506047 -0.08207929 -0.20448622 -0.11385658 0.13464013 0.067009 -0.04134482
0.056243848 -0.01602592 0.025569685 -0.13532634 -0.03141746 -0.031729285 0.09335477 -0.025009967
-0.062473428 -0.073700756 0.029171288 -0.017107926 0.017425483 -0.011314426 0.11190151 -0.18886682
0.11644424 -0.0410984 -0.07406935 -0.16196091 0.09069035 0.14682359 -0.040405232 0.09735163
-0.041944705 0.09387646 0.23255485 0.17133808 0.0845784 0.058339506 -0.12927926 -0.068369456
-0.046567686 0.18705136 0.27559003 0.2414688 0.19207259 -0.07568741 -0.006179703 -0.19501577
-0.013404392 0.21064083 0.09934624 -0.14574778 -0.026182115 -0.011432391 0.11071372 -0.017766532
-0.03182025 -0.068248875 0.08293405 0.18918465 0.11843509 0.14805701 -0.08625709 -0.08273003
0.120851226 0.12538867 -0.079862125 -0.07346362 0.14456986 0.12926185 -0.018397892 -0.124304585
-0.16207358 -0.05502927 -0.0787212 0.0570259 -0.09645133 0.00017930755 -0.02371482 0.2208626
-0.15201086 0.14761336 0.048695978 -0.07152598 -0.055639677 0.08375696 0.021020543 -0.084984265
0.09208825 0.11170821 -0.043911703 0.013508874 -0.18203819 -0.011928888 -0.053064253 -0.07925486
0.0019285587 -0.15712169 -0.03192225 0.097207665 -0.21216811 0.07141301 0.38100812 0.13933532
-0.05749504 0.09702736 0.059687555 0.12835485 0.009820852 0.08763539 0.17597832 0.047908463
-0.2286511 0.00093028403 0.20452324 0.15206765 -0.06968238 0.008722952 -0.0715966 -0.15139164
0.0793193 0.19717239 0.05716524 -0.11908581 0.14891106 -0.020238781 -0.023662489 -0.11866647
0.02057076 -0.08258781 -0.12967621 -0.12295577 0.08297458 0.14509343 -0.034930997 0.17001455
-0.046609428 0.061704554 0.07709525 -0.05576817 0.20918946 0.1685215 -0.09231962 0.036444217
-0.013475671 0.006452685 0.09758349 -0.13372895 -0.06258608 -0.10172101 0.10200072 -0.01828326
0.047544714 0.1734009 0.06447988 0.107133016 -0.107321985 0.027989432 0.13546154 0.05595513
-0.14655432 0.060907073 -0.039482486 -0.036614034 -0.14353248 -0.01149573 -0.049265858 0.113806754
0.07041853 0.09614925 -0.100739464 -0.18484943 0.094640434 0.114388034 -0.051905386 -0.053091027
0.03811705 0.18330863 0.017346442 0.080287196 0.01867549 0.06206745 0.039864097 -0.072301276
-0.21042953 -0.11314995 0.24432272 0.08627971 0.072776325 0.12621707 0.01823468 -0.029350158
-0.12545544 0.102699436 -0.10536426 -0.050723817 -0.086172074 -0.035317957 0.03190746 0.20899548
0.060718205 0.17810489 0.0930068 -0.16238086 0.20865914 0.07115389 0.023992006 0.035341386
0.27503368 0.2193819 0.014796231 -0.045730606 -0.011286615 -0.13891946 0.11646414 -0.14757903
0.050617862 0.066309065 -0.048132714 -0.0064969696 0.15607671 -0.020464795 -0.06377554 -0.11760924

l1.weight_hh_l0 f4 [285, 95]
00000000: 34c3 0fbd 047e 0a3d 2e4c 8dbd 2469 83bd
00000010: 1983 893d ecc4 afbd 2dcf b83c be0a f7bd
00000020: 7599 1a3d c36a 48bd 48c9 da3d 81d6 99bd
00000030: c41c 82bd de24 b3bc 35b3 993d dcd0 0bbd
00000040: 2615 ab39 65a4 ff3d 2792 8ebd 9b9d f73c
00000050: fb85 acbd e046 a0bd db52 cabc b2d7 9c3d
00000060: 12f9 643d 552f 8dbd 9e4f d8ba d487 52bc
00000070: 5ce3 f4bc b0b2 afbd 2889 4ebd 15e8 8a3d
00000080: 9c03 86bd d783 f4bd cc64 76bc 079e abbc
00000090: 298b 4d3d 9a37 073d 9018 ec3c c663 c4bc
000000a0: 20b0 3ebd 3edb f0bc 2d75 123e 385c 9bbd
000000b0: 434a 62bd 513e f5bd 73a8 87bd a16a 023e
000000c0: a96b e43d abbd 39bd cdad 403d a1af 903d
000000d0: 27bd a83d 0343 603d 4d07 48bd 8f72 a9bd
000000e0: 239f ba3d 9977 b4bc 6baf b73d 370c 9cb8
000000f0: c344 653d 9c1a 7c3d 4f8f ef3d 7eb8 c4bd
00000100: a8ba 82bd a67a 83bd 9cf3 b6bd 99cc cc3d
00000110: 6973 22bd 67ae dbbd 09a7 3ebc 3e4d 89bd
00000120: ef8e 073d f572 f7bd 860b 84bd c87e a6bd
00000130: a45a 0b3d 990a 9a3d 28fe 6ebd 1663 523d
00000140: a58a 5e3d 7d4e 32bc 4c51 7abc e516 0b3d
00000150: 5493 063d 76bd 573c 8847 18bd 4a09 b73d
00000160: 11b2 853d 5b98 babd b01b 453d 07c6 dc3d
00000170: acba 8fbd dff6 d6bc 3dae 773d 46a0 68bb
00000180: bf1b 823d 63ae a83d f730 f93d 5a83 ffbd
00000190: 3cce a1bd b863 b03d 604d b43d b6b9 43bd
000001a0: 012d e1bd a220 14be cadd d8bb b17a a1bd
000001b0: 867f c53d ac26 9f3c 1d40 e4bb baef 2c3d
000001c0: ad1f ed3b 660f ccbc fdf8 c13d dcc2 3e3d
000001d0: fe40 1c3e 5ada 1abe 90f0 543d 2642 323d
000001e0: 6f11 e7bd 852c 893d c6dd 0e3e 0b44 febd
000001f0: 5bc8 cf3d 5f2a 3b3d d54f 863d c76d 303d
00000200: 6ae7 133e ff9d e13c d95a 073d 0270 183d
00000210: a162 f6bd 48ef 4abd c8e2 5fbd 6d86 b53c
00000220: b10d b63d bc26 f2b9 bfb2 5b3d 0239 a73d
00000230: 48e5 8fbc 31a3 973c df38 32bd 3aad 5fbd
00000240: 7983 363c 5b65 48bd c4f0 49bc 659e b73d
00000250: 0495 4e3c 8adf a339 b970 ad3d cf5e 493d
00000260: 3dfa bdbd dffa f0bc 1eea d8bd 2e53 24be
00000270: 91b8 c53d 152c 13bd 1eef f13d daf4 1bbd
00000280: 05b2 e43b f5f4 283d 21d6 db3d 3373 e43d
00000290: 49da 533d 1bbc 64bc 1293 83bc 6bee f9bd
000002a0: cb67 08bd 2d8b 0fbd 3632 7c3d 0d54 67bd
000002b0: a952 9cbd 3462 00bd 51df 663b 4169 f93d
000002c0: 234b 12bd 1da8 b0bd 661c 073d 92ca 0abd
000002d0: f0b8 403d 6847 debc 8918 a3bd b3f5 f0bc
000002e0: a903 55bd dbc5 103e 4bde e03b 3913 563c
000002f0: 1cc0 ac3c 29c8 efbd 1a2a dbbc a8e7 f3bd
00000300: dd32 ae3d a10b 223d 5233 62bd 1300 ecbc
00000310: c360 943d 8646 e5bc 967a f43c 2612 283d
00000320: 8b3b 77bd a6b8 5a3d 6b62 3d3c 2b5e 883d
00000330: bf91 d7bc 6b07 12bd bfd2 ad3d 64ac c6bd
00000340: f83e b03c f076 cf3d 6855 3abd 5117 b93d
00000350: 32e5 903d a0be c53d 1677 8739 ffa1 a03d
00000360: ea3e 10bd 82bb a7bb 5b9c 3a3d 237c 3a3c
00000370: 97aa 3f3d 71e1 9f3d 308b abbd 86ee 773d
00000380: 94e0 003d 57cb 3d3d 7728 bf3c 374e e8bc
00000390: 86ee bbbd 7394 b13d 4aa8 4fbd 99bc a73d
000003a0: ad40 88bd 75ed 93bc 42e8 14bc 1a97 ca3c
000003b0: 52c2 513d 26c6 a73c 8e18 01bc 8b5f aa3c
000003c0: aa5a 033e c46c f9bc 02c8 02bd 65c2 5cbd
000003d0: d822 c33d c64a a13d 4892 5c3c ba9e 4bbd
000003e0: 3a11 41bd b430 a73d cece bdbb c5db b03d
000003f0: a609 843d 4ca0 aa3d 7f01 983d 0dc8 9ebd
-0.03509827 0.033811584 -0.06899296 -0.06416538 0.06714458 -0.08582482 0.022559727 -0.12062596
0.037744004 -0.04892994 0.106829226 -0.075116165 -0.06353143 -0.021868166 0.07504884 -0.03413473
0.00032631418 0.12482528 -0.0696147 0.03022652 -0.08423992 -0.07826018 -0.024697712 0.07658328
0.055901594 -0.068937935 -0.001650322 -0.012849767 -0.02989357 -0.08579004 -0.05042377 0.067825474
-0.06543657 -0.11939209 -0.01503868 -0.020949377 0.05018154 0.03301201 0.028820306 -0.023973357
-0.046554685 -0.029401418 0.14302512 -0.07585949 -0.055246603 -0.119747765 -0.06623926 0.12735988
0.11153347 -0.045346897 0.04704075 0.070647486 0.08239203 0.054751407 -0.048835088 -0.082738034
0.09112384 -0.022029685 0.08969005 -7.440935e-05 0.05597378 0.061548814 0.11697256 -0.096055016
-0.06383258 -0.06419878 -0.089331836 0.099999614 -0.039660845 -0.10726624 -0.011636504 -0.06704186
0.033095296 -0.12082473 -0.064475104 -0.0812965 0.03402199 0.075215526 -0.05834785 0.051364027
0.05433144 -0.010882971 -0.015278172 0.03395738 0.032855347 0.01316773 -0.037177593 0.089373186
0.06528104 -0.09111091 0.048122108 0.10779958 -0.07018027 -0.026240764 0.0604689 -0.003549592
0.063529484 0.082363866 0.121675424 -0.12476225 -0.07900664 0.0861277 0.088038206 -0.04778453
-0.10994912 -0.14465573 -0.006618236 -0.0788473 0.09643464 0.01942762 -0.0069656507 0.04222081
0.007236442 -0.024909686 0.09471319 0.04657255 0.15259168 -0.15122357 0.05198723 0.043520115
-0.11282622 0.066979446 0.13951787 -0.12415322 0.10145637 0.045694705 0.065581955 0.04307344
0.14443746 0.027541159 0.033045623 0.037216194 -0.12030531 -0.049544603 -0.054659635 0.022158826
0.0888933 -0.00046186696 0.053637262 0.0816517 -0.017565385 0.018510433 -0.043511268 -0.05460856
0.011139744 -0.048924785 -0.012325469 0.08965758 0.01260877 0.00031256332 0.08468766 0.049162682
-0.09276245 -0.0294165 -0.10591529 -0.16047356 0.09654344 -0.03593071 0.11813186 -0.038075306
0.0069792294 0.041249234 0.10734201 0.11154785 0.051721845 -0.013960863 -0.01606134 -0.12203678
-0.03330211 -0.035044838 0.061571322 -0.05647664 -0.07632954 -0.031343654 0.0035228322 0.12178279
-0.035716187 -0.08625815 0.032986067 -0.033884592 0.04705137 -0.027133659 -0.07963664 -0.029414034
-0.052005444 0.14137976 0.006862437 0.0130661065 0.021087699 -0.117080994 -0.026753474 -0.11909419
0.08505795 0.03956187 -0.055224724 -0.02880863 0.07245018 -0.02798773 0.02984361 0.041032933
-0.06035952 0.05339875 0.011559109 0.06658586 -0.026314614 -0.035651606 0.08487462 -0.0970085
0.0215144 0.101301074 -0.045491606 0.090376504 0.070749655 0.096554995 0.00025837932 0.07843398
-0.03521625 -0.005118788 0.04555927 0.011382136 0.046793547 0.078066714 -0.08376157 0.060530208
0.031464174 0.046336498 0.023334725 -0.028357608 -0.09176354 0.086708926 -0.050697602 0.08190269
-0.06652961 -0.018057564 -0.009088578 0.024730254 0.05121071 0.020480227 -0.007879389 0.020797512
0.12827554 -0.030447371 -0.031929024 -0.053896327 0.0952813 0.0787559 0.013462611 -0.04971192
-0.04713557 0.08163586 -0.0057924753 0.08635668 0.06447153 0.083313555 0.0742216 -0.077530004

l1.bias_ih_l0 f4 [285]
00000000: bbe6 fbbc 6138 49bb 6fe9 543d 1bfd 373c
00000010: 9041 803d cd68 85ba 3cfe 0f3e 1942 21bc
00000020: 93c2 933d e34e b83c 468f 823c 8ba5 88bc
00000030: d449 48bd cbb6 5cbd 16eb 173d 99aa 77bb
00000040: 894a 1dbd 1565 883d 8321 a9bb 1a75 10bb
00000050: a70e 693c f2fc b03d 2737 af3d cd91 d7bd
00000060: 32d5 94bd 5d87 c43d 0595 ccbd f4ca 81bd
00000070: 7a56 62bd 5f1a 6a3c 5bdd 513d c4b5 58bd
00000080: 870b cbba 5e3d 833d 3546 8cbd 80d5 5ebc
00000090: 4ec4 013e f689 f9bd a727 0abd 2666 8bbd
000000a0: f3ca 5a3d 0bfe b2ba 285c 8b3d f94d 2f3d
000000b0: 26d8 5f3a 7ed8 a93d 6a32 eebc 3e43 ca3d
000000c0: a655 c1bd 8527 a1bd 5a4b c13c 7316 e83c
000000d0: bba8 173c f1a4 19bd 5178 1bbc 8ceb 8ebd
000000e0: f744 263b 2c95 e13d d446 593b f6eb 0abd
000000f0: d326 643d 36db e9bd c009 adbd 711c a63c
00000100: ad3a f4bd a523 4a3d 7cdf eebb cc0f 86bc
00000110: cda7 91bc 086f 2f3d d4f5 4dbd d33b 89bb
00000120: faf7 463d 54da 0f3d b358 b13c b998 d43d
00000130: e566 81bd d85e 45bd 9098 9ebd 496a 1ebd
00000140: f7b6 17bc 7192 ea3c 541c 1b3b b099 6cbd
00000150: 97d1 143d 0f4b 8ebc 7b8c e23c 8d8e c63c
00000160: 7107 6abd d869 85b9 b3ce 6dbd 12a1 a4bd
00000170: 2b0a 90bd 0d97 c33d 0ae3 1b3d 656d d4bc
00000180: a2cb 2abe 8e6b d6bd f4c6 b7bd 0723 52bd
00000190: 61e4 16be a980 a2bc b1fb 69be d224 a6bd
000001a0: d4ff 4bbd 3ae5 7f3d d3ec 97bd 49dd 4c3c
000001b0: a989 353d 59da 2dbe bafa f4bd 7533 c6bd
000001c0: c921 74bc fdd5 6dbe a000 66be e2ae 24be
000001d0: 88b5 a5bc afcd 48be c8ed e8bd 9d5d 4abe
000001e0: 4132 233d 7dca 80be 50ee 4ebe 6346 5dbd
000001f0: 5ab9 e5bc f1bd 34be d758 16be b2cf 0dbe
00000200: 6383 53be 3049 85be c6e3 d53d 6b8b de3d
00000210: 1a83 29be a309 debc 1591 7dbe ddbd 173d
00000220: 4ac0 fdbd 6750 743d a831 03be ff02 82bd
00000230: 9720 f7bd 39ed 1abd 07ef c53d bb85 63be
00000240: d677 36be 1461 3bbd 0599 2abe 6ce7 5dbd
00000250: 77d7 2abe 3b22 cdbd 10f6 4dbd 7ddf 13bd
00000260: f230 72bd a2bd fdbc c82c 0dbe 9275 68be
00000270: d9a3 32be 29e2 d3bd e619 17be 9e82 61be
00000280: 1066 c13c 7921 babd 3616 89be e947 19be
00000290: b9d2 373d 3d03 8dbc 49be 79be e674 edbd
000002a0: 547b 56bd e208 03be 5a89 7c3d 7a50 11be
000002b0: c19d 0fbe 473b fabd 1f41 12be ad1f e3bd
000002c0: 4cc8 e83c d606 75bd b061 a6bd c333 1bbe
000002d0: bdd4 c83b 208b 91bd cd61 c83c eadc de3b
000002e0: b78d b7bd 1e03 00be fb53 debd 80c0 8dbd
000002f0: 0a9e 8cbd 1124 89bd 2d1f 83bd 5d53 25bd
00000300: a48a cbbd d462 283c 178e a2bc 1f51 983c
00000310: 3811 34bd f974 39bd 73b2 f4bd 36ee c73d
00000320: cb5e 743c 927c acbd 5743 ce3d fc72 07bd
00000330: 4832 39bd c7b9 a5ba d3b7 873d d56b 013e
00000340: d865 9cbd 0f7b a13c d8c7 ba3d 6022 b4bb
00000350: 2d29 d53d 887b 91bb 9dc3 283d 5117 933c
00000360: fff3 abbd cec3 b0bb 02b2 213c 455c e6bc
00000370: 1dc5 11bc 16c3 cabd 84df 1dbd bd68 15bd
00000380: 51aa 123d 4e83 9fbd e227 e93d 58e4 803d
00000390: 67c0 123d e0de ec3c 3ab7 cfbb a029 083b
000003a0: 00e4 8cbd 07e6 55bd fd29 9bbc c7de 9dbd
000003b0: 592c 903d 534b 60bd 33f3 0dbc 91c4 0f3e
000003c0: 5ff1 4a3d 89c4 ccbd 58c2 be3d a6f2 993b
000003d0: 5aa9 1abd 7f89 a5bd 6813 8abd 6012 2bbc
000003e0: f8a0 38bb e1fc 9d3d b65b e4bd 21b4 d2bd
000003f0: 140f 093a a147 d5bd 5dc5 993c ae4d bd3d
-0.03074967 -0.003070377 0.051980432 0.011229779 0.06262505 -0.0010178328 0.14061826 -0.009842419
0.072148465 0.022498554 0.015937459 -0.0166805 -0.048898533 -0.053885262 0.03708943 -0.0037790893
-0.03840116 0.06659905 -0.0051614656 -0.0022042454 0.014224685 0.086419955 0.08555441 -0.10525856
-0.07267226 0.09596131 -0.09989361 -0.06337538 -0.05525825 0.014288514 0.05123649 -0.05290772
-0.0015491106 0.06408189 -0.068493284 -0.013600707 0.1267254 -0.12184517 -0.03372922 -0.06806593
0.053416204 -0.0013656033 0.06804687 0.04279897 0.00085389835 0.08293246 -0.029076774 0.09876107
-0.09440164 -0.07868866 0.0235955 0.028331017 0.009256537 -0.037510816 -0.009489135 -0.06978521
0.0025370696 0.110147804 0.003315379 -0.033916436 0.05570109 -0.11418764 -0.08449125 0.020277234
-0.11925254 0.0493504 -0.007289825 -0.016364954 -0.017780209 0.042830497 -0.050283268 -0.00418804
0.048576333 0.035120323 0.02164874 0.10380692 -0.06318454 -0.048186153 -0.07743943 -0.03867558
-0.009259931 0.028634282 0.0023668008 -0.057763755 0.036332693 -0.017369775 0.027654877 0.024237895
-0.057136003 -0.00025446597 -0.05805845 -0.08038534 -0.070331894 0.09550295 0.03805832 -0.02593107
-0.16679242 -0.10469733 -0.08973494 -0.051302936 -0.14735557 -0.01983674 -0.22849919 -0.08112492
-0.049804524 0.062474467 -0.074182175 0.01250393 0.044320736 -0.16977824 -0.11961885 -0.096777834
-0.014900633 -0.23226161 -0.22461176 -0.16082337 -0.020228162 -0.19609712 -0.11373478 -0.19762273
0.039842848 -0.25154486 -0.20208097 -0.054022204 -0.028042484 -0.17650582 -0.14682327 -0.1384876
-0.20655589 -0.260324 0.10443835 0.108664356 -0.16553918 -0.027104205 -0.24762376 0.037046302
-0.12390192 0.05964699 -0.12811911 -0.06348228 -0.12066763 -0.03782389 0.096647315 -0.22218983
-0.17819151 -0.045746878 -0.16659935 -0.05417578 -0.16683756 -0.100162946 -0.05028349 -0.036101807
-0.05912871 -0.030974213 -0.13786614 -0.227011 -0.17445315 -0.10345871 -0.14755973 -0.22022483
0.023608238 -0.09088416 -0.26774758 -0.14968838 0.044878695 -0.017213458 -0.24388994 -0.11594562
-0.05236371 -0.12796357 0.061654426 -0.14190856 -0.14025022 -0.122183375 -0.14282654 -0.11090026
0.028415821 -0.059820972 -0.08124101 -0.15156464 0.006128876 -0.07106614 0.024460698 0.0068012374
-0.08962577 -0.12501189 -0.10855862 -0.06921482 -0.06866081 -0.06696332 -0.06402431 -0.040362705
-0.09938553 0.010277469 -0.019843144 0.018593369 -0.043961734 -0.04527757 -0.11948099 0.09762232
0.0149151785 -0.084221974 0.10071438 -0.033068642 -0.045213968 -0.0012643867 0.066268586 0.12638791
-0.07636613 0.019712 0.091201484 -0.005497262 0.10408244 -0.004439775 0.041202176 0.017955454
-0.08396148 -0.0053944355 0.0098691005 -0.02812017 -0.008897093 -0.09900491 -0.03854324 -0.03647684
0.035806958 -0.07788716 0.1138456 0.06293553 0.03582802 0.028914869 -0.006338981 0.0020776764
-0.06879425 -0.052221324 -0.01894092 -0.07708507 0.07039709 -0.054759335 -0.00866394 0.14039828
0.049546596 -0.099984236 0.09314412 0.0046981154 -0.037759162 -0.08082866 -0.06741983 -0.010441393
-0.0028172117 0.077142484 -0.11150305 -0.10288263 0.0005228382 -0.10414053 0.018770868 0.09243332

l1.bias_hh_l0 f4 [285]
00000000: ec12 a73d 1005 48bb 78f0 aabd fd91 9bbc
00000010: 626f c2bd b9d0 08bd 8958 3f3d 4add a03c
00000020: 30de 9e3d 5b48 f33a ef6b 19bd 813c 843b
00000030: 30cf 96bd 5862 0f3d 4f65 51bd 939e 6bbc
00000040: 057f 943d d934 a03c 8b79 30bd d576 8f3d
00000050: 1fb6 c93c 6276 d73d e03d 68bd c285 2dbc
00000060: 90f5 d2bd e5c8 e33d 4cef 793a c6a5 c13d
00000070: f886 aebd 3dea 013b 7f94 0dbd 43be 89bd
00000080: 4c67 883d 8c21 2a3d 6fe2 653d 31b5 d43d
00000090: bd0a 013e 1e34 88bd 2132 853d cea0 f7bb
000000a0: 518d b63d 1804 c4bd dc35 c73b c8c0 c03d
000000b0: e79d adbd 0ded 35bc f4d5 8f3c 4376 91bd
000000c0: a1f6 06bd ebd7 b0bd 79c8 a0bb 5b32 9d3d
000000d0: 0712 7b3d cd66 253d e5dd 213d 8218 893b
000000e0: 293f 97bc 9f55 8cbd c5c5 8c3d 37f6 fe3c
000000f0: e12e 273c c57d 09be 3292 c4bc 8c44 abbc
00000100: 1fb0 c3bd 71c3 c2bd 4b42 ab3d f7df 663d
00000110: c830 adbb 144c 103e 4ce5 bb3d 292e aabd
00000120: c7ea 883c 8507 45bd 9a7e 0fbd 80ae 053d
00000130: 9808 bdbd 5950 8abd 2479 b2bd 1ed2 243d
00000140: d8a4 5c3d 18a1 37bd c719 c9bd 6d77 eabd
00000150: 9a69 1abd fd70 343d e149 1f3d 6eae aa3d
00000160: 4794 e13c 5560 9fbb 4210 a43d 189a ca3d
00000170: 96fc 7b3d 0ac3 b43c 9ad7 e4bc bcd8 86b9
00000180: 2779 58be 9e5f c4bd 8f92 82bd 59e4 2ebd
00000190: c31a bcbd 2e9a 9fbc b888 6abe c51c 05be
000001a0: 1664 a6bd 4bff da3c 5531 f83c c60c a83c
000001b0: fb11 a6bd c6a8 dcbd de78 73bd c038 78bd
000001c0: bd30 52bc ef80 5cbe 8fc3 0cbe 20ed 62be
000001d0: d5cb 19bd eda7 03be 0a5c 8cbd 134c e9bd
000001e0: 6805 973c c648 d7bd ba26 65be d675 38be
000001f0: 190d 0dbe 1b25 e9bd 93c0 92bd 4eb9 04be
00000200: 5fae 10be 782f 58be 8994 5fbd c5a7 55bd
00000210: 47b9 90bd c980 febd 5c1c 74be 2f9a 233d
00000220: 4024 f6bd aad5 51bd d6cd 2abe 5897 edbd
00000230: 9760 aebd f855 3abd 0ab2 b33b 2be4 e8bd
00000240: 248e e4bd a639 8cbd 1d7d 25be e272 97bc
00000250: a56b 4bbd 0371 3cbe 205b 14be 223c bdbd
00000260: aeaa ecbd 551b 8dbd e73a 9fbe a866 72be
00000270: 30ce 3cbe 4210 46be b88e f8bd cb28 10be
00000280: 184a 633a 181d 44bd 018e 82be f25b ab3b
00000290: 5790 d83c 982b 11be 93df 5bbe 7b56 9a3d
000002a0: 4b88 9dbd 5063 71bd 2cc0 a23c 0dca 16bd
000002b0: 6b67 5bbd 5f1c 3bbe 995f babd 8762 11be
000002c0: 2c46 1abe d299 d2bd aa3e a6bb 64e9 dcbd
000002d0: febf 04bd b7e8 24be 095a 7f3d 454d d8bd
000002e0: 12d7 81bd f7fe 2cbe 0830 e9bd 3f98 d1bc
000002f0: 972e f6bc 0c03 56bd eb98 26bd 77a8 ffbc
00000300: 14b4 72bd e2f3 ef3a 93c4 0a3b c567 88bc
00000310: 86a4 14be f275 9abd a33f 0dbe 8f25 27bd
00000320: 16fe 073d 5837 5cbd a9ae 023d 5a7d 863c
00000330: 10df 11bd 6deb 773d bb2d d13d 2584 7b3c
00000340: b80f 11be 44b2 1abe 209c 9aba 6003 17bd
00000350: b55e a23d 4b09 df3c b2de 373d b750 843c
00000360: b924 f93c b65f 6ebd 5678 c83d 45be a23d
00000370: 4a90 b83c 018f d8bd 6bdd 8b3c 90fa 5cbd
00000380: cbbc 4f3d 1070 afbd 979b de3d 8cd0 833d
00000390: b069 a2bd a116 98bd c16b eebd 1420 b5bc
000003a0: da9b 3abc 53a3 503b 9e87 9e3b af1d e7bd
000003b0: 435e fabb d955 933c 5036 04bd 7973 d43d
000003c0: 80af 81bd c7ad aebc 2bad 773d 298c a03d
000003d0: 114e 86bd 6f00 a93a 9638 963c 4c45 c93d
000003e0: 230d 51bd f9c0 123d 2351 3a3d 4301 a53d
000003f0: e052 463d d0fe d2bd 90c8 cb3d d088 6c3d
0.08157906 -0.0030520596 -0.08346647 -0.018990511 -0.09493901 -0.03340218 0.046715293 0.019636769
0.07757223 0.0018560992 -0.03745645 0.004035533 -0.07363737 0.035005897 -0.051122006 -0.014381069
0.072507896 0.01955645 -0.043084662 0.07005087 0.024622975 0.105206266 -0.056699634 -0.010590972
-0.103007436 0.11122302 0.0009534254 0.09455447 -0.08521837 0.0019823455 -0.034565445 -0.06725743
0.06660327 0.0415359 0.056124147 0.10386122 0.12601753 -0.066505656 0.06503702 -0.007557011
0.08913673 -0.09571093 0.0060794186 0.0941177 -0.08477383 -0.011103881 0.017558075 -0.07102635
-0.032950047 -0.08634933 -0.0049067107 0.0767562 0.06129649 0.04038124 0.039518256 0.0041838298
-0.018462734 -0.068522684 0.06873659 0.031123264 0.010204048 -0.13426884 -0.023995493 -0.02090671
-0.09555077 -0.09509934 0.08362254 0.056365933 -0.005285356 0.14091522 0.09174594 -0.083095856
0.016713513 -0.048102874 -0.035032846 0.03263712 -0.09230155 -0.06753606 -0.08714512 0.040239446
0.053868145 -0.044831365 -0.0981937 -0.1144856 -0.037698366 0.044053067 0.038888816 0.08334051
0.027536524 -0.0048637786 0.080109134 0.09892672 0.06152018 0.022065658 -0.027934838 -0.0002571995
-0.21139966 -0.0958855 -0.0637561 -0.042698238 -0.09184792 -0.019482698 -0.22903717 -0.12999256
-0.08124559 0.026733061 0.03029696 0.020513903 -0.08108898 -0.107743785 -0.05944144 -0.060600996
-0.012829003 -0.2153356 -0.13746475 -0.22160769 -0.037547905 -0.12857027 -0.068534926 -0.11391463
0.018435195 -0.10511927 -0.22378054 -0.18013701 -0.13774528 -0.113840304 -0.07165637 -0.12961313
-0.14129017 -0.21111858 -0.054585014 -0.05216195 -0.07066589 -0.124269076 -0.23838943 0.039941963
-0.12018633 -0.051229157 -0.16680083 -0.11601132 -0.08514517 -0.045492142 0.0054838704 -0.113716446
-0.11159924 -0.06846933 -0.16161008 -0.018487398 -0.049663205 -0.18402486 -0.14487886 -0.09239985
-0.11555992 -0.06889979 -0.31099626 -0.23671973 -0.1843803 -0.1934214 -0.121365964 -0.14078061
0.00086704036 -0.04787931 -0.25498965 0.0052294666 0.026436014 -0.14176786 -0.21472006 0.07536026
-0.076920114 -0.058932602 0.019867025 -0.036813784 -0.053565424 -0.18272541 -0.09100265 -0.14197741
-0.15065831 -0.10283245 -0.005073388 -0.10786703 -0.03240966 -0.16104399 0.062341724 -0.10561613
-0.063398495 -0.16894136 -0.11386114 -0.025585292 -0.030051513 -0.052249 -0.040673178 -0.03120826
-0.059253767 0.0018306936 0.0021174296 -0.016651044 -0.14515886 -0.075420275 -0.13793807 -0.040807303
0.0332013 -0.053763717 0.03190485 0.016417194 -0.03561312 0.060527254 0.102138005 0.01535133
-0.14166152 -0.15107065 -0.0011795796 -0.036868453 0.0792822 0.02722611 0.044890113 0.01615177
0.030413019 -0.058196746 0.09788577 0.07946447 0.02252974 -0.10574151 0.017073354 -0.053949893
0.050717156 -0.08566296 0.1086952 0.064362615 -0.079303145 -0.07426191 -0.11641646 -0.022110023
-0.011389697 0.003183563 0.004837944 -0.112849586 -0.0076406314 0.017985271 -0.03227836 0.10373587
-0.06332302 -0.021323098 0.06046788 0.078392334 -0.06557859 0.0012893806 0.01833753 0.098276705
-0.05103792 0.035828564 0.045487534 0.08056881 0.04841888 -0.10302508 0.09950364 0.057747662

l2.weight f4 [1, 95]
00000000: ea35 7dbd 63ab 29be c07e e43d 5d76 273e
00000010: d416 013e 5cc2 cdbd 2947 9abd 8454 e23d
00000020: 2216 7ebd 1332 29be c6c6 cf3d d018 02bd
00000030: 7e60 aabd 0931 0d3e 38d8 e6bd 7bbd a93d
00000040: 99ed 63bd f4c3 203c 0be1 0f3e d728 9cbd
00000050: be9a cfbd ac4b 4d3c 7e3b dbbd efe1 3c3e
00000060: bd4d 0d3e d51c f53d 4185 f03d 6bb6 543e
00000070: d438 43be 1e1e 403e 60a4 39be ab8e 033e
00000080: 677f 04be d126 053e edca 23be 9639 173d
00000090: c31e 37bd f52a f4bd c834 c4bd d75d 33be
000000a0: cd0b 2fbd 54de 1f3e 9847 11bd ced6 18be
000000b0: 7166 fc3d 979e 163e e649 a73d 61e1 87bd
000000c0: ccd4 3cbe 635c c4bd dee5 9dbd 3c41 2bbe
000000d0: fa61 91bd 47fb 273e 7f35 de3d e76b 2c3e
000000e0: edae 6abd b02b 36be 6f39 12be 5eda d63d
000000f0: b95c 253e b10f 163e 8f6a c6bd 5e6f 7fbd
00000100: 2440 bfbd 980a 9b3d a701 b1bd 6f8d 02be
00000110: 8c46 0a3e 3fa9 943d 7732 3dbc e7d5 4b3e
00000120: 9a3f 843c f180 203e 2baf a33d 6a35 ae3c
00000130: a61f e53d a117 e5bd 393f 273e 8416 39be
00000140: 6f1a a03d d464 933d 4368 11be 82af cdbd
00000150: 281d dcbd fdd9 263d 4164 00be bdce 71bd
00000160: 9737 a6bd c4ae d63d e954 b53d bbee e6bd
00000170: 8a47 0f3e 988f 04be df69 d03d
-0.061818995 -0.16569285 0.11156988 0.16353746 0.12606364 -0.10046837 -0.07533104 0.11051276
-0.062032826 -0.16523008 0.10145335 -0.031761944 -0.08319186 0.13788237 -0.11271709 0.08288094
-0.055646513 0.009812344 0.14050691 -0.07624977 -0.101369366 0.012530249 -0.107047066 0.18445562
0.13799186 0.1196839 0.11744166 0.20772712 -0.19064647 0.18761489 -0.1812911 0.12847392
-0.12939225 0.13003089 -0.15995379 0.036920153 -0.04470707 -0.11922256 -0.0958038 -0.17516266
-0.042735863 0.15612155 -0.035468668 -0.14925691 0.12324227 0.14708935 0.08168392 -0.066347845
-0.1844055 -0.09587934 -0.07709859 -0.16724104 -0.07098766 0.16404448 0.10850047 0.16838036
-0.05729573 -0.17790103 -0.14279722 0.10490869 0.16148652 0.14654423 -0.09688293 -0.062362067
-0.09338406 0.0757038 -0.08642893 -0.12749265 0.13503474 0.07258844 -0.011547676 0.19905816
0.016143609 0.15674187 0.07992395 0.021265704 0.11187677 -0.111861475 0.16332711 -0.18074995
0.07817542 0.07196966 -0.14199929 -0.10043241 -0.107477486 0.040735234 -0.12538244 -0.05903505
-0.08116072 0.10482553 0.08854086 -0.11276003 0.13992134 -0.12945402 0.10176443
