models/rnn-flow_temp.pt (torch, 115939 bytes, 5 tensors)

l1.weight_ih_l0 f4 [285, 3]
0	0x3d9ba452	0.07599701
1	0x3dc9975d	0.098433234
2	0xbbc95ce9	-0.006145109
3	0xbe0c6f63	-0.13714366
4	0xbd90b722	-0.0706618
5	0xbd2f9328	-0.04286495
6	0x3e6cf774	0.23141271
7	0x3e8bd23d	0.27308837
8	0x3d853a76	0.06505291
9	0xbc0dc031	-0.008651779
10	0xbd88c600	-0.066783905
11	0xbe15ae1a	-0.14617196
12	0xbe32186f	-0.17392133
13	0xbdc8712c	-0.09787211
14	0xbe1d525e	-0.15363452
15	0x3ca0a350	0.019609123
16	0x3cf4dd6d	0.02989074
17	0xbd8a7e64	-0.06762388
18	0xbdb01925	-0.08598546
19	0xbdc8c6cc	-0.098035425
20	0x3d0db967	0.03460064
21	0xbc898a04	-0.016789444
22	0xbd64868f	-0.055792388
23	0x3cd97693	0.026545798
24	0x3cb5272a	0.022113401
25	0x3d33704e	0.043808274
26	0x3e336635	0.17519458
27	0xbd8ac9f0	-0.06776798
28	0xbc1f5766	-0.009725427
29	0xbe07d7c8	-0.13265908
30	0xbe040cdf	-0.12895535
31	0x3db948f8	0.09047121
32	0xbe448041	-0.1918955
33	0xbcb9d677	-0.022685273
34	0xbd716056	-0.058929764
35	0xbd5771b1	-0.05259866
36	0x3d1dfc8e	0.038570933
37	0x3e33e014	0.17565948
38	0x3d33e91e	0.04392349
39	0xbdb8a94b	-0.09016665
40	0xbdc6eb48	-0.09712845
41	0xbe2819a5	-0.16416033
42	0x3ca383e7	0.019960357
43	0xbdac906e	-0.08425985
44	0xbe63ec9a	-0.22258225
45	0x3da298dd	0.079393126
46	0x3e500007	0.2031251
47	0x3d81c4e1	0.0633638
48	0x3da38d57	0.07985943
49	0x3d98f3a0	0.07468343
50	0x3e152be8	0.1456753
51	0x3e30e983	0.17276578
52	0x3dd0a76a	0.10188182
53	0x3d5a5d3c	0.05331157
54	0x3e415a7a	0.1888217
55	0x3cdb8383	0.026796108
56	0x3d9b4891	0.075822
57	0x3d50fdfc	0.05102347
58	0x3d8024d7	0.06257027
59	0xbe0b2709	-0.1358911
60	0x3e3c41cf	0.18384479
61	0x3e190d81	0.14946558
62	0xbe02dca3	-0.12779479
63	0x3ddb4141	0.107058056
64	0x3ddd8988	0.10817248
65	0x3d96fbc9	0.07372243
66	0x3cb38b81	0.021917107
67	0x3d5caf79	0.05387828
68	0x3e54caf5	0.20780547
69	0x3d5deda6	0.054181717
70	0xbda2bce5	-0.07946185
71	0xbd0dc13f	-0.034608122
72	0x3d1c9dbd	0.03823637
73	0x3ce70f0f	0.028205423
74	0x3e318298	0.17334974
75	0x3e308bd4	0.1724084
76	0x3d91e96c	0.071246
77	0xbe0980c1	-0.13428022
78	0xb99d7679	-0.00030033643
79	0xbdc1eef7	-0.09469407
80	0xbde2715b	-0.11056777
81	0x3be0f41d	0.006865038
82	0x3cb5603f	0.02214062
83	0xbe529edf	-0.20568417
84	0xbe2ec2bc	-0.17066473
85	0xbde9b419	-0.11411304
86	0xbe01da72	-0.12680987
87	0xbd1db81c	-0.03850566
88	0x3d235cfa	0.03988359
89	0xbb54d8ef	-0.0032477935
90	0x3ddf5450	0.10904753
91	0x3db5da1f	0.08879494
92	0x3d5e1665	0.054220576
93	0x3c5d5c05	0.013510709
94	0xbdee0987	-0.11622911
95	0xbe3d0540	-0.18459034
96	0x3e363b1f	0.1779599
97	0x3dd8dfde	0.10589574
98	0x3b99c87f	0.0046930905
99	0xbdbf0149	-0.09326417
100	0x3d5ac219	0.053407762
101	0xbd5a19df	-0.05324733
102	0xbe3dab1a	-0.18522301
103	0xbdeb8d9d	-0.1150162
104	0xbe894244	-0.2680837
105	0xbe022750	-0.12710309
106	0xbdf292e8	-0.118444264
107	0xbd7e8a36	-0.062143527
108	0x3d23ad15	0.039959986
109	0x3dc155f1	0.0944022
110	0xbe001c57	-0.12510811
111	0xbd607f1c	-0.05480872
112	0xbe0564ec	-0.1302678
113	0x3e14a27c	0.14515108
114	0x3ec4df0f	0.3845143
115	0x3e32ac3b	0.17448513
116	0x3e7e2b69	0.24821247
117	0x3c45a4b9	0.012063199
118	0x3cced307	0.02524711
119	0x3d81baf6	0.06334488
120	0x3d4355c6	0.04768922
121	0x3ac85636	0.0015284482
122	0xbe2cae1c	-0.16863292
123	0x3dd46048	0.10369927
124	0xbd1ee1bc	-0.038789496
125	0xbd8a9ebf	-0.0676856
126	0xbdf2f0a6	-0.11862306
127	0xbd9dcf7d	-0.07705591
128	0xbe34d187	-0.17658053
129	0xbe2eb717	-0.1706203
130	0xbe15e7c4	-0.14639193
131	0x3e0c4cde	0.13701198
132	0xbdb3c7f4	-0.087783724
133	0x3c36d2d7	0.011158667
134	0x3e2ea7ff	0.17056273
135	0xbbec6e8b	-0.007215326
136	0x3c3b937d	0.011448738
137	0xbe150090	-0.14550996
138	0xbbe077c8	-0.0068502165
139	0x3c8d4bfd	0.017248148
140	0x3d787191	0.06065518
141	0x3c6e79ef	0.014555438
142	0x3e07328f	0.1320288
143	0xbd7e8fb5	-0.06214877
144	0xbd665b4a	-0.056239404
145	0xbc892e00	-0.016745567
146	0x3dc1189e	0.094285235
147	0xbd1c92fd	-0.038226116
148	0xbd8ef03e	-0.06979416
149	0xbe4d717d	-0.20062824
150	0xbd0ed1d7	-0.034868088
151	0xbd1cadb4	-0.038251594
152	0x3cc0fcce	0.023558047
153	0x3d4e97f1	0.05043787
154	0xbc18daf1	-0.009329543
155	0xbc4e824e	-0.012604309
156	0x3c6d1e43	0.014472547
157	0xbdc6ef99	-0.097136684
158	0x3ce7fd77	0.028319104
159	0xbd99f3dc	-0.075172156
160	0xbd42d324	-0.04756464
161	0x3bdad3bf	0.006678074
162	0xbcc905f7	-0.024538977
163	0xbd10154e	-0.035176568
164	0x3d66a166	0.056306265
165	0xbde2da3c	-0.11076781
166	0xbde7ca8c	-0.113179296
167	0xbd99f951	-0.075182565
168	0xbcc0faec	-0.023557149
169	0x3d6e10c7	0.05812147
170	0x3d983998	0.0743286
171	0x3e2f7078	0.17132747
172	0x3ea1abde	0.31576437
173	0x3d33df95	0.043914396
174	0x3e2e3547	0.17012511
175	0x3e79140e	0.24324057
176	0x3e3c4f80	0.18389702
177	0x3e07fd2c	0.13280171
178	0x3e83f91c	0.25775993
179	0xbdf7ef25	-0.1210616
180	0x3cff03b7	0.031129701
181	0xbc1b208e	-0.009468211
182	0x3d2bac10	0.04191214
183	0x3e5aea0b	0.21378343
184	0x3e8d83da	0.27639657
185	0x3e83247f	0.25613782
186	0xbc694db6	-0.014239719
187	0xbbcdbd43	-0.0062786653
188	0xbd68b202	-0.056810386
189	0x3df64d16	0.12026422
190	0x3dfb1d44	0.12261441
191	0x3e07462d	0.13210364
192	0xbdd03834	-0.1016697
193	0xbc919444	-0.017770894
194	0xbe43190a	-0.1905252
195	0xbdf97904	-0.12181285
196	0xbdb2b5a7	-0.08726054
197	0x3dd271c9	0.10275609
198	0x3c20b5fc	0.009809013
199	0x3cc1f176	0.023674708
200	0x3daad46f	0.083413
201	0x3dbd472e	0.09242092
202	0xbda368f4	-0.079790026
203	0xbc537c39	-0.012908035
204	0x3cdf9607	0.027293218
205	0x3e04c953	0.12967424
206	0xbd9317a9	-0.07182247
207	0x3e601db9	0.21886338
208	0x3e028052	0.12744263
209	0x3d6eec1f	0.05833065
210	0xbe17434c	-0.14771765
211	0xbe0ed30d	-0.13947697
212	0x3de530d0	0.11190951
213	0xbdfc0548	-0.12305695
214	0x3cc29317	0.023751779
215	0xbd35fa30	-0.04442805
216	0xbcda8b71	-0.026677819
217	0xbc84aad7	-0.016194744
218	0x3e0cbaa4	0.13743073
219	0xbe20d102	-0.1570473
220	0xbd6a5759	-0.057212207
221	0xbb68c555	-0.003551801
222	0x3df44b89	0.1192847
223	0xb643e8d1	-2.9192781e-06
224	0x3d1f0b67	0.038829233
225	0x3dc4a3af	0.09601533
226	0xbd384780	-0.044990063
227	0xbda91b0c	-0.08257112
228	0x3e04d476	0.12971672
229	0x3e013e86	0.12621507
230	0xbba5f8fc	-0.0050650816
231	0x3e4aa6a1	0.19790126
232	0x3d9c1643	0.076214336
233	0xbc8d9f3b	-0.017287841
234	0x3df011c2	0.11722137
235	0xbd30285c	-0.04300724
236	0x3d47ad66	0.04874935
237	0x3e118b0b	0.14213197
238	0x3e4da611	0.2008288
239	0x3db71698	0.08939856
240	0x3de593ca	0.11209829
241	0x3df39133	0.11892929
242	0x3d570c23	0.05250181
243	0x3cfeb16b	0.031090459
244	0x3dc15eea	0.094419315
245	0xbe6527c5	-0.22378452
246	0x3e22a298	0.15882337
247	0xbd40230c	-0.046908423
248	0x3dd84b5d	0.105612494
249	0x3de353ea	0.1109999
250	0x3d937e4a	0.07201822
251	0x3d9beebe	0.07613896
252	0x3e38b3b8	0.18037307
253	0x3d55dcf4	0.05221267
254	0x3d370eba	0.04469178
255	0xbe55ab69	-0.20866169

l1.weight_hh_l0 f4 [285, 95]
0	0xbd86ff4a	-0.06591661
1	0x3be6d58a	0.007044499
2	0xbdb18221	-0.08667398
3	0x3d8c5e8a	0.068539694
4	0xbdc52cbd	-0.09627674
5	0x3c9ee52a	0.019396383
6	0x3e0a6325	0.13514383
7	0xbc8890e0	-0.016670644
8	0xbbed28da	-0.007237536
9	0x3dbba8e2	0.09163071
10	0xbd2c88de	-0.042122714
11	0x3a56e011	0.00081968406
12	0xbd708898	-0.058724016
13	0xbcbcb8f2	-0.023037408
14	0x3ca90801	0.0206337
15	0x3d3d60b5	0.046234805
16	0xbc044977	-0.008074156
17	0xbdd62973	-0.104571246
18	0x3d331e97	0.043730345
19	0xbd1937a2	-0.03740657
20	0x3ce5d09b	0.028053572
21	0x3d1781d4	0.036989048
22	0x3d38fd6f	0.045163568
23	0xbd5d24b3	-0.053990077
24	0x3ce2ce60	0.027686298
25	0xbcec9f7e	-0.028884646
26	0xbdf6e721	-0.12055803
27	0xbd9f05ee	-0.07764803
28	0x3d9b5b95	0.07585827
29	0x3c7e5431	0.0155230025
30	0x3d644d3b	0.055737715
31	0x3d52285f	0.051308032
32	0xbdf1b05f	-0.11801218
33	0x3cca93f8	0.02472876
34	0x3dc62841	0.096756466
35	0xbd02d3d4	-0.031940296
36	0x3dc16fd7	0.0944516
37	0xbce088a3	-0.027408903
38	0x3e088692	0.13332585
39	0xbd148a5c	-0.036264762
40	0x3d885640	0.06657076
41	0xbddaf358	-0.106909454
42	0xbc6aa370	-0.014321193
43	0x3c0f877d	0.00876033
44	0x3cf280d6	0.02960245
45	0x3da68bad	0.0813211
46	0x3da7ef7a	0.081999734
47	0x3db83cbf	0.089959614
48	0x3dbf834c	0.09351215
49	0x3dda9e2c	0.106747
50	0xbc93fe67	-0.018065644
51	0xbdbe229c	-0.09283945
52	0xbd82b462	-0.063820615
53	0xbcdcced4	-0.026954092
54	0xbd8ce29e	-0.06879161
55	0x3d710c05	0.058849353
56	0x3c73f97d	0.014891026
57	0x3cc03db9	0.023466932
58	0x3d8e23bf	0.06940412
59	0x3d811b08	0.06303984
60	0xbc2e52c1	-0.010639847
61	0xbd7faa9b	-0.06241856
62	0xbdb62b4f	-0.08894979
63	0x3d8ba73b	0.06819006
64	0x3d586d23	0.052838456
65	0x3d543e87	0.051817443
66	0xbddd85cb	-0.108165346
67	0xbde3733e	-0.11105965
68	0x3d9afff2	0.07568349
69	0x3d2c38f4	0.042046502
70	0xbd928fec	-0.07156357
71	0x3c488f5a	0.012241209
72	0xbd88f428	-0.06687194
73	0x3e15350a	0.14571014
74	0x3d7a9f3b	0.06118701
75	0x3dc84da6	0.09780435
76	0xbd5199c1	-0.05117202
77	0xbd888ead	-0.06667838
78	0x3d8deb62	0.06929661
79	0x3e054826	0.13015804
80	0x3d563b51	0.052302662
81	0x3d640f4c	0.05567865
82	0xbd91c306	-0.07117276
83	0x3dcff299	0.10153694
84	0xbdb7b0ad	-0.08969245
85	0xbc813410	-0.015771896
86	0xbd531072	-0.051529355
87	0xbd9388f9	-0.0720386
88	0x3d374128	0.044739872
89	0xbdba61d0	-0.091006875
90	0xbca1bba1	-0.019742789
91	0xbd9d7114	-0.076875836
92	0xbd9960c3	-0.07489159
93	0x3d1fe50f	0.039036807
94	0xbd2ac240	-0.041689157
95	0xbd9613a1	-0.07327963
96	0xbd00bb2b	-0.031428497
97	0xbcb9a5cc	-0.022662066
98	0xbe05947b	-0.13044922
99	0x3d943bde	0.07237981
100	0x3e07f2e9	0.13276257
101	0xbd5ee4ec	-0.054417536
102	0xbc44a8dc	-0.01200315
103	0x3d333e1d	0.043760408
104	0xbc0bea35	-0.008539726
105	0xbd56a682	-0.052404888
106	0x3cb8a493	0.022539413
107	0x3e1c854d	0.15285225
108	0xbdd377f2	-0.10325612
109	0xbd57f545	-0.05272414
110	0xbba0271b	-0.0048874742
111	0x3d6f2bfb	0.058391552
112	0xbd82eec0	-0.06393194
113	0x3bc111d2	0.005892017
114	0x3d7ac3b4	0.061221793
115	0xbb9f2374	-0.0048565213
116	0x3d338cd7	0.043835487
117	0x3da65536	0.081217214
118	0x3d789780	0.060691357
119	0xbdbc42a3	-0.091923974
120	0xbd1606a1	-0.036627416
121	0x3dd9a129	0.10626442
122	0x3d85e57f	0.065379135
123	0xbda528dc	-0.08064434
124	0x3d865343	0.0655885
125	0xbca7edef	-0.020499198
126	0xbd75ef6c	-0.060042784
127	0x3ce47c9f	0.027891455
128	0xbddf4a67	-0.10902863
129	0xbc0e69e8	-0.008692242
130	0xbd6cf47e	-0.057850353
131	0xbddb40e3	-0.107057355
132	0xbc9809d8	-0.018559381
133	0xbd860ac0	-0.06545019
134	0x3d2c3ae9	0.04204837
135	0xbd207344	-0.039172426
136	0x3d6cc8b8	0.057808608
137	0x3d4d9887	0.05019429
138	0x3bbe3e46	0.0058057634
139	0x3b8f146f	0.0043664495
140	0x3d53e8d6	0.05173572
141	0x3ccb0f97	0.024787707
142	0xbc5238a9	-0.012830892
143	0xbd012023	-0.03152479
144	0xbc95b1b6	-0.018273216
145	0x3c0c4dbb	0.008563454
146	0xbd01301c	-0.03154002
147	0x3d41d934	0.04732628
148	0xbd97250a	-0.073801115
149	0xbc8c1b49	-0.017102854
150	0x3ca439c9	0.020047085
151	0xbce45afe	-0.02787542
152	0xbd63f4e9	-0.055653486
153	0xbcddcb4f	-0.027074484
154	0xbd8026ed	-0.062574245
155	0x3dd41d1c	0.10357115
156	0x3d180b35	0.037120063
157	0x3d6410a2	0.055679925
158	0xbdd8ae2a	-0.10580094
159	0x3d484e23	0.048902642
160	0x3d42e04d	0.04757719
161	0x3e0da9cb	0.13834302
162	0x3d4854de	0.04890906
163	0xbdda7850	-0.10667479
164	0x3d23344e	0.039844804
165	0x3d8d43ca	0.06897695
166	0xbce20c9b	-0.027593901
167	0xbd928b6a	-0.07155497
168	0xbc04dc8b	-0.008109222
169	0xbc709fcf	-0.014686539
170	0xbd6973d6	-0.056995235
171	0xbd592ea7	-0.053023007
172	0x3dc57fdc	0.09643528
173	0xbd051086	-0.03248646
174	0x39d2db18	0.0004021756
175	0x3de13637	0.10996669
176	0x3d9b015b	0.07568618
177	0xbab46bcf	-0.001376504
178	0xbcd692d5	-0.026193062
179	0xbd659149	-0.056046758
180	0x3dae0be1	0.084983595
181	0xbe099107	-0.1343423
182	0xbafb53c2	-0.0019174742
183	0xbe16df92	-0.14733723
184	0x3debec39	0.11519665
185	0xbd41419b	-0.047181707
186	0x3d41c985	0.047311325
187	0xbd48fac7	-0.049067285
188	0xbd1680d3	-0.03674395
189	0x3d7da462	0.061924346
190	0x3dbb7e4b	0.09154948
191	0x3ca25e3b	0.019820323
192	0xbd124e85	-0.035719413
193	0xbc34bf10	-0.011031881
194	0x3d733281	0.059374336
195	0xbda6a1d5	-0.08136336
196	0x3c416c9a	0.011805678
197	0xbc8456f7	-0.01615475
198	0x3e09c693	0.13454656
199	0xbdd3aa9b	-0.10335275
200	0xbbf403b6	-0.0074467314
201	0x3e1cd84a	0.15316883
202	0x3c07fde7	0.008300281
203	0x3d905197	0.07046812
204	0x3b056d35	0.0020359282
205	0x3cd2eb89	0.025747078
206	0x3e3367d5	0.17520078
207	0x3da47a11	0.08031095
208	0x3db26511	0.08710683
209	0xbdf9876b	-0.12184032
210	0xbcfaf8b2	-0.030636165
211	0xbb0333d5	-0.0020019908
212	0xbe09e592	-0.1346648
213	0x3c8538f1	0.016262503
214	0x3daceb63	0.08443334
215	0x3d3d41d3	0.046205353
216	0xbd88d771	-0.06681717
217	0x3d84497e	0.0645933
218	0xbdc7cedf	-0.097562544
219	0x3def5a07	0.11687093
220	0xbe1df6f6	-0.1542624
221	0xbe24e0e0	-0.16101408
222	0xbcb0250c	-0.02150204
223	0x3dfe06fa	0.124036744
224	0xbc831d58	-0.016005203
225	0x3da7546f	0.08170401
226	0xbd888e73	-0.06667795
227	0xbc9acd9f	-0.018896876
228	0x3da10746	0.078627154
229	0xbccb6199	-0.024826812
230	0x3da5cdaf	0.08095872
231	0x3db927f4	0.090408236
232	0x3d2187d0	0.03943616
233	0xbb029656	-0.0019926033
234	0xbdbfd236	-0.093662664
235	0xbcac5650	-0.02103725
236	0x3db26844	0.08711293
237	0xbd3ae334	-0.045626834
238	0x3e107874	0.14108449
239	0x3d1077de	0.035270564
240	0x3ca47b21	0.020078244
241	0xbcbf4ace	-0.0233511
242	0xbd8f4ddd	-0.06997273
243	0xbd709e8d	-0.058744956
244	0xbcfc817a	-0.030823458
245	0x3daf2d60	0.085535765
246	0xbd587902	-0.052849777
247	0x3e0476f6	0.12936005
248	0x3dd6465e	0.1046264
249	0xbdd3d3c8	-0.103431284
250	0xbc3e628a	-0.011620173
251	0xbd0f3c83	-0.034969818
252	0xbd84b5b8	-0.064799726
253	0x3d1836fa	0.037161805
254	0x3cdbdcaf	0.026838629
255	0xbdbe1a21	-0.092823274

l1.bias_ih_l0 f4 [285]
0	0x3da3e901	0.08003426
1	0xbcb3420b	-0.021882078
2	0xbc982637	-0.01857291
3	0x3d28cb2d	0.04120939
4	0x3de75b50	0.11296713
5	0x3d594750	0.053046525
6	0xbb864e8e	-0.00409872
7	0x3d9e030c	0.07715425
8	0xbd8768bf	-0.066117756
9	0xbb76c141	-0.003765181
10	0x3da65f35	0.08123628
11	0xbce65fda	-0.028121877
12	0xbd28c749	-0.041205678
13	0x3d4a9cf3	0.049466085
14	0xbd94cdd5	-0.07265822
15	0x3d0cc9de	0.034372203
16	0xbc30d97d	-0.010794041
17	0xbc78d68c	-0.015187871
18	0xbab885ad	-0.0014077924
19	0x3dafb9e4	0.08580378
20	0xbd8b98ce	-0.068162546
21	0xbd9d41f6	-0.07678597
22	0x3dae410e	0.08508502
23	0xbc89eac1	-0.016835572
24	0x3e0e38dd	0.13888879
25	0xbd08fe7f	-0.03344583
26	0xbd26c768	-0.040717512
27	0x3c242c6f	0.010020359
28	0xbdb81c05	-0.08989719
29	0x3cbd2554	0.023089088
30	0xbb348328	-0.0027543996
31	0xbdfffa43	-0.124989055
32	0xbddfeaaf	-0.10933434
33	0x3d440c1d	0.047863115
34	0x3db13349	0.0865236
35	0x3d1968c1	0.037453417
36	0xbdbc35d0	-0.091899514
37	0xbd10a839	-0.03531668
38	0x3df7945d	0.12088845
39	0x3d299064	0.041397467
40	0x3d49639f	0.04916727
41	0x3e0a92dd	0.13532586
42	0x3d56cbea	0.05244056
43	0x3db12ba3	0.08650901
44	0x3cd976c4	0.02654589
45	0xbb9f1b0b	-0.0048555187
46	0x3ca2bd19	0.01986556
47	0xbb731ae1	-0.0037094878
48	0x3cc1b268	0.023644641
49	0x3def677a	0.116896585
50	0x3db7e5be	0.08979367
51	0x3dddfbfa	0.10839076
52	0x3dfc5a24	0.123218805
53	0x3d562bee	0.05228799
54	0xbd25659d	-0.04038011
55	0xbc165623	-0.00917581
56	0x3db5a1af	0.08868729
57	0x3bed2725	0.0072373324
58	0x3dfb031a	0.12256451
59	0x3d8ce019	0.06878681
60	0xbd8df080	-0.06930637
61	0x3dc1038b	0.09424504
62	0x3d5e40a3	0.05426086
63	0xbbafeb07	-0.0053685936
64	0x3d18654a	0.03720597
65	0x3c9bca54	0.019017376
66	0x3e28afa3	0.1647325
67	0x3e3df25b	0.18549483
68	0xbd013e7f	-0.03155374
69	0xbdc52bdd	-0.09627507
70	0x3d2e056a	0.042485632
71	0x3e19f45b	0.1503462
72	0x3d995ae4	0.07488039
73	0xbd574629	-0.052557144
74	0x3e316bdd	0.17326303
75	0x3d18829b	0.03723393
76	0xbc58fc9d	-0.013243821
77	0xbd8a4b33	-0.06752624
78	0xbdfad936	-0.12248461
79	0xbc1232a3	-0.008923206
80	0x3e032887	0.12808429
81	0xbe0591ac	-0.1304385
82	0xbd2c796e	-0.042107992
83	0xbcd3fb9d	-0.025876814
84	0xbde2bfc3	-0.11071732
85	0x3d901046	0.07034354
86	0x3d24d64c	0.040243432
87	0xbd4313ea	-0.047626413
88	0xbd9eaf88	-0.07748324
89	0xbd170231	-0.036867324
90	0xbc861f84	-0.01637245
91	0x3d995862	0.07487561
92	0x3d4adf47	0.04952934
93	0xbd7e6bb1	-0.06211442
94	0xbcb87173	-0.022515034
95	0xbd3db76d	-0.046317507
96	0xbddaf68d	-0.10691557
97	0xbe6cea48	-0.23136246
98	0xbe858ba9	-0.26083115
99	0xbe544c17	-0.20732151
100	0xbc73ff0f	-0.014892354
101	0xbcc664ef	-0.02421805
102	0xbe292823	-0.16519217
103	0xbe71202a	-0.23547426
104	0xbe118c14	-0.14213592
105	0xbe1bf5e3	-0.15230517
106	0xbd5da91d	-0.054116357
107	0x3e0351ad	0.12824126
108	0xbe2acc39	-0.16679467
109	0x3d227000	0.039657593
110	0x3e0538b7	0.13009916
111	0xbe4bec8d	-0.19914456
112	0xbd9d32fe	-0.076757416
113	0xbdd7b93d	-0.10533378
114	0x3d17eb0a	0.037089385
115	0xbdf5ad31	-0.11995924
116	0xbe1a45d1	-0.15065695
117	0xbe260a66	-0.16214904
118	0xbdab8e9b	-0.08376809
119	0xbdd22134	-0.10260239
120	0x3d0ee591	0.0348869
121	0xbca16486	-0.019701254
122	0xbe448490	-0.19191194
123	0xbdf8d584	-0.121501
124	0xbd7c0519	-0.0615283
125	0xbdd6f840	-0.10496569
126	0xbdb87c86	-0.09008126
127	0xbe8e7fe5	-0.2783195
128	0x3d3a1617	0.045431223
129	0xbdf36b86	-0.11885743
130	0xbe07e733	-0.13271789
131	0xbd434d3f	-0.04768109
132	0xbd97fcce	-0.074212655
133	0xbe391a1f	-0.1807637
134	0xbd85e3f4	-0.06537619
135	0x3dbadcc2	0.091241375
136	0xbd325515	-0.04353817
137	0xbea35faf	-0.31908938
138	0xbc8f9827	-0.017528607
139	0x3cbd66c1	0.023120286
140	0xbdb6d17f	-0.08926677
141	0xbe18d22a	-0.14923921
142	0xbd9da836	-0.07698099
143	0x3cfb8884	0.030704744
144	0x3d71978c	0.058982417
145	0x3b104648	0.0022014547
146	0xba5bcc43	-0.00083846244
147	0x3da85fff	0.08221435
148	0xbe43b51f	-0.19112061
149	0xbc9a8f43	-0.01886714
150	0xbdbc9ee9	-0.09209997
151	0x3d6f5f33	0.0584404
152	0xbce87bf1	-0.028379412
153	0xbe46913d	-0.19391342
154	0xbe73ec79	-0.23820676
155	0xbcb019bf	-0.021496652
156	0xbe56d94e	-0.20981333
157	0xbddf0a74	-0.10890666
158	0xbe62e7d2	-0.22158745
159	0xbd98f878	-0.07469267
160	0xbe698497	-0.22804485
161	0xbd8bd818	-0.06828326
162	0xbc1abe60	-0.009444803
163	0xbc8b6c65	-0.01701946
164	0xbe42bb76	-0.19016823
165	0xbe4f170f	-0.2022364
166	0xbe4c4c53	-0.1995099
167	0xbdcccd9d	-0.10000155
168	0xbe51d44b	-0.2049114
169	0xbd9c22ec	-0.07623848
170	0xbc497385	-0.012295608
171	0xbe5532b2	-0.2082012
172	0x3dde44e4	0.108529836
173	0x3d1004e0	0.0351609
174	0xbe8764cd	-0.26444092
175	0x3d279ab1	0.04091901
176	0xbdf076c1	-0.117414005
177	0xbcffd6eb	-0.03123041
178	0x3c99e9fd	0.018788332
179	0xbd0662c3	-0.03280903
180	0xbe280cc1	-0.16411115
181	0x3dd67860	0.104721785
182	0xbe09e72c	-0.13467091
183	0xbe69ebcb	-0.22843854
184	0x3d3c857b	0.046025734
185	0xbe516c97	-0.2045158
186	0xbe6ea50c	-0.23305148
187	0xbe26ba6f	-0.16282056
188	0xbd8421e3	-0.06451776
189	0xbe31d150	-0.17365003
190	0xbd60b477	-0.054859605
191	0x3db40183	0.08789351
192	0xbc129c7b	-0.008948441
193	0x3cc543f0	0.024080247
194	0xbd615841	-0.055015806
195	0xbd53cbf8	-0.05170819
196	0x3dc2cd29	0.095117874
197	0x3d1e25b8	0.03861019
198	0x3cd5c8fd	0.026096815
199	0x3ccdf24e	0.025139954
200	0xbd09ee72	-0.033674665
201	0xbc1623e3	-0.0091638295
202	0xbd27e896	-0.040993296
203	0x3d59b396	0.053149782
204	0xbd85701e	-0.06515525
205	0xbdd3f2c1	-0.10349036
206	0xbca0bfa9	-0.01962264
207	0xbbd895ee	-0.00660967
208	0x3dad040e	0.08448039
209	0x3dbe3ea2	0.0928929
210	0xbd93917a	-0.07205482
211	0xbd64d17e	-0.05586385
212	0x3dc7014c	0.09717044
213	0x3dd4ccdd	0.10390637
214	0x3de31731	0.11088408
215	0xbc8d2b19	-0.017232465
216	0xbd66f1e6	-0.056383036
217	0xbd48bc65	-0.049007792
218	0xbc6072a3	-0.0136992065
219	0xbe044144	-0.12915522
220	0xbc161803	-0.009160998
221	0x3aea4edd	0.0017876286
222	0xbd2cf020	-0.04222119
223	0x3d86296a	0.06550868
224	0x3c847797	0.016170306
225	0xbdc93118	-0.09823817
226	0x3c1b08ed	0.009462577
227	0x3db16f58	0.08663815
228	0x3d6db0de	0.05803
229	0x3d2565ae	0.040380172
230	0x3db8f33a	0.09030767
231	0x3d8b3ba5	0.06798486
232	0xbd9c5e5a	-0.07635184
233	0xbdc4224f	-0.09576856
234	0x3df5675a	0.11982603
235	0xbdf98ddf	-0.12185263
236	0xbe0a218e	-0.13489363
237	0x3db36adb	0.087606154
238	0x3d234f98	0.03987083
239	0xbda53a6c	-0.08067784
240	0xbcd068ff	-0.025440691
241	0xbe18a6e2	-0.1490741
242	0xbe0d774e	-0.13815042
243	0xb99998b3	-0.00029296204
244	0x3daa7265	0.083226
245	0x3c69e5f1	0.014276014
246	0x3dae3e40	0.08507967
247	0xbe009b7a	-0.1255931
248	0xbdb74840	-0.089493275
249	0xbd89930e	-0.067175016
250	0xbdc29e9e	-0.0950291
251	0x3dd07026	0.101776406
252	0xbceeb1f1	-0.029137583
253	0xbd3ab122	-0.045579083
254	0xbd32e4eb	-0.043675344
255	0x3db8e60f	0.09028255

l1.bias_hh_l0 f4 [285]
0	0xbd02ea85	-0.031961937
1	0xbc8b7885	-0.017025242
2	0x3d266781	0.040626053
3	0x3d480b92	0.04883916
4	0x3db9a7ea	0.0906523
5	0xbc00c2a9	-0.007858911
6	0x3e0a8776	0.13528237
7	0xbda8fd56	-0.08251445
8	0xbcb72f0d	-0.022361303
9	0x3da2e02a	0.07952912
10	0x3cf8ace5	0.03035588
11	0xbc22f2b2	-0.009945558
12	0xbd7e45f5	-0.062078435
13	0xbd840fee	-0.06448351
14	0x3d6c46af	0.057684597
15	0x3cc33124	0.023827143
16	0xbdafc646	-0.085827395
17	0x3d585239	0.05281279
18	0xbdc1d97c	-0.0946531
19	0x3d9cae07	0.076503806
20	0x3c303fee	0.0107574295
21	0xbba264b1	-0.004955851
22	0x3de37042	0.11105396
23	0xbd4fbf9d	-0.050719846
24	0x3ce833ca	0.028345007
25	0x3d5cf480	0.05394411
26	0xbcd53ad6	-0.026029032
27	0xbd7ee4db	-0.062229972
28	0xbd12d551	-0.035847966
29	0x3d40f1ef	0.047105726
30	0x3d1fe08c	0.039032504
31	0xbcc72016	-0.024307292
32	0xbd5faa12	-0.05460555
33	0x3cddb1a9	0.027062254
34	0xbd7e205e	-0.062042587
35	0xbce31ecf	-0.027724652
36	0x3d4c671b	0.049903017
37	0xbd957eec	-0.07299599
38	0x3d2e666c	0.042578146
39	0xbd99e484	-0.07514289
40	0xbcb950fa	-0.02262162
41	0x3d83a0d3	0.06427159
42	0x3cad6e01	0.021170618
43	0x3da7f679	0.08201308
44	0x3d7d61e5	0.061860938
45	0x3da89c77	0.08232968
46	0xbd187713	-0.037222933
47	0x3d6aa283	0.05728389
48	0xbd4f3c4d	-0.050594617
49	0xbd533b37	-0.051570144
50	0x3cb8d26a	0.02256127
51	0x3dbd982f	0.09257542
52	0x3d0817de	0.033225887
53	0x3c8e8de5	0.017401645
54	0xbd5c6efe	-0.053816788
55	0xbd3b636b	-0.04574911
56	0x3b2909e0	0.002579324
57	0x3e26a585	0.16274078
58	0x3e0e26cb	0.13881986
59	0xbd462208	-0.0483723
60	0x3dbe4136	0.09289782
61	0x3cb3da86	0.021954786
62	0xbdb161b0	-0.086612105
63	0xbd92e63f	-0.07172822
64	0xbd89c638	-0.0672726
65	0x3d415ee0	0.04720962
66	0x3d59b0e2	0.053147204
67	0x3d8b021c	0.06787512
68	0x3d690b99	0.056895826
69	0xbd1e79f7	-0.038690533
70	0x3d664953	0.05622227
71	0x3d7451d4	0.05964835
72	0x3c7213fd	0.014775273
73	0x3db5f0b9	0.08883805
74	0x3daa88b6	0.08326857
75	0x3d14e9d3	0.036355805
76	0xbdb88546	-0.09009795
77	0xbdbe12c3	-0.09280922
78	0xbdd1c415	-0.10242478
79	0x3c14b07e	0.009075282
80	0x3d06dd6d	0.03292601
81	0xbd6b395d	-0.057427753
82	0x3cb87fae	0.02252182
83	0xbd85a43c	-0.06525466
84	0xbcf2795b	-0.029598882
85	0xbca14ed1	-0.019690903
86	0x3dac999b	0.084277354
87	0xbd8767bf	-0.06611585
88	0xbe1065fe	-0.14101407
89	0x3d1b2c20	0.037883878
90	0xbd297e0a	-0.041379966
91	0xbddde89a	-0.10835381
92	0x3c46bd97	0.012130163
93	0x3dc414d2	0.09574284
94	0x3d139808	0.03603366
95	0xbe15e113	-0.1463664
96	0xbe8067f6	-0.25079316
97	0xbe707fcc	-0.2348625
98	0xbe5dc375	-0.21656592
99	0xbdaa9488	-0.08329111
100	0xbd7e8d76	-0.062146626
101	0x3d729e81	0.059233192
102	0xbe608884	-0.21927077
103	0xbe95f17a	-0.29285794
104	0xbd1ac239	-0.03778288
105	0x3c47a05c	0.012184229
106	0xbe2a0f88	-0.16607487
107	0x3c530416	0.012879392
108	0xbbbba45d	-0.0057263807
109	0xbd95e503	-0.07319071
110	0xbc434059	-0.011917197
111	0xbe67e0fa	-0.22644415
112	0x3c2de78d	0.010614288
113	0xbe6de7f6	-0.23233017
114	0xbd1b04d1	-0.03784639
115	0xbdf745e6	-0.12073879
116	0xbe8530ca	-0.26013786
117	0xbe26841a	-0.1626133
118	0xbdaf71df	-0.08566641
119	0xbd23f78f	-0.040031012
120	0x3d4e3963	0.050347697
121	0xbdd17357	-0.102270775
122	0xbe2e412e	-0.17017052
123	0xbc92ea62	-0.017934028
124	0x3d86155e	0.06547044
125	0xbe637f8d	-0.22216626
126	0xbe6f3e29	-0.23363556
127	0xbe406c80	-0.1879139
128	0xbda1ca72	-0.078999415
129	0xbe4f2543	-0.20229058
130	0xbd5346ae	-0.051581077
131	0x3d7b1523	0.061299454
132	0xbe4e2447	-0.20131026
133	0xbe1243ca	-0.14283672
134	0xbe3b238b	-0.18275277
135	0x3cba9591	0.022776397
136	0x3dc01a40	0.09380007
137	0xbe5688f7	-0.20950685
138	0xbd9038b8	-0.07042068
139	0xbc16f09f	-0.009212642
140	0xbdeecc0c	-0.116600126
141	0xbe048fb4	-0.12945443
142	0x3d0fa328	0.035067707
143	0xbd2252cd	-0.039629746
144	0xbdd7bffc	-0.10534665
145	0x3c461c1d	0.012091664
146	0xbdd5428c	-0.104130834
147	0xbbbeafe1	-0.0058193062
148	0xbe7d9970	-0.24765563
149	0xbd7dfecf	-0.062010583
150	0xbe3a3b1a	-0.18186608
151	0x3d5e0f2e	0.054213695
152	0x3d35fb57	0.04442915
153	0xbc78c336	-0.015183261
154	0xbde191a2	-0.110141054
155	0x3d33b979	0.043878052
156	0xbe7b517e	-0.24542806
157	0xbdb1dce2	-0.08684708
158	0xbea131ee	-0.31483406
159	0xbe86783a	-0.262636
160	0xbdfd8b45	-0.12380079
161	0xbd356dbb	-0.0442941
162	0xbda9aeaf	-0.082852714
163	0xbb1de696	-0.0024093739
164	0xbda3168f	-0.07963287
165	0xbe225e0f	-0.15856193
166	0xbe81680c	-0.25274694
167	0xbe06e292	-0.13172367
168	0xbe05523a	-0.13019648
169	0xbe0ac4ee	-0.13551685
170	0x3b419295	0.0029536833
171	0xbe9bdd8d	-0.30442467
172	0x3d8a1562	0.0674236
173	0xbd1a1c53	-0.03762467
174	0xbe658c7a	-0.22416869
175	0xbb812f90	-0.0039424375
176	0xbdcfc858	-0.101456344
177	0xbd3eb48e	-0.04655891
178	0x3cd35d76	0.025801402
179	0xbd6c9edf	-0.0577687
180	0xbe88be75	-0.26707807
181	0x3d7aadc5	0.061200876
182	0xbe7a9dd2	-0.24474266
183	0xbe4e08a8	-0.2012049
184	0x3d46abc1	0.04850364
185	0xbe24c3b6	-0.16090283
186	0xbdbae66f	-0.09125983
187	0xbdfcff4e	-0.12353383
188	0xbdcdb8b1	-0.10044993
189	0xbdc29ece	-0.09502946
190	0xbda42bbe	-0.08016156
191	0xbd0c434e	-0.034243874
192	0xbd8494ca	-0.06473692
193	0x3ccf02a1	0.025269808
194	0xbc8f0aa7	-0.017461134
195	0xbc1210d0	-0.008915141
196	0x3d18d6b4	0.03731413
197	0xbc60494f	-0.013689353
198	0xbd7511b7	-0.059831347
199	0x3dfcce79	0.12344069
200	0x3c82ec36	0.015981775
201	0xbd96c7d0	-0.0736233
202	0x3da62966	0.08113365
203	0xbbe9ccdf	-0.0071350182
204	0xbdb59ace	-0.08867417
205	0xbd148776	-0.036261998
206	0x3cef662b	0.029223522
207	0x3d707596	0.05870589
208	0xbda4db23	-0.080496095
209	0x3df094eb	0.11747154
210	0x3d773db2	0.06036157
211	0x3c952ca9	0.018209772
212	0x3df294dc	0.11844799
213	0x3d77cad3	0.060496163
214	0x3de281ff	0.11059951
215	0xbbbe794c	-0.0058127996
216	0xbddf0079	-0.10888762
217	0x3d089607	0.033346202
218	0x3c1d1c6c	0.009589296
219	0xbd876a6b	-0.066120945
220	0xbd0c034d	-0.034182835
221	0xbdd4fccf	-0.10399782
222	0xbcbbbf2a	-0.022918303
223	0xbca37c57	-0.01995675
224	0x3c15e0c5	0.0091478275
225	0xbda409b6	-0.08009665
226	0x3d9ebe93	0.07751193
227	0x3dc2ddab	0.09514936
228	0x3c42fa21	0.011900456
229	0x3d12c01c	0.03582774
230	0x3d6c17b8	0.057639807
231	0x3cd1e4a6	0.025621723
232	0xbd30e389	-0.043185744
233	0xbe09712d	-0.1342208
234	0x3d465b49	0.0484269
235	0xbdc4ddcc	-0.09612617
236	0x3d0f157f	0.03493261
237	0xbbcb8673	-0.006211096
238	0xbc80207e	-0.015640493
239	0x3d7bafbf	0.0614469
240	0x3d8f7ae2	0.0700586
241	0xbe26e395	-0.16297753
242	0x3d0327c4	0.032020345
243	0xbc04a43f	-0.0080958
244	0x39c9341b	0.0003837653
245	0xbd637f25	-0.055541176
246	0xbbac56b6	-0.00525936
247	0xbd9c04bb	-0.0761809
248	0xbd5f3cb2	-0.054501243
249	0x3de046a6	0.10950975
250	0xbdc39474	-0.095497996
251	0xbddf8ccf	-0.10915529
252	0xbca4c842	-0.020115022
253	0xbdd42978	-0.10359472
254	0xba73bbed	-0.00092977175
255	0x3dbf14c0	0.093301296

l2.weight f4 [1, 95]
0	0x3e2d4418	0.16920507
1	0xbe05e279	-0.13074674
2	0xbe5f2d07	-0.2179452
3	0x3e2d2511	0.16908671
4	0xbe0ef9c9	-0.13962473
5	0xbd9bfdb4	-0.076167494
6	0xbc7dc5e5	-0.015489076
7	0xbe2f3319	-0.17109336
8	0x3e0efef2	0.13964441
9	0x3d833da1	0.06408239
10	0xbd87413c	-0.06604239
11	0xbc2848e0	-0.010271281
12	0xbd6bfd36	-0.057614528
13	0x3e35483a	0.17703333
14	0xbe0bedae	-0.13664886
15	0xbd377375	-0.044787843
16	0x3e19d134	0.15021211
17	0x3b9abb03	0.0047220006
18	0xbe504fb0	-0.20342898
19	0x3da26856	0.07930057
20	0x3db270b7	0.08712905
21	0x3e0de2e3	0.13856082
22	0xbe328694	-0.1743415
23	0xbd59f750	-0.05321437
24	0xbdbbd3d6	-0.09171264
25	0x3dd12530	0.10212171
26	0xbb450495	-0.0030062546
27	0x3e6b62e1	0.22986938
28	0xbe0a9b88	-0.13535893
29	0x3d559d4d	0.052151967
30	0xbde76bfa	-0.11299892
31	0xbe391983	-0.18076138
32	0x3e361279	0.17780484
33	0x3db8a63f	0.09016084
34	0x3dc670d8	0.09689492
35	0x3e5b585d	0.21420427
36	0x3ddedece	0.1088234
37	0xbe0f773d	-0.1401033
38	0x3e562e7e	0.20916173
39	0xbd8c4f36	-0.06851046
40	0x3d1a01fe	0.037599556
41	0xbbd2edbd	-0.006437032
42	0xbdd9c526	-0.10633306
43	0x3d81da95	0.06340519
44	0xbdb34572	-0.0875348
45	0xbe023c03	-0.12718205
46	0x3dfe8617	0.12427919
47	0xbdf22313	-0.11823096
48	0x3dd432c3	0.103612445
49	0xbe4632ca	-0.19355312
50	0x3d417559	0.047231052
51	0x3cbb3563	0.022852605
52	0x3d37700c	0.04478459
53	0xbd01909e	-0.03163206
54	0x3e0a795b	0.13522856
55	0x3e6ff6f2	0.23434046
56	0xbce08653	-0.0274078
57	0xbd921984	-0.07133773
58	0x3e332930	0.1749618
59	0x3d7ed457	0.06221422
60	0xbd28e6fb	-0.041235905
61	0xbd7be27f	-0.0614953
62	0x3d5175f3	0.051137876
63	0xbe1f6940	-0.15567493
64	0xbe570f87	-0.21002017
65	0xbe473134	-0.19452363
66	0x3cd2ed8b	0.025748035
67	0x3c89cc7a	0.016821135
68	0x3d4de059	0.050262783
69	0x3e4fc7a9	0.20291008
70	0x3e4776d9	0.1947893
71	0xbdc4ed70	-0.096156
72	0xbd7d233d	-0.061801184
73	0xbe04ffc6	-0.12988195
74	0xbd5f8a39	-0.05457518
75	0xbce1f761	-0.02758378
76	0xbe5476c7	-0.20748435
77	0xbdcb41c1	-0.09924651
78	0xbe193674	-0.14962178
79	0x3df129bb	0.117755376
80	0x3cda78b4	0.026668884
81	0xbe8436b4	-0.25822985
82	0xbda0a6e8	-0.07844335
83	0xbdaff171	-0.08590973
84	0xbdb636cf	-0.08897173
85	0x3db38a22	0.08766581
86	0x3d934af8	0.071920335
87	0x3e0aee43	0.13567452
88	0xbe123a5c	-0.14280075
89	0x3c8d27c2	0.017230872
90	0x3e323765	0.17403944
91	0x3e1eeb74	0.15519506
92	0x3e1b7f35	0.15185244
93	0xbdd73da2	-0.105098024
94	0xbdb018e6	-0.08598499
