models/rnn-co2.pt (torch, 114787 bytes, 5 tensors)

l1.weight_ih_l0 f4 [285, 2]
0.013343577 0.13581772 -0.059739854 -0.05224986 0.009581097 0.057377014 0.013290824 0.126478
-0.048935656 -0.027352931 -0.05744598 0.03523515 -0.03640628 -0.06118053 -0.061398394 -0.012222205
0.005255341 0.07200761 -0.17961441 0.028523644 0.020727757 0.12736174 -0.03296178 0.08105871
0.12027008 -0.0091283275 0.11779738 -0.034594186 -0.0040465966 0.033841785 0.029521333 0.06856256
-0.19829112 -0.041198675 -0.05342054 -0.1492933 -0.1757943 0.07941037 0.079458244 0.046324454
-0.051288944 -0.07603265 -0.0072148335 -0.082965255 -0.06766674 -0.08329918 0.06414992 0.096998595
-0.04916643 0.027863597 0.005893416 0.15880178 0.21007769 0.08119814 0.09029752 -0.0060803033
-0.02667553 -0.1177147 -0.0601114 -0.031495243 0.1391864 0.06467409 -0.05770504 0.05172573
0.046042126 -0.030522402 -0.15179037 0.07793925 -0.0045733065 0.07697228 -0.058053814 -0.0017181806
0.22812185 0.087672986 0.027224522 0.08785755 0.0034445024 -0.1158431 0.03675538 0.008590845
-0.12046045 0.13065813 0.08516957 -0.13061039 -0.17520192 -0.00452034 -0.05028697 -0.04359466
0.052594427 -0.078964144 0.064479895 0.105430715 0.034915537 0.08539071 -0.09082376 -0.0658687
0.008388136 0.009826193 -0.043035008 -0.05912142 0.12518315 0.10498178 -0.031268086 0.00226082
-0.09136205 -0.008302401 -0.012127337 -0.10886698 0.036729988 0.042758264 -0.009731259 0.09460541
-0.122338034 0.0148236025 0.07035911 -0.038982876 -0.102356054 0.012652254 0.36646318 -0.11835764
-0.010959564 0.05770743 -0.079008885 0.049825147 -0.13924098 0.057444382 0.041758604 -0.0023085426
0.0027099962 -0.099780574 0.116501726 0.09273778 0.09266776 -0.09396439 0.15643841 -0.014231317
-0.11185184 -0.00819375 0.011063627 0.01234894 0.15242015 0.11005252 0.05796395 -0.034337636
-0.09090247 -0.053823516 0.09047536 0.009698472 -0.05499452 -0.09553516 -0.07355952 -0.012193561
0.0062609273 0.105580576 0.06474112 -0.040359035 0.21554376 -0.03452513 -0.009633691 -0.009406243
-0.0008242162 0.029103175 -0.038899936 -0.047506995 0.07856478 0.059117183 -0.034919016 0.049533848
-0.12587887 -0.02722227 0.10858836 -0.052653395 0.03333485 0.051948376 -0.12899218 0.0891036
0.01894053 0.0043670055 0.09821089 -0.02458939 0.1345441 -0.031920977 0.06215762 0.047813516
0.0075846314 0.009099316 -0.02183557 0.031550065 -0.095237955 0.11528016 0.12461083 -0.02776786
-0.04422847 0.0014518101 -0.19470337 0.023590483 -0.1223631 -0.047918025 -0.14612612 -0.039158657
-0.09133777 -0.072543904 -0.09741343 -0.2135257 -0.1355764 -0.073133685 -0.089666374 -0.07928879
-0.015355562 -0.02747219 -0.04163001 -0.12984085 -0.0499437 -0.14009659 -0.113536626 -0.052679803
-0.071072325 -0.21748424 0.022503227 -0.11137228 -0.07148426 -0.06318986 -0.017441528 -0.13498817
-0.11374661 -0.08958978 -0.16714725 -0.16860218 -0.08943951 -0.161595 -0.08801641 -0.07473351
-0.049638372 -0.009373143 0.00043373895 -0.20382121 -0.058503564 -0.13821375 -0.106046446 -0.11524024
0.07365051 -0.04703433 -0.050155506 -0.18461494 0.035733618 -0.1842301 0.026652806 -0.19563854
-0.044813972 -0.15405867 -0.0891163 -0.13935396 0.006848877 -0.13906072 -0.115292124 -0.17014796
00000000: 059f 5a3c cd13 0b3e c7b1 74bd f303 56bd
00000010: 09fa 1c3c 2904 6b3d c2c1 593c 7383 013e
00000020: c170 48bd 4113 e0bc 7a4c 6bbd bc52 103d
00000030: c01e 15bd 6f98 7abd e27c 7bbd a53f 48bc
00000040: ff34 ac3b ba78 933d d7ec 37be 6baa e93c
00000050: 42cd a93c 1e6b 023e ee02 07bd 1c02 a63d
00000060: 2950 f63d fb8e 15bc c13f f13d a2b2 0dbd
00000070: 5099 84bb af9d 0a3d b9d6 f13c 876a 8c3d
00000080: d40c 4bbe f1bf 28bd 7fcf 5abd 58e0 18be
00000090: 6c03 34be e7a1 a23d 01bb a23d b6be 3d3d
000000a0: 5b14 52bd 02b7 9bbd 696a ecbb b0e9 a9bd
000000b0: dc94 8abd c398 aabd 0961 833d 33a7 c63d
000000c0: bd62 49bd 3342 e43c 8e1d c13b ef9c 223e
000000d0: 9b1e 573e 364b a63d e8ed b83d 483d c7bb
000000e0: a486 dabc 6814 f1bd 5f37 76bd 2801 01bd
000000f0: e186 0e3e d973 843d 1f5c 6cbd 5cde 533d
00000100: ab96 3c3d 1e0a fabc ef6e 1bbe 9d9e 9f3d
00000110: addb 95bb a5a3 9d3d d6c9 6dbd 9334 e1ba
00000120: c698 693e e58d b33d f605 df3c a9ee b33d
00000130: 29bd 613b 263f edbd cf8c 163d 9ec0 0c3c
00000140: f8b3 f6bd 3fcb 053e 626d ae3d bbbe 05be
00000150: 2268 33be 5c1f 94bb b6f9 4dbd 5090 32bd
00000160: 416d 573d f4b7 a1bd 090e 843d 0fec d73d
00000170: 9803 0f3d 53e1 ae3d cf01 babd 2be6 86bd
00000180: 646e 093c 0afe 203c 7a45 30bd 4d29 72bd
00000190: 0330 003e b000 d73d f712 00bd 442a 143b
000001a0: 071c bbbd cb06 08bc bdb1 46bc a7f5 debd
000001b0: 2f72 163d 4a23 2f3d dc6f 1fbc 7bc0 c13d
000001c0: 5d8c fabd b2de 723c 7018 903d 82ac 1fbd
000001d0: 0da0 d1bd 664b 4f3c 10a1 bb3e 7e65 f2bd
000001e0: be8f 33bc a05e 6c3d 69cf a1bd 7415 4c3d
000001f0: 3095 0ebe cd4a 6b3d 120b 2b3d eb4a 17bb
00000200: 319a 313b c259 ccbd 7598 ee3d 4eed bd3d
00000210: 98c8 bd3d 6770 c0bd 6431 203e 782a 69bc
00000220: 9412 e5bd 143f 06bc 3744 353c 3553 4a3c
00000230: 0714 1c3e 3763 e13d 9b6b 6d3d 9fa5 0cbd
00000240: 132b babd 0c76 5cbd 254b b93d 57e6 1e3c
00000250: ef41 61bd f0a7 c3bd 60a6 96bd 80c7 47bc
00000260: 7728 cd3b a13a d83d fe96 843d 844f 25bd
00000270: 81b7 5c3e 396a 0dbd a1d6 1dbc a51c 1abc
00000280: 3610 58ba c869 ee3c 8a55 1fbd b296 42bd
00000290: 92e6 a03d dc24 723d 3e07 0fbd 01e4 4a3d
000002a0: 64e6 00be 3d01 dfbc 9363 de3d 16ab 57bd
000002b0: 208a 083d d2c7 543d 8716 04be f37b b63d
000002c0: 2c29 9b3c 1919 8f3b cb22 c93d b06f c9bc
000002d0: eec5 093e 92bf 02bd fd98 7e3d 1bd8 433d
000002e0: 8088 f83b 4c15 153c 82e0 b2bc a43a 013d
000002f0: 1e0c c3bd 0118 ec3d f633 ff3d 6c79 e3bc
00000300: ea28 35bd aa4a be3a 5260 47be d440 c13c
00000310: 8199 fabd b145 44bd 16a2 15be d464 20bd
00000320: 4c0f bbbd e691 94bd b180 c7bd 7ba6 5abe
00000330: 8ad4 0abe 1dc7 95bd 01a3 b7bd 2962 a2bd
00000340: e595 7bbc 5c0d e1bc 3b84 2abd 00f5 04be
00000350: c491 4cbd 7b75 0fbe e485 e8bd c7c6 57bd
00000360: 5e8e 91bd 30b4 5ebe b058 b83c 2617 e4bd
00000370: 5766 92bd af69 81bd 89e1 8ebc 573a 0abe
00000380: fcf3 e8bd d97a b7bd a628 2bbe 0da6 2cbe
00000390: 102c b7bd 2979 25be f341 b4bd e20d 99bd
000003a0: 9b51 4bbd d091 19bc 7567 e339 82b6 50be
000003b0: 6fa1 6fbd e887 0dbe e12e d9bd 1303 ecbd
000003c0: 14d6 963d 12a7 40bd dc6f 4dbd b30b 3dbe
000003d0: 6a5d 123d d1a6 3cbe fc56 da3c 7855 48be
000003e0: db8e 37bd 8ec1 1dbe 9b82 b6bd ceb2 0ebe
000003f0: 8b6c e03b ef65 0ebe 471e ecbd 443b 2ebe

l1.weight_hh_l0 f4 [285, 95]
0.14620039 0.06723602 -0.016827486 -0.06388884 0.00830485 0.044667874 -0.09440067 -0.065464675
0.038705043 0.11198964 -0.052158125 -0.043363553 -0.07403138 0.080381505 -0.02910494 -0.04096735
0.04445771 0.040807415 0.11705873 0.1270717 -0.08255151 -0.07437835 -0.124309234 0.10551123
0.07320807 0.016463118 -0.016668819 0.08574148 0.08047493 0.051087994 -0.15582377 -0.0051687723
-0.03084632 0.10594453 -0.052150127 -0.051156197 0.06377929 -0.016626693 -0.01042543 0.013828396
-0.0049686683 -0.11303775 0.084608994 -0.08454931 -0.023755066 0.08303993 0.025019258 -0.034231994
0.11209846 0.04195083 -0.10293437 0.11762589 0.060202148 -0.02541661 -0.060025275 -0.01911071
0.058953743 -0.04470227 -0.14587379 0.08888035 0.034993432 0.052328166 0.02822919 0.026606614
0.067549914 -0.043720916 -0.049874052 -0.040619142 -0.105243236 0.02584345 -0.00299458 -0.020643724
-0.010241806 -0.012539668 -0.09353519 0.09207281 -0.06469877 0.09195342 -0.084569894 0.009674134
0.082070455 -0.03385812 0.083172075 -0.053181533 -0.051351126 -0.06409853 0.00029255246 0.08151389
-0.033937234 0.0013158002 -0.026140807 0.01644101 0.10585548 -0.13547315 0.008587143 0.116816595
0.13077533 0.1649269 -0.025133437 -0.016028332 -0.113399096 0.068289205 -0.024521051 0.06510455
-0.13668168 0.020644076 -0.015647624 -0.032681346 0.08924239 0.06616837 -0.019811563 0.067171685
-0.06428667 0.088405184 -0.07459012 0.050580364 -0.039390218 0.026437553 0.06723141 -0.013818094
-0.018731754 -0.15780352 0.025119085 0.06617416 0.045447387 0.04009964 -0.0073762615 -0.069259085
-0.15743819 0.120703615 -0.090975635 0.06375648 -0.093877204 -0.015693974 -0.035097938 -0.0029598733
0.08766263 0.04636465 -0.083217025 -0.014215275 -0.06750909 0.0043494944 -0.067557916 -0.06471922
-0.0022282389 0.0470317 -0.02539798 -0.040175598 -0.010074042 0.20224288 0.09274241 0.036253337
-0.0010937424 -0.1547243 -0.059389584 -0.061617665 0.16057123 0.032238506 0.14375046 -0.12675059
0.07212894 0.024056723 -0.136334 -0.07103392 -0.06952574 0.11463009 0.010599988 0.0030159138
0.025817068 -0.08276196 -0.16274734 -0.0024782906 0.01922554 -0.06945402 0.011739878 0.01059885
0.038444977 -0.022718817 0.013695785 0.042625077 -0.15855096 -0.09578222 -0.046990354 0.09177701
-0.00073203794 0.012322576 -0.024197597 0.03293713 0.008539321 -0.083662674 -0.014313467 0.06367666
-0.08411504 0.10891756 0.03201791 -0.036601957 -0.004904888 0.065118544 -0.05262155 -0.006514936
0.054927103 -0.1010134 0.028943637 0.03312512 0.08252175 -0.08066386 0.08403671 -0.067836486
0.08977823 -0.09731071 -0.068116695 0.020176526 0.021605281 -0.008703507 -0.075580016 -0.0073932437
-0.041713092 -0.114431016 0.047104154 0.02527695 0.005613165 0.020936085 0.0918303 0.03922888
-0.063372895 -0.012333398 -0.06416091 -0.091698065 -0.03592596 -0.028913463 0.01646942 -0.0319803
0.081087 -0.047877405 0.015409739 0.12672329 0.11029796 -0.047398444 0.003958372 0.00081016176
-0.024763297 -0.050584216 0.020756187 -0.07287037 0.02643691 0.020167353 -0.018045159 0.089565404
0.0077917217 0.06448724 0.13008615 -0.0645536 0.022555264 -0.030347515 -0.026294539 -0.014226239
00000000: 8eb5 153e 0ab3 893d ccd9 89bc 27d8 82bd
00000010: 1111 083c a9f5 363d 2355 c1bd 5812 86bd
00000020: 2e89 1e3d d35a e53d c2a3 55bd fb9d 31bd
00000030: c49d 97bd 0f9f a43d 7c6d eebc 61cd 27bd
00000040: 4a19 363d ad25 273d 7dbc ef3d 151f 023e
00000050: c410 a9bd ad53 98bd d795 febd 4616 d83d
00000060: 1dee 953d a9dd 863c 0c8d 88bc 3b99 af3d
00000070: 0ad0 a43d a541 513d 4490 1fbe ce5e a9bb
00000080: 6cb1 fcbc 72f9 d83d 5f9b 55bd 2989 51bd
00000090: b79e 823d b434 88bc 6ccf 2abc 7f90 623c
000000a0: 36d0 a2bb 5680 e7bd 7b47 ad3d 3028 adbd
000000b0: fc99 c2bc d710 aa3d 30f5 cc3c d936 0cbd
000000c0: e193 e53d a2d4 2b3d 41cf d2bd d8e5 f03d
000000d0: 8796 763d 7f36 d0bc 10dd 75bd 108e 9cbc
000000e0: 7b79 713d ba19 37bd f05f 15be e706 b63d
000000f0: 4655 0f3d 0f56 563d e740 e73c 1df6 d93c
00000100: 9c57 8a3d b414 33bd bc48 4cbd 4260 26bd
00000110: c489 d7bd a5b5 d33c b740 44bb 071d a9bc
00000120: 3fcd 27bc 2e73 4dbc 618f bfbd ab90 bc3d
00000130: ca80 84bd 1352 bc3d fb32 adbd 4280 1e3c
00000140: 8e14 a83d d0ae 0abd 1f56 aa3d e1d4 59bd
00000150: 8f55 52bd 1746 83bd ba61 9939 c1f0 a63d
00000160: c501 0bbd ee76 ac3a 3f25 d6bc 4caf 863c
00000170: c2ca d83d 79b9 0abe 17b1 0c3c 8a3d ef3d
00000180: f8e9 053e 99e2 283e a3e4 cdbc d94d 83bc
00000190: c93d e8bd 36db 8b3d 5fe0 c8bc 8955 853d
000001a0: 48f6 0bbe c41d a93c 722f 80bc e0dc 05bd
000001b0: b7c4 b63d 4883 873d dc4b a2bc 4f91 893d
000001c0: bba8 83bd c70d b53d b4c2 98bd 5b2d 4f3d
000001d0: a357 21bd 9193 d83c 9fb0 893d 4965 62bc
000001e0: 5673 99bc 3f97 21be 8ac6 cd3c 5186 873d
000001f0: 0a27 3a3d 853f 243d 91b4 f1bb b5d7 8dbd
00000200: 7a37 21be 7533 f73d 6f51 babd c292 823d
00000210: b142 c0bd a690 80bc dbc2 0fbd 6ffa 41bb
00000220: 7788 b33d dce8 3d3d b06d aabd 2fe7 68bc
00000230: 3542 8abd 3486 8e3b ce5b 8abd 838b 84bd
00000240: a507 12bb 50a4 403d 6d0f d0bc 2b8f 24bd
00000250: 980d 25bc c218 4f3e bcef bd3d 617e 143d
00000260: e85b 8fba 0c70 1ebe 7e42 73bd ce62 7cbd
00000270: c96c 243e 860c 043d 5233 133e e8ca 01be
00000280: 56b8 933d 9b12 c53c 249b 0bbe 3b7a 91bd
00000290: 8363 8ebd 2ec3 ea3d 92ab 2d3c a3a6 453b
000002a0: 517e d33c 1a7f a9bd 3da7 26be d16a 22bb
000002b0: e17e 9d3c e93d 8ebd 9e58 403c cda6 2d3c
000002c0: 7b78 1d3d d01c babc 4964 603c a297 2e3d
000002d0: 2f5b 22be 7829 c4bd f578 40bd 96f5 bb3d
000002e0: 3ce6 3fba a1e4 493c 0a3a c6bc 16e9 063d
000002f0: 82e8 0b3c 5657 abbd 0883 6abc e968 823d
00000300: 8244 acbd 2b10 df3d 3625 033d efeb 15bd
00000310: 2fb9 a0bb df5c 853d b289 57bd 3f7b d5bb
00000320: 3efb 603d 1de0 cebd 351b ed3c 35ae 073d
00000330: 2a01 a93d 1833 a5bd 701b ac3d dbed 8abd
00000340: a6dd b73d d64a c7bd c480 8bbd 3e49 a53c
00000350: 8ffd b03c 2799 0ebc b2c9 9abd 0643 f2bb
00000360: 59db 2abd cf5a eabd 49f0 403d 9b11 cf3c
00000370: a4ee b73b 2782 ab3c 8611 bc3d 76ae 203d
00000380: a6c9 81bd 0512 4abc cc66 83bd 32cc bbbd
00000390: 1927 13bd eddb ecbc e1ea 863c c6fd 02bd
000003a0: f110 a63d 191b 44bd 2179 7c3c c0c3 013e
000003b0: e6e3 e13d df24 42bd 3bb5 813b 0961 543a
000003c0: 66dc cabc 6531 4fbd e108 aa3c 0f3d 95bd
000003d0: 3892 d83c 0136 a53c 71d3 93bc 116e b73d
000003e0: b351 ff3b e311 843d 4e35 053e ae34 84bd
000003f0: d1c5 b83c 5a9b f8bc a567 d7bc 2c15 69bc

l1.bias_ih_l0 f4 [285]
0.106287636 0.2031556 0.06435996 0.09402391 0.07145058 -0.041445006 -0.10073239 0.009690411
-0.073477276 0.11263535 -0.088939264 -0.08772184 0.004000959 -0.06378441 0.100863546 0.08535549
0.020807533 -0.001123077 0.061919026 0.048394155 -0.019242845 -0.056600887 -0.05581754 0.06129613
-0.035619155 -0.0049197213 0.046558846 -0.12795617 0.01805459 -0.13093454 -0.0064187734 0.031960335
-0.038788684 -0.05151155 -0.042060267 -0.001961371 0.0110573955 -0.050211374 -0.04270867 -0.11795973
-0.085069805 0.00049701094 0.022909282 0.040955406 0.16955435 0.027858559 0.065030456 0.0049485527
-0.07747873 -0.07492216 -0.030028211 -0.09957815 -0.07753614 -0.012717388 0.05946721 -0.058842592
0.042406242 -0.023171399 -0.028015718 0.07437181 0.05127985 0.07225955 0.026764324 0.011690151
0.040405404 0.0760448 0.021945473 0.062385976 0.008407724 0.031416237 -0.11729527 -0.11560623
0.050883237 0.022546347 -0.059301022 -0.04230612 0.040330388 0.032845072 0.009374139 0.010163944
-0.10095675 0.00708974 -0.06041503 -0.007816553 0.022656342 0.09455524 0.08043752 0.031221708
0.02844684 -0.0373213 0.028787605 -0.031415135 0.035612337 0.029825948 0.068961896 0.023701169
-0.03764539 -0.1433105 -0.31250316 0.015527237 -0.14372699 -0.17210749 -0.1291649 -0.2845007
-0.14093666 -0.1655694 -0.11225108 -0.0840353 -0.17301175 -0.17368348 -0.18213394 -0.18518688
-0.17009977 -0.42933074 -0.1175828 -0.20313115 -0.008579203 -0.16251998 -0.20289782 -0.19090165
-0.09388597 -0.11367707 -0.06650093 -0.10399854 -0.22455625 -0.10393034 -0.052026574 -0.1922487
-0.16031662 0.0023156444 0.020533303 -0.24637653 -0.14554143 -0.04795828 -0.11657518 -0.24432206
-0.16698815 -0.39025706 -0.15449196 -0.19786617 -0.10959647 -0.14790659 -0.27014813 -0.18460158
-0.063816026 -0.14686345 -0.023756405 -0.17450233 -0.2742675 0.0066678734 -0.24996983 -0.24633288
-0.1611132 -0.21784844 -0.35169262 0.015229102 -0.12872298 -0.03368368 0.041178584 -0.30145484
-0.10178498 -0.37083554 -0.19588561 -0.19629896 -0.26732272 -0.0401308 -0.09357505 -0.16844098
-0.1519331 -0.15046829 0.017080229 -0.15825798 -0.26367348 -0.24644832 -0.1259229 -0.031687748
0.048160564 -0.21718018 -0.26022467 -0.19897485 -0.09104313 -0.21147028 -0.24375497 -0.12088
-0.14319138 -0.2618833 -0.22322717 -0.1438135 -0.15586558 -0.09272362 0.0620374 0.07122019
0.113208815 -0.0070545855 0.037545953 0.029239262 0.01744498 0.0054029105 0.056745317 -0.10045889
-0.09866972 0.017210763 0.08895813 0.03513908 0.06481299 -0.057381317 0.082406394 0.028586654
0.09214415 -0.10138232 -0.014232471 -0.022809982 0.09254468 0.023169117 -0.030444996 0.058254678
-0.10184557 -0.05598501 -0.0064463713 0.003565436 0.12515184 -0.0752521 0.062317204 -0.14434808
0.087789044 -0.07652462 0.0237679 -0.050364893 -0.0011921845 0.08579092 -0.0542664 -0.00054244156
0.054961003 -0.071168825 -0.079673186 -0.035520844 0.086844645 -0.062608704 0.052670546 -0.060394708
0.035850603 -0.008740104 -0.01379304 -0.061686866 0.093641005 0.09130089 0.106849715 0.0081095295
-0.012702565 0.08729495 0.012404344 0.06730845 0.040123936 0.010247287 0.0075523998 0.12063938
00000000: 55ad d93d 0608 503e 28cf 833d 9c8f c03d
00000010: af54 923d 3dc2 29bd c94c cebd 88c4 1e3c
00000020: 417b 96bd 5dad e63d ca25 b6bd 82a7 b3bd
00000030: 7a1a 833b 67a1 82bd 8c91 ce3d dcce ae3d
00000040: 8f74 aa3c 3634 93ba ce9e 7d3d f338 463d
00000050: 2ca3 9dbc 55d6 67bd efa0 64bd a711 7b3d
00000060: 64e5 11bd 9d35 a1bb 7db4 3e3d f106 03be
00000070: 38e7 933c b413 06be 9354 d2bb d7e8 023d
00000080: e2e0 1ebd c6fd 52bd 6347 2cbd 588a 00bb
00000090: 142a 353c 71aa 4dbd 49ef 2ebd df94 f1bd
000000a0: 1439 aebd d749 023a 3fac bb3c dbc0 273d
000000b0: a89f 2d3e a237 e43c b02e 853d 7827 a23b
000000c0: 2bad 9ebd ca70 99bd b9fd f5bc a1ef cbbd
000000d0: 45cb 9ebd 975c 50bc e493 733d ee04 71bd
000000e0: 2bb2 2d3d f2d1 bdbc 3881 e5bc 3f50 983d
000000f0: d20a 523d d1fc 933d db40 db3c 0c88 3f3c
00000100: 2380 253d 60bd 9b3d fec6 b33c 7088 7f3d
00000110: 8dc0 093c 50ae 003d 8138 f0bd f6c2 ecbd
00000120: f16a 503d 1eb3 b83c a1e5 72bd 2f49 2dbd
00000130: 7a31 253d 8e88 063d fd95 193c ac86 263c
00000140: 6ac2 cebd 0d51 e83b c075 77bd 0011 00bc
00000150: cb99 b93c 2da6 c13d 6dbc a43d abc4 ff3c
00000160: 5909 e93c 38de 18bd fcd3 eb3c 28ad 00bd
00000170: 3ede 113d 8c55 f43c e53b 8d3d f428 c23c
00000180: 0d32 1abd fdbf 12be 6a00 a0be f465 7e3c
00000190: 2b2d 13be f23c 30be ce43 04be 13aa 91be
000001a0: b351 10be 068b 29be e5e3 e5bd b31a acbd
000001b0: fe29 31be 15da 31be 5281 3abe a1a1 3dbe
000001c0: a22e 2ebe 3dd1 dbbe 40cf f0bd 9d01 50be
000001d0: c98f 0cbc a36b 26be 72c4 4fbe b97b 43be
000001e0: 4a47 c0bd 86cf e8bd a431 88bd 30fd d4bd
000001f0: 13f2 65be 6ed9 d4bd d119 55bd d8dc 44be
00000200: 0a2a 24be 11c2 173b 7535 a83c 214a 7cbe
00000210: d008 15be e76f 44bd f8be eebd 902f 7abe
00000220: f1fe 2abe c6cf c7be 2433 1ebe 6e9d 4abe
00000230: 1d74 e0bd d374 17be db50 8abe 3208 3dbe
00000240: fab1 82bd 5f63 16be cb9c c2bc bdb0 32be
00000250: ca6c 8cbe 2d7e da3b 17f8 7fbe b03e 7cbe
00000260: dcfa 24be a913 5fbe 0e11 b4be 7c83 793c
00000270: f5cf 03be e6f7 09bd e0aa 283d 4a58 9abe
00000280: a574 d0bd 28de bdbe 3d96 48be 9802 49be
00000290: 86de 88be 3260 24bd 47a4 bfbd cb7b 2cbe
000002a0: 5a94 1bbe 5c14 1abe d6eb 8b3c 610e 22be
000002b0: 3600 87be f35c 7cbe eff1 00be 03cb 01bd
000002c0: 0344 453d 7b64 5ebe 2b3c 85be 10c0 4bbe
000002d0: d274 babd aa8b 58be e79a 79be ef8f f7bd
000002e0: c3a0 12be 9115 86be aa95 64be d943 13be
000002f0: 3a9b 1fbe e2e5 bdbd ee1a 7e3d e4db 913d
00000300: 06da e73d 272a e7bb c9c9 193d 2d87 ef3c
00000310: c6e8 8e3c e60a b13b c76d 683d 64bd cdbd
00000320: 5a13 cabd 96fd 8c3c ae2f b63d ffed 0f3d
00000330: acbc 843d ac08 6bbd afc4 a83d 8f2e ea3c
00000340: 12b6 bc3d 89a1 cfbd 4f2f 69bc 00dc babc
00000350: 1188 bd3d 29cd bd3c c967 f9bc 759c 6e3d
00000360: 6994 d0bd 8a50 65bd 153c d3bb 17aa 693b
00000370: ce27 003e c61d 9abd 5340 7f3d fccf 13be
00000380: beca b33d f1b8 9cbd e6b4 c23c 6b4b 4ebd
00000390: 1343 9cba 26b3 af3d 7246 5ebd a332 0eba
000003a0: ca1e 613d f6c0 91bd b22b a3bd 4e7e 11bd
000003b0: 9bdb b13d fe38 80bd 12bd 573d 7160 77bd
000003c0: 15d8 123d a732 0fbc 34fc 61bc 5eab 7cbd
000003d0: dbc6 bf3d f6fb ba3d 06d4 da3d d5dd 043c
000003e0: 6b1e 50bc b2c7 b23d 973b 4b3c 03d9 893d
000003f0: ff58 243d 3de4 273c 1f7a f73b c711 f73d

l1.bias_hh_l0 f4 [285]
0.09026714 0.16458763 -0.00038168865 0.07951271 0.07805274 0.08004297 -0.06888047 0.055067964
-0.043894455 0.0109025575 0.060199786 -0.12979834 0.012997846 0.10743007 -0.04088509 -0.011160517
0.04679543 -0.08578958 0.052515578 -0.036423586 -0.108306736 -0.0823802 0.024943985 0.024912497
0.041791197 -0.012161168 -0.05436508 -0.034739763 -0.10131935 -0.0162599 0.07508011 -0.15723121
-0.06806594 0.080243275 0.10635682 0.053405292 -0.08783438 -0.07743559 -0.017692607 0.03500705
0.087072074 0.05054007 0.088339224 -0.01051845 0.09530553 0.018920576 0.024133878 0.007060229
-0.0010595868 0.07270582 0.048703615 -0.032874096 0.024401708 0.05155829 -0.0077821566 -0.017539503
0.041618373 -0.06993305 0.06685167 0.13967542 -0.106738254 0.04190998 0.11015207 0.114728265
0.013338627 0.018662117 0.12413077 0.08816264 -0.010619945 -0.11007039 -0.10608796 0.013566102
0.077326104 -0.07015045 0.01814759 0.075649 0.061409943 -0.044679075 -0.051815953 -0.09245852
0.03137596 -0.08880953 1.3804715e-05 0.0014874024 -0.09444552 0.05236678 0.015321606 0.027310956
-0.053802785 -0.08128859 -0.051586762 0.062172737 -0.018897148 -0.13833252 -0.014597935 0.08079667
0.037298433 -0.0991134 -0.27181846 -0.10886277 -0.04808826 -0.11295228 -0.22548494 -0.24881867
-0.120626524 -0.25806993 -0.027411852 -0.052664082 -0.2079511 -0.0514491 -0.12600747 -0.25798962
-0.29065445 -0.24703176 -0.12368962 -0.17243351 0.05368349 -0.23290892 -0.2058638 -0.30758202
0.04778101 -0.20380478 -0.21534158 -0.11704618 -0.21063581 -0.049374647 0.037778024 -0.21599175
-0.012340143 -0.042480696 -0.027899431 -0.3378345 -0.121636525 -0.05922285 -0.18707682 -0.12276366
-0.23091847 -0.4135332 -0.02138755 -0.19434315 -0.018015709 -0.15655424 -0.21488118 -0.2686692
-0.070987895 -0.07322018 -0.063682 -0.036449812 -0.25544164 0.022373922 -0.06806227 -0.23806848
-0.21323247 -0.30585232 -0.3146151 -0.053383153 -0.08111063 -0.07308435 0.002356293 -0.10884444
-0.19871542 -0.3998421 -0.20244461 -0.37005177 -0.2826292 -0.06488395 -0.17170085 -0.17995933
-0.2546772 -0.015319871 -0.008204248 -0.20724091 -0.15517323 -0.18695684 -0.17491591 -0.06359225
0.107859455 -0.14574285 -0.23546381 -0.074772134 0.010367247 -0.10153126 -0.05644616 -0.18606572
-0.11374791 -0.2884162 -0.21603304 -0.21912956 -0.15598087 -0.1813171 -0.02861818 0.21229577
0.019368215 -0.011875833 -0.035097595 -0.04334673 0.07365246 0.023534907 0.015211815 -0.05666469
-0.059682976 -0.0031209218 -0.048574015 0.051350936 -0.037839536 -0.07197702 0.031424083 -0.01729791
0.13682796 0.027466234 -0.037366144 -0.061764702 0.06372795 0.08330951 0.044494286 -0.0002698981
-0.06209915 -0.06279494 -0.017356593 -0.083538644 0.038290948 0.0068971408 -0.045334913 -0.018093178
0.07428619 -0.08130693 0.06176295 0.052018605 0.08184453 0.044727586 0.105871916 0.048708804
-0.123607345 -0.038143322 0.0584993 -0.116576 -0.10050006 0.044027474 0.058358528 -0.06971243
-0.038421575 -0.06379746 -0.07956162 0.007795739 0.06350781 0.015435053 0.060497086 -0.061281398
-0.059371248 -0.15372603 -0.07281516 0.10737162 0.025316352 0.018724069 -0.041260704 0.123958915
00000000: fadd b83d a989 283e 621d c8b9 8fd7 a23d
00000010: 1dda 9f3d 92ed a33d 3411 8dbd f28e 613d
00000020: acca 33bd a4a0 323c 0d94 763d dbe9 04be
00000030: ebf4 543c 4c04 dc3d 2077 27bd 9ada 36bc
00000040: 91ac 3f3d 73b2 afbd 931a 573d e630 15bd
00000050: eccf ddbd f3b6 a8bd 5457 cc3c 4b15 cc3c
00000060: 3f2d 2b3d a33f 47bc ebad 5ebd 484b 0ebd
00000070: 8580 cfbd 7b33 85bc 9ac3 993d 3801 21be
00000080: 2866 8bbd 9656 a43d 9bd1 d93d 82bf 5a3d
00000090: 83e2 b3bd 8d96 9ebd 16f0 90bc 8d63 0f3d
000000a0: d852 b23d 1b03 4f3d 32eb b43d 9455 2cbc
000000b0: 8c2f c33d 53ff 9a3c 69b4 c53c 7e59 e73b
000000c0: d5e1 8aba cae6 943d 717d 473d fda6 06bd
000000d0: 17e6 c73c c92e 533d 7601 ffbb 01af 8fbc
000000e0: 0778 2a3d 0f39 8fbd 87e9 883d 1307 0f3e
000000f0: 9699 dabd cda9 2b3d 6997 e13d a7f6 ea3d
00000100: 428a 5a3c 4ce1 983c 4638 fe3d 9d8e b43d
00000110: 47ff 2dbc 966c e1bd a544 d9bd 5b44 5e3c
00000120: 265d 9e3d 0aab 8fbd 41aa 943c dded 9a3d
00000130: fe88 7b3d 6801 37bd f73c 54bd e45a bdbd
00000140: 1484 003d c5e1 b5bd cd9a 6737 f1f4 c23a
00000150: a76c c1bd 8c7e 563d 7907 7b3c 3abb df3c
00000160: 4f60 5cbd a27a a6bd a44c 53bd d7a8 7e3d
00000170: 31ce 9abc 0aa7 0dbe 2d2c 6fbc b978 a53d
00000180: 3ec6 183d f7fb cabd ca2b 8bbe 72f3 debd
00000190: 32f8 44bd 8653 e7bd 86e5 66be 52ca 7ebe
000001a0: 0a0b f7bd be21 84be d28e e0bc 4bb6 57bd
000001b0: 22f1 54be 4bbc 52bd 1a08 01be 3717 84be
000001c0: a9d0 94be e5f5 7cbe fc50 fdbd 6992 30be
000001d0: 38e3 5b3d ad7f 6ebe f6cd 52be 647b 9dbe
000001e0: 05b6 433d 33b2 50be 8182 5cbe e8b5 efbd
000001f0: eab0 57be 123d 4abd 21bd 1a3d f12c 5dbe
00000200: 502e 4abc 3d00 2ebd 598d e4bc a5f8 acbe
00000210: 921c f9bd a993 72bd 1191 3fbe 846b fbbd
00000220: e475 6cbe a0ba d3be f134 afbc e401 47be
00000230: ae95 93bc c14f 20be d009 5cbe 028f 89be
00000240: 1a62 91bd 76f4 95bd b56b 82bd 664c 15bd
00000250: 3fc9 82be 8449 b73c 3b64 8bbd 39c8 73be
00000260: 9d59 5abe ad98 9cbe 3b15 a1be 4ba8 5abd
00000270: 541d a6bd 3fad 95bd 096c 1a3b d5e9 debd
00000280: 0e7c 4bbe 1bb8 ccbe a44d 4fbe 6d77 bdbe
00000290: c6b4 90be e0e1 84bd 59d2 2fbe 4247 38be
000002a0: 0d65 82be 3200 7bbc 1c6b 06bc f636 54be
000002b0: bbe5 1ebe 9d71 3fbe 281d 33be a73c 82bd
000002c0: 6be5 dc3d 9d3d 15be 6d1d 71be 2222 99bd
000002d0: 63db 293c 9fef cfbd 1734 67bd 0388 3ebe
000002e0: aaf4 e8bd 4aab 93be c437 5dbe 8063 60be
000002f0: 73b9 1fbe 31ab 39be ac70 eabc 1064 593e
00000300: 17aa 9e3c db92 42bc 7fc2 0fbd 578c 31bd
00000310: 1ad7 963d 47cc c03c fa3a 793c 3c19 68bd
00000320: 2376 74bd 6188 4cbb 8cf5 46bd 5c55 523d
00000330: a1fd 1abd b068 93bd 8ab6 003d 59b4 8dbc
00000340: a11c 0c3e de00 e13c 3e0d 19bd fcfc 7cbd
00000350: cd83 823d 2d9e aa3d a43f 363d 1c81 8db9
00000360: ae5b 7ebd a29a 80bd 6a2f 8ebc 4f16 abbd
00000370: f8d6 1c3d 6901 e23b 1ab1 39bd 2538 94bc
00000380: 5c23 983d 3f84 a6bd 26fb 7c3d 7611 553d
00000390: 1b9e a73d 4634 373d 60d3 d83d e282 473d
000003a0: d925 fdbd 2c3c 1cbd f69c 6f3d 66bf eebd
000003b0: fad2 cdbd 2756 343d 5a09 6f3d 64c5 8ebd
000003c0: f15f 1dbd 3ea8 82bd 34f1 a2bd 6673 ff3b
000003d0: 6210 823d 4ee3 7c3c cbcb 773d 3402 7bbd
000003e0: 442f 73bd 5b6a 1dbe 1d20 95bd a7e5 db3d
000003f0: 3d64 cf3c 3863 993c fc00 29bd 2cde fd3d

l2.weight f4 [1, 95]
-0.073488556 -0.001799957 0.0321658 0.13864699 -0.016664017 0.14862035 0.17114624 -0.2216762
0.13484459 0.0078108553 0.13862331 -0.1945887 -0.012153501 -0.08723963 0.042260338 -0.09500809
-0.13543172 -0.1210931 -0.17879462 -0.15469667 0.1765269 -0.06495117 0.18919814 -0.15419535
-0.21112213 0.054092474 -0.12324342 -0.14328286 0.097225 0.16745448 0.17287205 -0.116052285
-0.16836399 0.0010717835 -0.031688936 0.04796079 0.16133463 -0.23699008 -0.14549305 -0.15240005
-0.12222888 0.13796209 0.15649863 0.127629 0.16603321 0.11779538 0.12790884 0.21017471
-0.1877067 -0.20235914 0.10838904 -0.15066227 -0.14435875 -0.1469078 0.10058051 -0.14013726
0.14701505 0.23197094 0.119422585 -0.1777744 0.027278485 -0.07826944 -0.023464652 -0.009766572
-0.21944104 0.102376506 -0.10894805 -0.143231 0.12054118 0.11237813 -0.14282557 0.14271468
0.12094261 0.21020265 0.10329415 0.09675001 -0.1311457 -0.18118487 -0.12241963 -0.17130448
-0.14184488 -0.050411634 0.073949166 -0.17385042 -0.10696373 -0.06361761 0.18806429 0.07798982
-0.19343114 0.13752595 -0.1538263 -0.20613593 -0.18622772 0.17692336 0.14869015
00000000: 2b81 96bd 89ec ebba 49c0 033d 7af9 0d3e
00000010: fa82 88bc ef2f 183e f640 2f3e 16ff 62be
00000020: b314 0a3e 34f2 ff3b 45f3 0d3e 4342 47be
00000030: 7a1f 47bc b1aa b2bd 2d19 2d3d 9a93 c2bd
00000040: 9dae 0abe a9ff f7bd f015 37be ce68 1ebe
00000050: 78c3 343e 1e05 85bd 28bd 413e 63e5 1dbe
00000060: 6630 58be 1290 5d3d 0c67 fcbd beb8 12be
00000070: e71d c73d 3079 2b3e 5f05 313e d2ac edbd
00000080: 9c67 2cbe 167b 8c3a 42cc 01bd 8972 443d
00000090: e834 253e 87ad 72be 21fc 14be c20e 1cbe
000000a0: 2353 fabd ef45 0d3e 2d41 203e 2db1 023e
000000b0: 9c04 2a3e b43e f13d 89fa 023e 0a38 573e
000000c0: 2f36 40be 3c37 4fbe 13fb dd3d 3647 1abe
000000d0: c8d2 13be 006f 16be 28fd cd3d 2480 0fbe
000000e0: 1d8b 163e ca89 6d3e d493 f43d 7e0a 36be
000000f0: 2177 df3c ba4b a0bd f138 c0bc f903 20bc
00000100: 27b5 60be c6aa d13d 2820 dfbd 26ab 12be
00000110: 4bde f63d 8126 e63d de40 12be cc23 123e
00000120: c2b0 f73d 5d3f 573e e28b d33d df24 c63d
00000130: 0f4b 06be 8788 39be 25b7 fabd 716a 2fbe
00000140: c93f 11be 6e7c 4ebd a972 973d d805 32be
00000150: cd0f dbbd f349 82bd ed93 403e 20b9 9f3d
00000160: d012 46be 9ad3 0c3e a484 1dbe 4c15 53be
00000170: 7bb2 3ebe 662b 353e 3b42 183e
