models/rnn-power.pt (torch, 117091 bytes, 5 tensors)

l1.weight_ih_l0 f4 [285, 4]
0.065937996 0.11662692 -0.08911302 -0.036887664 -0.04923152 0.005815863 -0.033244032 0.092103
-0.0181504 0.0017986257 0.004041381 -0.010039316 -0.1718555 -0.042341243 -0.0025138108 0.020579651
0.17398831 0.044878647 -0.0851023 -0.038503464 0.16346957 0.15218033 -0.028734824 0.09767744
0.091653526 -0.11109026 0.065270305 -0.19396214 -0.28259024 0.124502026 -0.04289479 0.08756823
-0.047768354 -0.04523369 -0.076192334 -0.13159089 -0.06472237 0.11536447 0.021721123 -0.020876747
0.07418481 -0.13819042 -0.033246253 -0.085479446 -0.050919585 -0.023984673 0.06258297 0.07350388
-0.04186252 -0.11991166 -0.0105425855 -0.03295931 0.04888727 0.02240888 0.07069755 -0.09557478
0.13214576 -0.12824008 -0.06762574 -0.11651234 0.2346063 0.10550037 -0.08130286 0.052121367
-0.07914345 0.13422996 0.010717644 0.15493405 0.15050837 0.06800424 -0.11631215 -0.057149738
-0.21228626 0.12953202 0.081323 0.16365969 0.1663278 -0.19203533 -0.08207521 -0.106672585
-0.0045296797 0.10734508 0.07369808 -0.12760927 -0.088669635 0.06309002 -0.01684998 -0.10023396
-0.024249816 -0.063425876 0.034719247 0.131529 0.20594405 0.043435477 -0.1036849 -0.03690202
0.16341558 -0.001931564 -0.120574445 -0.074535325 0.21262696 0.065556705 -0.091074914 -0.05186379
-0.2962545 -0.0015813183 -0.05054573 -0.00945488 -0.07806861 -0.018105252 -0.042234056 0.06909785
-0.24792412 0.0895524 0.07477729 -0.05093077 -0.01218336 -0.025394581 -0.0101086255 -0.009751734
0.10572094 -0.057857037 -0.111126475 0.046026755 -0.17958917 -0.036704436 -0.018479018 -0.020422006
0.020179054 -0.106346875 -0.047052365 0.040939525 -0.3467545 0.17546284 0.06496861 0.04855976
-0.083070286 -0.00050994783 0.027937075 0.09244405 0.261223 0.061200865 0.040848047 -0.05231118
-0.21208607 0.08618047 0.039032843 0.021579124 -0.0029207324 -0.14036278 -0.12522861 -0.11596344
0.05413508 0.07816125 0.077204056 -0.094642475 0.17314294 -0.0864434 -0.06307192 -0.085660435
-0.042194925 -0.05615646 -0.054863997 -0.12099429 0.028258234 -0.03868555 -0.06360265 0.07781909
-0.019924304 0.01009517 0.05399655 0.06274029 0.18556733 0.040954515 -0.07745921 0.053040083
0.020847656 -0.057361502 0.0804939 -0.07684048 -0.07189219 -0.018743457 0.04738307 -0.055879645
0.07056425 0.0012301427 -0.05532056 0.039527297 -0.122193016 0.1654544 0.08708499 0.016548133
-0.15840669 0.026624374 -0.048170924 -0.019729013 -0.0757172 0.058692034 -0.08488654 -0.020216675
0.12728083 0.0527783 -0.039956857 -0.26864916 0.10296653 0.02814401 -0.03189103 -0.003347858
-0.004287115 -0.09028813 -0.068241484 0.06660773 0.03851665 0.02967791 -0.010349379 -0.0068754847
-0.48009264 0.14583462 -0.008142346 -0.026358489 0.14767721 0.08610562 0.036352783 0.008626584
-0.019674432 -0.06646295 -0.17237175 -0.107323654 -0.065989405 -0.031041525 -0.0046045133 0.0867761
0.12252604 0.102597885 0.060084227 -0.109056 0.024186954 -0.028397249 -0.004710685 -0.010408884
0.2139867 -0.018340113 -0.14145015 -0.02816131 -0.0138093475 -0.0742438 0.101301774 -0.140121
0.062100157 -0.0027535618 -0.071454704 0.011550144 0.0752851 0.0010471958 -0.054425556 -0.07068448
00000000: 800a 873d 18da ee3d e380 b6bd 8517 17bd
00000010: fea6 49bd ff92 be3b e52a 08bd 7fa0 bc3d
00000020: 26b0 94bc ddbf eb3a 906d 843b f17b 24bc
00000030: e3fa 2fbe 036e 2dbd bfbe 24bb a896 a83c
00000040: fe29 323e acd2 373d 1d4a aebd cfb5 1dbd
00000050: 9164 273e 29d5 1b3e 4b65 ebbc 1c0b c83d
00000060: d8b4 bb3d 4a83 e3bd 70ac 853d 039e 46be
00000070: abaf 90be ebfa fe3d 73b2 2fbd f956 b33d
00000080: c0a8 43bd f646 39bd ba0a 9cbd c3bf 06be
00000090: 298d 84bd 3544 ec3d 7ff0 b13c b605 abbc
000000a0: 35ee 973d ca81 0dbe 392d 08bd d90f afbd
000000b0: 0e91 50bd 817b c4bc 802b 803d 3489 963d
000000c0: 0978 2bbd 3f94 f5bd cfba 2cbc 5700 07bd
000000d0: 053e 483d d492 b73c e1c9 903d b6bc c3bd
000000e0: 3851 073e 5e51 03be 5d7f 8abd 069e eebd
000000f0: a23c 703e 9410 d83d 1d82 a6bd 377d 553d
00000100: f615 a2bd 9473 093e 0f99 2f3c 08a7 1e3e
00000110: de1e 1a3e cf45 8b3d 1135 eebd d815 6abd
00000120: 9261 59be 0ba4 043e ac8c a63d 6896 273e
00000130: d651 2a3e e9a4 44be 0c17 a8bd 2877 dabd
00000140: b56d 94bb bdd7 db3d 05ef 963d 01ac 02be
00000150: 6d98 b5bd 5735 813d f808 8abc 7647 cdbd
00000160: 8da7 c6bc 6de5 81bd c535 0e3d 8aaf 063e
00000170: ffe2 523e 66e9 313d c058 d4bd 9326 17bd
00000180: 6a56 273e 882c fdba bcef f6bd faa5 98bd
00000190: e2ba 593e 9842 863d 7c85 babd 206f 54bd
000001a0: abae 97be 3d44 cfba 0a09 4fbd a4e8 1abc
000001b0: 6fe2 9fbd 7751 94bc 9efd 2cbd 2c83 8d3d
000001c0: d2df 7dbe 4067 b73d d624 993d c89c 50bd
000001d0: b79c 47bc 4c08 d0bc a69e 25bc bdc5 1fbc
000001e0: 3884 d83d 80fb 6cbd 4796 e3bd 8d86 3c3d
000001f0: 39e6 37be 6457 16bd 4f61 97bc 0d4c a7bc
00000200: 8b4e a53c 64cc d9bd fbb9 40bd 34b0 273d
00000210: ce89 b1be 88ac 333e 430e 853d 99e6 463d
00000220: c120 aabd 05ae 05ba 4bdc e43c 4e53 bd3d
00000230: 05bf 853e c2ad 7a3d 4850 273d 3f44 56bd
00000240: 172d 59be 637f b03d e7e0 1f3d b4c6 b03c
00000250: c269 3fbb 43bb 0fbe ee3b 00be 3d7e edbd
00000260: bfbc 5d3d 0113 a03d 291d 9e3d ead3 c1bd
00000270: 624c 313e 3d09 b1bd da2b 81bd bd6e afbd
00000280: 96d4 2cbd 5104 66bd 12b9 60bd dbcb f7bd
00000290: d07d e73c bd74 1ebd 1b42 82bd 9d5f 9f3d
000002a0: 4b38 a3bc 3666 253c 7d2b 5d3d fb7d 803d
000002b0: 5d05 3e3e ecbf 273d efa2 9ebd 8f40 593d
000002c0: b4c8 aa3c e5f3 6abd fcd9 a43d 8b5e 9dbd
000002d0: 363c 93bd e18b 99bc c014 423d 0ee2 64bd
000002e0: fd83 903d bd3c a13a d097 62bd 60e7 213d
000002f0: 5540 fabd e16c 293e 9e59 b23d f38f 873c
00000300: 5d35 22be 5c1b da3c e04e 45bd bd9e a1bc
00000310: 9f11 9bbd 0f67 703d ffd8 adbd 719d a5bc
00000320: e855 023e 0f2e 583d cda9 23bd 628c 89be
00000330: 1ee0 d23d 448e e63c 2ba0 02bd bd67 5bbb
00000340: ed7a 8cbb fce8 b8bd 31c2 8bbd a269 883d
00000350: a3c3 1d3d 171f f33c 7190 29bc bf4b e1bb
00000360: b4ce f5be ac55 153e 7967 05bc c2ed d7bc
00000370: b238 173e 2558 b03d a8e6 143d 8456 0d3c
00000380: 462c a1bc ba1d 88bd 3882 30be 81cc dbbd
00000390: 7425 87bd cc4a febc 75e1 96bb abb7 b13d
000003a0: efee fa3d d71e d23d e11a 763d c158 dfbd
000003b0: b823 c63c 59a1 e8bc 175c 9abb 068a 2abc
000003c0: 541f 5b3e 013e 96bc 4fd8 10be 8cb2 e6bc
000003d0: 9a40 62bc 220d 98bd 4e77 cf3d e17b 0fbe
000003e0: bc5c 7e3d 1a75 34bb d856 92bd d13c 3d3c
000003f0: 132f 9a3d 0f42 893a 55ed 5ebd 06c3 90bd

l1.weight_hh_l0 f4 [285, 95]
0.071408115 0.05376429 -0.12724964 -0.042155806 -0.002035822 -0.08341174 0.056333452 -0.07863982
0.10340045 -0.10797903 0.042543273 -0.03358457 -0.045537744 -0.041406333 0.12297969 -0.0978773
-0.06558173 0.05545974 -0.022253571 0.042718887 -0.021515882 -0.095246606 -0.016606722 0.0030805282
-0.0048783785 -0.039367408 0.03194987 -0.011425645 -0.06840494 0.004931447 -0.05009502 0.0961655
-0.0050973278 -0.05256246 -0.051789276 0.050091032 0.009469371 -0.011297824 0.02726084 -0.10405392
-0.03354969 -0.09198202 0.07395338 -0.06069743 -0.0963641 -0.13420674 -0.06814159 0.13099504
0.05256782 -0.12718847 0.036454804 0.049279172 0.10795218 0.10797549 0.050087444 -0.17370489
0.090528116 0.01072044 0.09698206 -0.019929664 -0.016147094 0.0938892 0.10455817 -0.053919572
-0.012915207 -0.059160307 -0.09737158 0.15957679 -0.050900415 -0.12332022 -0.054047514 -0.07078132
0.01041333 -0.06260815 -0.09158779 -0.095289215 -0.035283055 0.08032513 -0.082259655 0.0031496608
0.055937782 0.04282329 -0.020700961 0.05594956 -0.0132090375 0.04110423 -0.076915756 0.03799534
0.111348026 -0.100029714 0.035915732 0.1294398 -0.07637624 0.049338028 -0.021688985 -0.055147506
0.03775131 0.039652612 0.05637004 -0.10304051 -0.07803963 0.09024939 0.061170794 -0.05071701
-0.039176196 -0.10055786 -0.05350633 -0.009408004 0.073495224 -0.0008971946 0.030825194 0.052552484
0.013644797 -0.06598498 0.06572804 0.04902813 0.060374618 -0.12980811 0.043363634 0.06823957
-0.12308066 0.026278377 0.09350018 -0.07711102 0.02270731 0.06570024 0.019201178 0.10237632
0.105387285 0.08752486 -0.035843607 0.04063206 -0.08954961 -0.05712482 -0.0049501555 -0.033697378
0.09045205 0.024111489 0.064439125 0.0598978 -0.08175805 0.0011472725 0.027592625 0.02583481
0.018957961 -0.017145226 -0.015994163 0.04655833 -0.04353737 -0.056089208 0.049642038 0.114544325
-0.03274065 -0.01040987 -0.09844473 -0.097049385 0.056406416 -0.029069671 0.08446613 -0.08815462
-0.0175718 0.032746516 0.06234601 0.08218545 0.055278897 0.039806273 -0.084010094 -0.06492205
-0.10415993 -0.02394314 0.0607497 -0.036689688 -0.008986131 -0.066778935 0.03863022 0.06857566
-0.08847336 -0.068730466 0.07863933 0.00049907394 -0.014279607 0.012680964 -0.04767252 -0.020570653
-0.097051166 0.084441826 0.013921366 -0.042666283 -0.011040958 -0.055028655 -0.037834205 -0.03145621
0.084144585 0.013965755 -0.031689487 -0.059992164 0.099331714 -0.052200377 0.02703927 0.07053615
-0.08721292 0.007951268 0.0036456233 0.11576707 -0.025751509 -0.003938491 0.078178436 -0.10371409
0.027767431 0.15362172 -0.056802616 0.11703323 0.06110918 0.10778051 -0.012203016 0.025015874
-0.030091139 -0.072262585 0.045747325 -0.042747054 0.11185042 0.031290524 -0.09370843 0.061277825
0.03971442 0.050538715 0.036076386 0.03991491 -0.07679336 0.13595822 0.0050926353 0.10368667
-0.12829159 -0.03086272 0.011111186 0.036631837 -0.0052213273 0.0709437 0.022326758 0.012212649
0.08076642 -0.0608744 -0.056193933 -0.060244247 0.12765762 0.136063 0.037888203 -0.05497213
-0.045942683 0.14297944 -0.01069293 0.023399852 0.11551689 0.13172202 0.114482194 -0.05347583
00000000: 6b3e 923d f237 5c3d bb4d 02be 91ab 2cbd
00000010: 6d6b 05bb c6d3 aabd e8bd 663d ea0d a1bd
00000020: 9dc3 d33d 1c24 ddbd db41 2e3d f98f 09bd
00000030: c985 3abd b099 29bd c7dc fb3d e573 c8bd
00000040: b74f 86bd c129 633d 1f4d b6bc 00fa 2e3d
00000050: 1342 b0bc a710 c3bd d20a 88bc b0e2 493b
00000060: ceda 9fbb b83f 21bd dedd 023d a132 3bbc
00000070: e417 8cbd fa97 a13b 7030 4dbd 6bf2 c43d
00000080: 7c07 a7bb bc4b 57bd fe20 54bd 412c 4d3d
00000090: 6c25 1b3c 821a 39bc 2052 df3c 391a d5bd
000000a0: 666b 09bd 1261 bcbd df74 973d de9d 78bd
000000b0: 8b5a c5bd 7e6d 09be d18d 8bbd 9023 063e
000000c0: 5b51 573d b23d 02be a251 153d f5d8 493d
000000d0: 0816 dd3d 4122 dd3d 7e28 4d3d b2df 31be
000000e0: ce66 b93d c9a4 2f3c 889e c63d 8943 a3bc
000000f0: e946 84bc fb48 c03d 9822 d63d c5da 5cbd
00000100: 4e9a 53bc 1452 72bd c06a c7bd 1968 233e
00000110: f47c 50bd 508f fcbd ed60 5dbd ccf5 90bd
00000120: ac9c 2a3c b438 80bd 6192 bbbd fe26 c3bd
00000130: f784 10bd 8081 a43d c077 a8bd 8a6a 4e3b
00000140: 041f 653d 7967 2f3d 1095 a9bc 5e2b 653d
00000150: b86a 58bc e95c 283d 0286 9dbd 00a1 1b3d
00000160: 6f0a e43d 61dc ccbd 601c 133d de8b 043e
00000170: 256b 9cbd ac16 4a3d 19ad b1bc 5ae2 61bd
00000180: 1ea1 1a3d c76a 223d 45e4 663d e706 d3bd
00000190: 3ed3 9fbd acd4 b83d 3a8e 7a3d a4bc 4fbd
000001a0: 3877 20bd 48f1 cdbd 7429 5bbd 0724 1abc
000001b0: aa84 963d b631 6bba 1e85 fc3c 4641 573d
000001c0: 6d8e 5f3c 2223 87bd 6c9c 863d b8d1 483d
000001d0: 604b 773d 6bec 04be 119e 313d 30c1 8b3d
000001e0: b711 fcbd c045 d73c 067d bf3d 62ec 9dbd
000001f0: ae04 ba3c d98d 863d ca4b 9d3c adaa d13d
00000200: 4ad5 d73d 3c40 b33d bfd0 12bd ce6d 263d
00000210: c965 b7bd b7fb 69bd ea34 a2bb 4306 0abd
00000220: ed3e b93d 7585 c53c a9f8 833d 6557 753d
00000230: c470 a7bd 1460 963a ee09 e23c 86a3 d33c
00000240: ba4d 9b3c 2574 8cbc 3106 83bc f3b3 3e3d
00000250: 3e54 32bd ccbd 65bd 7355 4b3d 3796 ea3d
00000260: 0f1b 06bd 298e 2abc 649d c9bd d4c1 c6bd
00000270: 6a0a 673d 8523 eebc 94fc ac3d 698a b4bd
00000280: bcf2 8fbc 3621 063d 885e 7f3d d850 a83d
00000290: 206c 623d e70b 233d 7c0d acbd daf5 84bd
000002a0: cd51 d5bd 6724 c4bc add4 783d ed47 16bd
000002b0: 913a 13bc 65c3 88bd b93a 1e3d 6571 8c3d
000002c0: 8531 b5bd 8fc2 8cbd a80d a13d 49d4 023a
000002d0: 03f5 69bc d1c3 4f3c 4344 43bd c983 a8bc
000002e0: c3c2 c6bd d6ef ac3d 7116 643c d7c2 2ebd
000002f0: 22e5 34bc ba65 61bd 0af8 1abd 3ad8 00bd
00000300: ff53 ac3d 9fd0 643c d6cc 01bd 58ba 75bd
00000310: 6d6e cb3d 10d0 55bd 7681 dd3c 4275 903d
00000320: b09c b2bd 0946 023c 69eb 6e3b 4917 ed3d
00000330: d4f4 d2bc 750e 81bb 041c a03d 0e68 d4bd
00000340: 8678 e33c 034f 1d3e dca9 68bd 1eaf ef3d
00000350: 9f4d 7a3d 07bc dc3d 29ef 47bc 17ee cc3c
00000360: b181 f6bc 68fe 93bd 8c61 3b3d 8917 2fbd
00000370: d511 e53d 7e2a 003d 35ea bfbd 75fe 7a3d
00000380: 96ab 223d af01 4f3d d5c4 133d d17d 233d
00000390: d645 9dbd a238 0b3e 1fe0 a63b ad59 d43d
000003a0: df5e 03be d1d3 fcbc b10b 363c 440b 163d
000003b0: ab17 abbb ee4a 913d 9be6 b63c 9017 483c
000003c0: dd68 a53d 6f57 79bd 9c2b 66bd acc2 76bd
000003d0: aeb8 023e 1954 0b3e a930 1b3d 752a 61bd
000003e0: 652e 3cbd 3469 123e 6631 2fbc 0cb1 bf3c
000003f0: 1f94 ec3d 23e2 063e a475 ea3d 7909 5bbd

l1.bias_ih_l0 f4 [285]
-0.07016469 -0.003152399 0.041317184 0.0015972493 0.061980493 -0.022703115 0.14035228 -0.024294958
0.04488174 0.032413438 0.0039482885 0.013838697 -0.00343944 -0.06392458 0.038613286 -0.03202537
-0.045211885 -0.022003071 -0.057519034 -0.044020746 0.006583008 0.07038715 0.046253208 -0.099425375
-0.06161082 0.046249997 -0.11488465 -0.0792657 -0.04445382 -0.024993828 0.07164647 -0.038872194
0.014661856 0.07638453 -0.0958798 -0.014626202 0.17443502 -0.12699813 -0.052362487 -0.07831256
-0.037132658 0.013196093 -0.0078346655 0.012217307 0.012875394 0.08481587 -0.03429654 0.13971382
-0.08773957 0.013677649 0.03329086 -0.005493137 -0.0008732134 -0.068407625 0.041302204 -0.031721942
0.017763987 0.10839109 0.015257073 -0.04664213 0.09367598 -0.050711025 -0.091111034 -0.018347958
-0.12764177 0.061478987 -0.03370102 -0.028005429 0.0021416326 0.03231395 -0.07812853 0.073137045
0.0021837393 0.040124044 -0.0062223407 0.056819923 -0.06578471 -0.041300762 -0.07615734 -0.047302224
-0.05636855 -0.033427298 -0.04226284 -0.03627856 0.043267924 -0.029648134 0.064722754 0.026904535
-0.013080404 -0.01119852 -0.067947894 -0.13111567 -0.06727989 0.06122285 0.039713483 -0.013192894
-0.06605848 -0.037874013 -0.1585629 -0.046385054 -0.040329188 -0.12258013 -0.2934393 -0.052012675
-0.14321637 -0.12826662 -0.06867834 -0.3472957 0.022404993 -0.27223802 -0.12721229 -0.16075607
-0.12106056 -0.27049434 -0.28339198 -0.12967439 -0.14200996 -0.1864405 -0.04764925 -0.15340023
-0.103115775 -0.251887 -0.2434502 -0.091185406 -0.099099144 -0.2597405 -0.25298646 -0.12904689
-0.26401713 -0.23651367 -0.09296087 0.13639303 -0.24084055 0.0057034153 -0.28081244 0.047158305
-0.07784978 -0.08782551 -0.10074718 -0.07361767 -0.26283762 0.10728906 0.054888837 -0.26524
-0.2083966 -0.21342035 -0.19143236 -0.14780638 -0.1802922 -0.1928424 -0.076741 -0.2265214
-0.09866363 -0.010392728 0.0044034994 -0.2673527 -0.21569088 -0.112259045 -0.040047612 -0.07303705
0.043662816 -0.28285268 -0.23331958 -0.16801895 -0.018375382 0.062110525 -0.31738937 -0.09766053
-0.10707516 -0.18358302 0.021954114 -0.12682281 -0.23453681 -0.15671884 -0.14737247 -0.078464255
-0.11185167 -0.10502123 -0.1689731 -0.2256298 -0.15090631 -0.112776935 -0.003827657 -0.18599746
-0.089178145 -0.11769379 -0.17186801 -0.1186578 -0.07685683 -0.019002369 -0.057220507 -0.041024566
-0.08184278 0.013818383 -0.025938798 0.016925758 -0.005081646 -0.054706458 -0.1187496 0.09616923
0.0038608431 -0.11212652 0.07112125 -0.032854237 -0.03930904 0.0047108606 0.07801125 0.068081185
-0.083502725 0.042551618 0.08956365 0.0026914396 0.08733695 0.0024862795 0.033807576 0.01862544
-0.08355192 0.010476834 0.008108037 -0.027176877 -0.016345643 -0.09448398 -0.0233076 -0.066917524
0.037055943 -0.10860242 0.1323067 0.0577367 0.025307547 0.032782234 0.043400884 -0.0020446165
-0.05286921 -0.047813296 -0.014452307 -0.06752979 0.076606914 -0.044913057 -0.0035672663 0.19925109
0.11051379 -0.08157202 0.10626492 -0.0016451896 -0.037127905 -0.07188267 -0.0608401 -0.014709167
-0.018423276 0.081009425 -0.08295838 -0.0932351 -0.00032972914 -0.08836129 0.010347636 0.0964842
00000000: 81b2 8fbd 7b98 4ebb 353c 293d cb5a d13a
00000010: 42df 7d3d e2fb b9bc 82b8 0f3e 3806 c7bc
00000020: ead5 373d f4c3 043d a560 813b b4bb 623c
00000030: 3a68 61bb e4ea 82bd f728 1e3d 092d 03bd
00000040: 1930 39bd c93f b4bc 1499 6bbd 194f 34bd
00000050: 46b6 d73b 2327 903d 0174 3d3d 889f cbbd
00000060: a15b 7cbd a370 3d3d a548 ebbd 0e56 a2bd
00000070: 3515 36bd dbbf ccbc 62bb 923d 7338 1fbd
00000080: 4838 703c 7e6f 9c3d a15c c4bd bda2 6fbc
00000090: 189f 323e cc0b 02be 0c7a 56bd 5662 a0bd
000000a0: 6a18 18bd 6d34 583c f85c 00bc 1a2b 483c
000000b0: 51f3 523c f1b3 ad3d 877a 0cbd 2411 0f3e
000000c0: ceb0 b3bd 3818 603c ff5b 083d c6ff b3bb
000000d0: 5ce8 64ba 4c19 8cbd 802c 293d deee 01bd
000000e0: c885 913c 26fc dd3d cdf8 793c d10b 3fbd
000000f0: 31d9 bf3d 5db6 4fbd 6c98 babd 754e 96bc
00000100: 86b4 02be 64d1 7b3d 150a 0abd a46b e5bc
00000110: a25a 0c3b a25b 043d da01 a0bd e0c8 953d
00000120: 111d 0f3b 1c59 243d c7e4 cbbb 02bc 683d
00000130: 22ba 86bd fd2a 29bd 61f8 9bbd fabf 41bd
00000140: b5e2 66bd 10eb 08bd cd1b 2dbd d498 14bd
00000150: b539 313d a5e0 f2bc 5d8d 843d e666 dc3c
00000160: 314f 56bc ff79 37bc 4428 8bbd 3043 06be
00000170: 0aca 89bd d0c4 7a3d 9baa 223d 0227 58bc
00000180: ab49 87bd c821 1bbd 505e 22be 41fe 3dbd
00000190: 3830 25bd 4b0b fbbd ad3d 96be 3e0b 55bd
000001a0: 50a7 12be 5358 03be 3ba7 8cbd bed0 b1be
000001b0: ad8a b73c c862 8bbe f043 02be 3d9d 24be
000001c0: 99ee f7bd 3c7e 8abe c118 91be 5dc9 04be
000001d0: 0f6b 11be 42ea 3ebe dc2b 43bd f314 1dbe
000001e0: 5d2e d3bd 55f7 80be 024b 79be 6abf babd
000001f0: 7ef4 cabd b5fc 84be 7187 81be de24 04be
00000200: 412d 87be a430 72be 4562 bebd 9daa 0b3e
00000210: e89e 76be b7e3 ba3b a6c6 8fbe 1129 413d
00000220: b56f 9fbd dcdd b3bd 8a54 cebd dcc4 96bd
00000230: a792 86be 5eba db3d 1ed3 603d 8acd 87be
00000240: eb65 55be dd8a 5abe d806 44be 8e5a 17be
00000250: 859e 38be 7a78 45be 632a 9dbd 3af5 67be
00000260: 2810 cabd 4346 2abc 3b4b 903b 74e2 88be
00000270: 12de 5cbe 12e8 e5bd f708 24bd 7394 95bd
00000280: c8d7 323d 11d2 90be 54eb 6ebe 290d 2cbe
00000290: f887 96bc 9b67 7e3d dc80 a2be 3e02 c8bd
000002a0: 394a dbbd 30fd 3bbe 1dd9 b33c d7dd 01be
000002b0: 6b2a 70be e77a 20be cfe8 16be deb1 a0bd
000002c0: 7d12 e5bd 5f15 d7bd 4907 2dbe 800b 67be
000002d0: 2f87 1abe 98f7 e6bd 6ed9 7abb 1e76 3ebe
000002e0: 08a3 b6bd 7109 f1bd 2bfe 2fbe dc02 f3bd
000002f0: 1d67 9dbd dbaa 9bbc 0d60 6abd 6009 28bd
00000300: 309d a7bd 8066 623c 9a7d d4bc e3a7 8a3c
00000310: f083 a6bb e113 60bd fe32 f3bd 60f4 c43d
00000320: 3306 7d3b 97a2 e5bd 05a8 913d 2a92 06bd
00000330: 8402 21bd 905d 9a3b 5dc4 9f3d 266e 8b3d
00000340: 7a03 abbd 9b4a 2e3d 266d b73d dd62 303b
00000350: b7dd b23d d9f0 223b d079 0a3d 6194 983c
00000360: 451d abbd 07a7 2b3c 92d7 043c 0ba2 debc
00000370: 4ce7 85bc d180 c1bd 94ef bebc 0e0c 89bd
00000380: f9c7 173d f26a debd 687b 073e 517d 6c3d
00000390: c651 cf3c aa46 063d 20c5 313d f9fe 05bb
000003a0: 628d 58bd e0d7 43bd 5ec9 6cbc 0f4d 8abd
000003b0: 16e4 9c3d c1f6 37bd ccc8 69bb 7a08 4c3e
000003c0: 0e55 e23d 3b0f a7bd 6ca1 d93d 67a3 d7ba
000003d0: 6e13 18bd 3937 93bd 7833 79bd b8fe 70bc
000003e0: 69ec 96bc 45e8 a53d 15e6 a9bd 0bf2 bebd
000003f0: 7fdf acb9 c4f6 b4bd 2289 293c 8299 c53d

l1.bias_hh_l0 f4 [285]
0.041922163 -0.00313414 -0.09383121 -0.02855993 -0.09524423 -0.05501814 0.046646588 0.005121162
0.050291993 0.011818823 -0.049331784 0.03450942 -0.028121116 0.024769312 -0.04940959 -0.042609107
0.06545556 -0.068945095 -0.095361285 0.028081251 0.016954245 0.0891375 -0.095696606 -0.0049596746
-0.09189115 0.061478708 -0.014251777 0.07833251 -0.074346565 -0.037272494 -0.013973883 -0.05319277
0.082667515 0.053882994 0.028467694 0.10258582 0.17373188 -0.071802154 0.046188112 -0.017936962
-0.0014903797 -0.08094651 -0.06966868 0.06341569 -0.07256798 -0.009021288 0.012239026 -0.029705064
-0.02641771 0.006030784 0.004850706 0.042827696 0.05105741 0.009314126 0.09020375 0.042087004
-0.0031905002 -0.06989279 0.08053484 0.018259238 0.04827098 -0.07075404 -0.030739551 -0.059444796
-0.104016066 -0.082658984 0.057013918 0.044571746 0.0146068465 0.13018276 0.06358745 -0.005602065
-0.029609386 -0.042919908 -0.06277235 -0.014192031 -0.09484054 -0.06060686 -0.08584328 0.031440336
0.0066262474 -0.10673479 -0.14260645 -0.09288497 -0.030605502 0.031640355 0.07593899 0.08588659
0.07141054 -0.015796937 0.06991945 0.047805846 0.064282335 -0.012056005 -0.026139574 0.01242448
-0.11057128 -0.029082492 -0.13263126 -0.037798367 0.015047993 -0.122225605 -0.2939733 -0.10077408
-0.17459892 -0.16394974 0.035575375 -0.33930886 -0.10273833 -0.21034527 -0.06718158 -0.12466505
-0.118997596 -0.25357652 -0.19644314 -0.19032916 -0.15930314 -0.11904662 -0.002546996 -0.06987146
-0.124472626 -0.10579342 -0.26510027 -0.21703899 -0.20857087 -0.1972262 -0.17802699 -0.12019545
-0.19890852 -0.18739818 -0.2515942 -0.024083553 -0.1461928 -0.09126225 -0.27157387 0.050047662
-0.07413995 -0.19846271 -0.13933502 -0.12601535 -0.22739322 0.09963838 -0.03607524 -0.15698761
-0.14194122 -0.23610093 -0.18645807 -0.11219719 -0.06335814 -0.27651054 -0.17113312 -0.28269693
-0.15497681 -0.048238415 -0.16837536 -0.27705842 -0.22560829 -0.20203148 -0.013915285 0.0062341574
0.020969614 -0.23993422 -0.22058855 -0.0134240445 -0.03677946 -0.062182933 -0.28827983 0.0932457
-0.13157679 -0.114687495 -0.019745745 -0.021977026 -0.14803647 -0.21712664 -0.09566164 -0.1094749
-0.29053825 -0.147935 -0.09296514 -0.18202922 -0.18936095 -0.20256738 0.03397046 -0.29815927
-0.06299718 -0.16153295 -0.17715304 -0.075123794 -0.038325604 -0.004321238 -0.035606205 -0.038235635
-0.046215493 0.00044710428 0.0010949563 -0.01644649 -0.10855122 -0.062336896 -0.13388173 -0.055691466
0.028714178 -0.085895374 0.003386714 0.017451754 -0.029004734 0.07351034 0.110118605 -0.03434517
-0.12989746 -0.12921423 -0.009150708 -0.02166161 0.056129456 0.030946543 0.042798456 0.024619738
0.028945742 -0.037145305 0.08854185 0.08958787 0.0064830463 -0.097837485 0.021658564 -0.068397306
0.043693043 -0.06421275 0.12806539 0.05734788 -0.09349709 -0.07409347 -0.0688251 -0.021545025
0.0038468547 0.0075627207 0.013475461 -0.10163403 -0.00297811 0.018951884 -0.030278347 0.16397329
-0.05494862 -0.0026550756 0.064941004 0.07760531 -0.12838776 0.010719877 0.009408423 0.086763114
-0.061848883 0.02900629 0.06884921 0.08381596 0.041156836 -0.081917495 0.08173825 0.061441816
00000000: 93b6 2b3d 2566 4dbb 942a c0bd 84f6 e9bc
00000010: 680f c3bd b35a 61bd 7e10 3f3d 6ccf a73b
00000020: fafe 4d3d bda3 413c 2010 4abd c059 0d3d
00000030: 415e e6bc 03e9 ca3c b661 4abd e386 2ebd
00000040: 910d 863d 1633 8dbd c74c c3bd a70a e63c
00000050: a1e3 8a3c b98d b63d 95fc c3bd c484 a2bb
00000060: 6d31 bcbd 19d1 7b3d 4980 69bc cc6c a03d
00000070: 0343 98bd 0bab 18bd b7f2 64bc a9e0 59bd
00000080: 964d a93d 6ab4 5c3d 1535 e93c 8418 d23d
00000090: c5e6 313e 020d 93bd bf2f 3d3d 89f0 92bc
000000a0: d858 c3ba 49c7 a5bd 74ae 8ebd 16e0 813d
000000b0: 859e 94bd 06ce 13bc 3286 483c 0958 f3bc
000000c0: f469 d8bc e29d c53b acf2 9e3b 186c 2f3d
000000d0: 9321 513d 479a 183c bebc b83d 6c63 2c3d
000000e0: b617 51bb f323 8fbd 73ef a43d 6694 953c
000000f0: cbb7 453d 7ee7 90bd 83d1 fbbc 637c 73bd
00000100: 6006 d5bd 1d49 a9bd 6d87 693d dd90 363d
00000110: 8e51 6f3c a14e 053e 233a 823d 8791 b7bb
00000120: 628f f2bc c9cc 2fbd ca8e 80bd b185 68bc
00000130: c23b c2bd e63e 78bd 9ace afbd 95c7 003d
00000140: fe20 d93b c597 dabd 6d07 12be 7a3a bebd
00000150: 64b8 fabc 5199 013d e785 9b3d 4fe5 af3d
00000160: b03f 923d 9468 81bc ee31 8f3d 10d0 433d
00000170: 75a6 833d 8d86 45bc a922 d6bc 0c90 4b3c
00000180: 3273 e2bd 683e eebc 7dd0 07be 76d2 1abd
00000190: db8b 763c 6b51 fabd ab83 96be a462 cebd
000001a0: 0fca 32be 71e2 27be 7cb7 113d e4b9 adbe
000001b0: 7968 d2bd c064 57be 7f96 89bd 6450 ffbd
000001c0: 03b5 f3bd c8d4 81be 6428 49be a6e5 42be
000001d0: 5d20 23be b7ce f3bd 81eb 26bb c518 8fbd
000001e0: 81eb febd 38aa d8bd 39bb 87be 783f 5ebe
000001f0: 9a93 55be aaf5 49be b54c 36be 0829 f6bd
00000200: adae 4bbe 4fe5 3fbe f4d0 80be df4a c5bc
00000210: 91b3 15be b4e7 babd bb0b 8bbe c7fe 4c3d
00000220: b0d6 97bd cf39 4bbe d7ad 0ebe 2b0a 01be
00000230: c5d9 68be 350f cc3d a1c3 13bd 5cc1 20be
00000240: 0a59 11be 71c4 71be ddee 3ebe a4c7 e5bd
00000250: eac1 81bd ca92 8dbe 853d 2fbe a7bd 90be
00000260: 3eb2 1ebe a595 45bd 976a 2cbe 9ada 8dbe
00000270: dc05 67be 57e1 4ebe effc 63bc e747 cc3b
00000280: 78c8 ab3c 51b1 75be f7e1 61be 86f0 5bbc
00000290: 0fa6 16bd 88b3 7ebd 6a99 93be 9af7 be3d
000002a0: 11bc 06be 47e1 eabd d4c1 a1bc 2a09 b4bc
000002b0: df96 17be 7256 5ebe 40ea c3bd 6034 e0bd
000002c0: 6ec1 94be 467c 17be 8264 bebd de65 3abe
000002d0: d6e7 41be d36d 4fbe 9c24 0b3d 55a8 98be
000002e0: aa04 81bd e568 25be 9b67 35be 81da 99bd
000002f0: 4ffb 1cbd 2c99 8dbb d0d7 11bd f89c 1cbd
00000300: 754c 3dbd 5269 ea39 a384 8f3a caba 86bc
00000310: 1a50 debd f954 7fbd 4b18 09be bc1c 64bd
00000320: ff39 eb3c eae9 afbd a2f3 5d3b fbf6 8e3c
00000330: 569b edbc 978c 963d dd85 e13d 85ad 0cbd
00000340: d703 05be bc50 04be daec 15bc b073 b1bc
00000350: 00e8 653d 9b83 fd3c 6f4d 2f3d 55af c93c
00000360: 9f1f ed3c ad25 18bd 6e55 b53d d879 b73d
00000370: bc6f d43b 055f c8bd 4d6d b13c e313 8cbd
00000380: 7af7 323d f981 83bd 9323 033e 9ce5 6a3d
00000390: 677b bfbd 51be 97bd 2df4 8cbd 317f b0bc
000003a0: 831b 7c3b b3d0 f73b 2ec8 5c3c 8125 d0bd
000003b0: 652c 43bb fb40 9b3c 4c0a f8bc 9de8 273e
000003c0: ce11 61bd c700 2ebb caff 843d 88ef 9e3d
000003d0: 1578 03be 6ca2 2f3c c925 1a3c dcb0 b13d
000003e0: 4155 7dbd 999e ed3c d100 8d3d b4a7 ab3d
000003f0: 1294 283d 5cc4 a7bd 6266 a73d 6aaa 7b3d

l2.weight f4 [1, 95]
-0.04668244 -0.13365471 0.06362687 0.1672136 0.15246205 -0.09877721 -0.09162775 0.109870754
-0.061752703 -0.18326174 0.11057263 0.009924554 -0.15094712 0.12151623 -0.11956552 0.09666561
-0.053337276 0.08772151 0.12274963 -0.110971265 -0.10444862 0.044364832 -0.10835207 0.172227
0.1397866 0.12745328 0.17946652 0.18816312 -0.22779422 0.20317686 -0.1929599 0.14766556
-0.13465632 0.12065491 -0.20092097 0.14937852 -0.037295047 -0.12477782 -0.043494914 -0.222974
-0.06897561 0.18819906 0.07254779 -0.17454246 0.13734387 0.17344446 0.025723422 -0.07757273
-0.22761194 0.0008409325 -0.08240764 -0.161639 -0.014237474 0.18636604 0.11903688 0.1690764
-0.10794374 -0.18989863 -0.10093018 -0.030444838 0.14148022 0.1142249 -0.085812554 -0.06189128
-0.053658474 0.07425938 -0.15442209 -0.12586555 0.10493159 0.055870764 0.03824304 0.23164114
0.0030496062 0.17847303 0.09636308 -0.049105715 0.100943625 -0.08295728 0.20202008 -0.213782
0.087829225 0.11912949 -0.12589875 -0.10671117 -0.13917579 0.0865793 -0.16976756 -0.07119046
-0.11810866 0.10527806 0.056955095 -0.11458708 0.13359079 -0.10893725 0.06280781
00000000: 1636 3fbd c8dc 08be ce4e 823d 0b3a 2b3e
00000010: 031f 1c3e b54b cabd 54a7 bbbd eb03 e13d
00000020: 67f0 7cbd f7a8 3bbe e773 e23d 999a 223c
00000030: e291 1abe 80dd f83d c4de f4bd 9ff8 c53d
00000040: 3078 5abd 56a7 b33d 2864 fb3d e744 e3bd
00000050: 28e9 d5bd e6b7 353d b1e7 ddbd 465c 303e
00000060: 3824 0f3e 1d83 023e 12c6 373e d5ad 403e
00000070: e342 69be 980d 503e 4897 45be a435 173e
00000080: 59e3 09be ec19 f73d 3abe 4dbe aff6 183e
00000090: b1c2 18bd 848b ffbd b927 32bd 4c53 64be
000000a0: 1643 8dbd 41b7 403e f093 943d 42bb 32be
000000b0: dfa3 0c3e 6d9b 313e edb9 d23c 74de 9ebd
000000c0: 1b13 69be 0672 5c3a 56c5 a8bd b284 25be
000000d0: 4b44 69bc bdd6 3e3e 9cc9 f33d 5d22 2d3e
000000e0: 9c11 ddbd c974 42be 7bb4 cebd 7467 f9bc
000000f0: 31e0 103e bfee e93d 7ebe afbd b681 7dbd
00000100: fdc8 5bbd 4d15 983d d320 1ebe e6e2 00be
00000110: 60e6 d63d bed8 643d bca4 1c3d 5633 6d3e
00000120: e7db 473b a2c1 363e 025a c53d 1323 49bd
00000130: 88bb ce3d 82e5 a9bd 5ade 4e3e abe9 5abe
00000140: cfdf b33d 29fa f33d 9aeb 00be 638b dabd
00000150: 1984 0ebe 7d50 b13d 8cd7 2dbe 4ecc 91bd
00000160: f4e2 f1bd 069c d73d bf49 693d a2ac eabd
00000170: 06cc 083e 7e1a dfbd 62a1 803d
