models/rnn-Global_Radiation.pt (torch, 117091 bytes, 5 tensors)

l1.weight_ih_l0 f4 [285, 4]
00000000: bbcd b83b 7143 c13c dc9e b6bc 0243 ccbb
00000010: 96de 88bd 02be 313d 2606 91bb d2ab 3b3e
00000020: 2723 333c 8f20 2fbc 577a adbc f45b a5bc
00000030: 47a4 c2bd d4ed 0abe c390 9abd 5952 413d
00000040: 5347 0e3e 64d4 193c bd84 0dbd 8eab 3d3e
00000050: b3d5 d53d 00d3 903c 855d 74bd f6db fa3d
00000060: 9483 793e 9fb2 8bbd 1d6b 1e3e 2d6f a5bd
00000070: 442c b2bd 7a46 ddbc fffa 63bc 95b2 2a3e
00000080: 96f2 d9bd 05f9 eebb 146c 11bd 26e5 2abe
00000090: 705d b2bd 25d2 923d 4fa4 b53c bd8f 373e
000000a0: 2d08 8b3e 7864 02be 9cbe 043e 5586 243d
000000b0: aea2 6ebd a732 b2bd bd18 8c3d c1b8 313e
000000c0: 32a7 05bc 2ce9 42bd ee5d 1a3e 1eb4 413e
000000d0: 5910 ba3d f071 6abd 2a4f 163e 15ef cc3d
000000e0: 84e2 7f3e ca3a 15be cbb0 0e3d caf2 f23d
000000f0: 6b54 d93c d15c 533d bda4 973c 25fc ac3c
00000100: f5e6 8f3d bf94 b23c 645a 87bc 0f98 b13d
00000110: 74c7 b43e c905 17be 0580 5cbd b5ee 263e
00000120: 519b 40bc 9104 bf3d 9233 c53d 360c 193e
00000130: fe09 2a3e 00bc 03be 4762 c93d df15 d23d
00000140: ed28 e2bd 6efa 6e3d 0ae2 f43d b89c 99bc
00000150: b386 37bd eea0 f6bc 0075 41bd 9210 02be
00000160: 2625 ab3c 27e6 76bd 99fd 423d bc74 053e
00000170: 1b1c 333e 123d 8c3b 44f1 0abe d839 ce3c
00000180: 66b5 3f3e fad0 003d 7bfa 7fbd c281 1a3d
00000190: f4c8 8b3e d0de 22bd da0b 973d bc8b 223d
000001a0: 696b 68be cf0a ec3c 3175 1dbe a848 423d
000001b0: d823 a1bc 8339 80bb d364 37bc 2232 3f3e
000001c0: 6cd7 17be d1a6 6b3d e853 083d 18aa a63d
000001d0: 9034 8cba d78b 6b3b e3ea 08bd 3749 afbd
000001e0: 5ab0 e63d 3b93 c5bc 085d 713c d8e7 703e
000001f0: a453 76be b5f4 d13a f96d 32be 71d3 a1bd
00000200: ba4f d9bb 8027 6bbe 6eca 4fbd aae6 513e
00000210: bc29 53be 9b69 983d 4514 793b 8a44 6f3d
00000220: 39a8 70bd f0a4 34bd 8702 5d3c d36b 5a3e
00000230: ecc3 663e dbd7 dbbd f507 3f3e 83d0 873e
00000240: 104c ccbd 169e babd 1ca8 b73d a549 c43c
00000250: 2203 9ebd e79d bcbc 6aac 77bd ad4a 003c
00000260: 78a1 0cbd fb83 4b3d 6425 113e 276d 97bd
00000270: f765 c23d 376c febd aa88 853c 5143 763d
00000280: 51c8 0fbd fdb5 adbd 31c9 efbd 02ed 433d
00000290: d2bf 8cbd 82ed f43c 6e46 e6bd 634d 403e
000002a0: b47c b9bd 1c1e abbd ba67 013e bf95 de3c
000002b0: 31fe b13d 0b2a 713c cf15 a3bd 5aaa 503e
000002c0: 2228 ec3d cbcf 8ebd 4513 813d d0c1 22be
000002d0: d8a5 91bd 1d91 47ba 75bb 423d 18f4 373e
000002e0: d665 8e3d 891d 4e3c ad50 5dbc a852 bcbc
000002f0: 1eae b3bd c0d9 1abb c861 473d 1caf fe3d
00000300: 9dcc 84bd 1d71 f63c 0061 c2bd a52b 5bbe
00000310: 5c8a 24bd a334 853c c429 a0bc 1425 933d
00000320: 2972 5d3d e68e 0b3d c656 7abd eadb c1bd
00000330: d4e5 cb3d e978 3d3d 291f 413b 5b98 1d3d
00000340: 529e ea3e 763e 2abe 59ae 823d bbaa 923e
00000350: 2e3b 9f3d 5c1f 51bd f1cd 683b 74bc d33c
00000360: d14b 02be 2ee8 febc dcc1 c33d d315 45bd
00000370: a9c2 a93d c87d ed3d 0fca e33c 9e9a 08be
00000380: 2d0d debd 2415 843d cb72 9fbd 7b13 903d
00000390: 0e1e 6fbd 19d6 0abd 4f76 4e3c dbfe 783e
000003a0: ed01 923b 6e76 fd3d 27a8 03bc 1585 3cbe
000003b0: 6b3c 733d 15aa e8bd b5ad 03bd d2e2 8b3d
000003c0: 2469 c23c 7f7b c03d f978 92bc 7bf3 8bbe
000003d0: b9a0 893d d58f ddbd bd02 dc3d c865 08bd
000003e0: 4c53 98bb f064 2ebd 66da f63a aaf7 7d3d
000003f0: f019 fa3c 6286 90bd bbfc e1bd cb69 1a3d
0.0056397594 0.023591729 -0.022292547 -0.006233574 -0.0668308 0.043394096 -0.004425782 0.18327263
0.010933674 -0.010688915 -0.0211765 -0.020185448 -0.0950399 -0.13567287 -0.07547142 0.047197673
0.13894396 0.009389017 -0.034550417 0.18522474 0.104411505 0.017678738 -0.0596595 0.122489855
0.243666 -0.06821179 0.15470548 -0.08077846 -0.08699849 -0.027011145 -0.013914823 0.16669686
-0.10641973 -0.007292869 -0.035503462 -0.16688976 -0.08709228 0.07168988 0.022173075 0.17925926
0.27154675 -0.12733638 0.12963337 0.04016717 -0.058260612 -0.087010674 0.06840656 0.17355634
-0.008157538 -0.04758565 0.15074894 0.18916366 0.09085149 -0.057237566 0.14678636 0.10006539
0.24988753 -0.14573207 0.03483657 0.118627146 0.026529511 0.05160219 0.01851117 0.021116326
0.070264734 0.021799443 -0.016522594 0.08671581 0.3530842 -0.147483 -0.053833026 0.16301997
-0.01175578 0.09327043 0.09628977 0.14946064 0.16605374 -0.12864685 0.09833198 0.10258078
-0.11042962 0.058344297 0.11957176 -0.018751487 -0.044806194 -0.030106034 -0.04723072 -0.12701634
0.020891737 -0.060278084 0.04760513 0.13032812 0.1749119 0.004279741 -0.13568598 0.025174066
0.18721542 0.031449296 -0.062494736 0.037721403 0.27301753 -0.03976327 0.073753074 0.039684042
-0.22697224 0.028813748 -0.15376736 0.04743257 -0.019670412 -0.003913106 -0.011193472 0.18671468
-0.1482827 0.057532135 0.033283144 0.081379116 -0.0010696817 0.0035941505 -0.03342713 -0.085588865
0.11264105 -0.024118057 0.014731653 0.23525941 -0.24055344 0.0016018363 -0.17424764 -0.079016574
-0.0066318186 -0.22964287 -0.05073016 0.20498148 -0.20621389 0.07442018 0.0038006466 0.058414973
-0.05875418 -0.04410261 0.013489372 0.21330194 0.22535676 -0.107345305 0.18655379 0.2652627
-0.09975445 -0.09112184 0.08967611 0.023960898 -0.07715441 -0.023024512 -0.06046716 0.007830304
-0.034333676 0.049686413 0.1417442 -0.07393866 0.094921045 -0.12422984 0.016300518 0.06012279
-0.035103146 -0.08481977 -0.11708296 0.04783345 -0.06872524 0.029898409 -0.11243902 0.1877952
-0.09056988 -0.08355352 0.12637225 0.027171014 0.08691061 0.0147194965 -0.07963144 0.20377484
0.11531092 -0.06973227 0.063025035 -0.15894246 -0.0711171 -0.0007612871 0.047542054 0.17964208
0.069530174 0.012580284 -0.013508004 -0.022988632 -0.087734446 -0.0023628324 0.048677236 0.12435743
-0.064843394 0.030083233 -0.094911575 -0.21403368 -0.040171012 0.01626045 -0.019551165 0.071848065
0.05406395 0.034071825 -0.06111791 -0.094657734 0.099559456 0.046257887 0.0029468036 0.038475376
0.45823914 -0.1662539 0.063809104 0.28645882 0.077749595 -0.051055297 0.0035523141 0.025846697
-0.12724234 -0.031116571 0.0955846 -0.048116516 0.082890816 0.115962565 0.02780631 -0.13340232
-0.10842357 0.06449345 -0.07785567 0.070349656 -0.05837827 -0.033895586 0.012601449 0.2431597
0.004455796 0.12376104 -0.008035696 -0.18410142 0.05938379 -0.113605656 -0.03214808 0.06830372
0.023731776 0.09398555 -0.01787995 -0.27334198 0.067201085 -0.108184494 0.1074271 -0.03330019
-0.0046486016 -0.04257673 0.0018833398 0.06200377 0.030529946 -0.070568815 -0.11034533 0.03769855

l1.weight_hh_l0 f4 [285, 95]
00000000: a120 b4bd cc33 863c 9b48 8fbc 769f 4bbc
00000010: caae e53d 7d45 97bd 26cd 89bb 7825 bfbd
00000020: 3a64 5bbc 6a3a 74bd f2c1 c33d f682 bdbd
00000030: 501b b2bd 0641 303d 2824 ea3c 7a85 99bd
00000040: 2b8b d2bc 915a 113e a01a 91bd b333 fc3c
00000050: 7ae2 a0bd 8198 dfbc 9377 0cbd 9e3b 173e
00000060: 342c 003e 00a1 67bd eada 61bc 496a 403c
00000070: daa8 febc 471c bebd f753 abbd 6acc 403d
00000080: 03f9 01be 3da0 fabd 5920 4a3c 5e44 43bb
00000090: 722b 273d ecd1 8d3c 92c1 9ebc 6de2 c33c
000000a0: cc7e 57bd fde2 a43b 48da ab3d 4a49 9abd
000000b0: 0192 c2bc afd6 01be 63cf ddbc d064 533d
000000c0: 9eee fc3d 02e1 90bd 22d2 503c 8772 7a3d
000000d0: 41c4 8c3d c5db a53d ff8d 5ebd ebf7 59bd
000000e0: a5ac b738 5204 81bd cb3e 753d e73b a3bb
000000f0: 351c 3d3d 2513 b23d 876c c93d edb1 09be
00000100: 0d3c bcbd 74b6 11bd 74da cdbd ddf8 bf3d
00000110: 0bd7 473c 0ccd c1bd f5b9 ffbc 19cc f4bc
00000120: d06c 483d 06bc 09be d596 61bd f9c2 9cbd
00000130: 65ab c93d d774 8b3d deea 1dbd 0f3f 043d
00000140: ce52 a73d b40c 4dbc c5c0 0bbd 7bc3 633c
00000150: 8f17 81bc d3b5 6d3d 2040 8abd ad1c 393d
00000160: 88c6 c23c acef b7bd 2106 773d a206 ab3d
00000170: d454 dfbc afc0 a7bd af1b fe3d 9c09 10be
00000180: a6cc 52bb 964f 713d e5d1 b53c 75b8 d2bd
00000190: 3752 29bd 0379 6b3d e91c 423d 8dbf b0bd
000001a0: 1318 06bd d0d4 ddbd de97 6bbd 5d21 44bd
000001b0: 90a9 c43d 7717 203b 34e6 373d 7ed4 a93d
000001c0: ffc7 6b3d 4c95 c6bd 0723 be3c b4cb 193d
000001d0: 1d18 c83d e789 eabd a31a cf3d 0b8a b53d
000001e0: 78a4 09be 9594 68bd d122 de3d 199a a5bc
000001f0: 9543 97bc 0ce1 483a 3450 423b 9c2a da3d
00000200: d338 803d 70be 2e3e de4d 1dbd d3ed b73d
00000210: ed0b eebd 176d 8fbd 2fae 773d f815 9ebd
00000220: b003 a73d 4283 3f3d 79fd ad3d fc4a 4e3d
00000230: 9eed b6bd 56d1 093c d542 c83b 6c1c c43d
00000240: 5c86 0c3d 4d33 bcbc 9f80 9abb 0813 a23d
00000250: 96f9 9cbd 3dc2 a9bd 9c5f 423d 5c39 213c
00000260: c165 39bd eccd 0bbd 32e6 a2bd c4ca cebd
00000270: ee4a 843d ab51 7dbd 2a1f 993c 87f0 eebd
00000280: a407 cbbc a00c 75bd 69bb 873d 86ee 2a3d
00000290: 7cc6 0a3d 902c 9b3d 3068 79bd 267e 30bd
000002a0: d732 18be aeb8 e3bb ff54 b03d bad2 0e3c
000002b0: e22d 0fbc 79f9 c9bd 9603 943d 64bc 2c3d
000002c0: 3c98 03be 9d59 cabd 1ff2 b53d d9fe d03b
000002d0: b079 61bc 618f 123d 894e 04bd 0253 77bd
000002e0: 3205 0cbe 6ee3 073d 86f1 be3b 0889 56bd
000002f0: 4308 32bc 1e5f 9d3c 3ec9 53bd 545f dabd
00000300: 66e3 8c3d fa3a 2a3e 7cf1 743b 881e 28bd
00000310: 28ac 5d3d 8303 243d 05a8 aa3c b193 a5bd
00000320: 00d2 c7bc aeb2 8e3d db2a 2cbc b42f 113e
00000330: 55a1 94bd 2b88 afbd 1841 253d 0351 d0ba
00000340: 8163 853d 321f 543d b01d e8bd 8231 9e3c
00000350: c4d5 523d 5a24 bb3d 70b0 723b eda5 2a3e
00000360: ad05 783d cc31 193c 0491 c4bd 10f0 363e
00000370: ccbf 2c3c e474 263e f878 0ebe 0c1c 083e
00000380: cd7b b4bd c5f7 f23d 6c57 8e3c 5649 d4bd
00000390: ac0d 05be f343 5dbd f13b b9bd 3855 443e
000003a0: 4941 aabd 11a8 d8bd cca4 9e3d a12f ce3d
000003b0: 95ab fe3c aa53 12bd d67f 01be 3376 d5bc
000003c0: b004 d63d 2371 ccbd cbab 543d 8cc9 f43d
000003d0: b9fc 253e 7e4b eb3d ae1c 10bd d565 10be
000003e0: e03b bebd 5c56 4e3c 85f1 4c3c d1a2 1a3e
000003f0: 1a2c 61bb 2db0 7c3d 558c ad3d f427 adbd
-0.08795286 0.01638212 -0.017490676 -0.012428155 0.11214979 -0.07386301 -0.004205364 -0.093333185
-0.013390595 -0.05962602 0.095584765 -0.092534944 -0.08696616 0.04303076 0.028581694 -0.07496162
-0.025701126 0.14194705 -0.070851564 0.03078637 -0.07855697 -0.0272944 -0.034293722 0.14768836
0.12516862 -0.056550026 -0.013785103 0.01174409 -0.031086374 -0.09282737 -0.083656244 0.047069944
-0.12692647 -0.12237594 0.012336814 -0.0029795389 0.040812917 0.017312013 -0.01937941 0.02391168
-0.052611157 0.005031942 0.08391243 -0.0753351 -0.02375126 -0.12679552 -0.027076429 0.051609814
0.123502 -0.07074167 0.012745412 0.061144378 0.0687337 0.08098558 -0.054334637 -0.05321495
8.7582775e-05 -0.06299652 0.059874337 -0.004981506 0.04616948 0.08695058 0.09835153 -0.1344678
-0.09191141 -0.03557439 -0.10051432 0.09373639 0.012197266 -0.09462938 -0.0312166 -0.029882478
0.048931897 -0.13450631 -0.055075485 -0.076543756 0.09847144 0.06809395 -0.038554065 0.0322867
0.081700906 -0.012515236 -0.034119386 0.013901587 -0.015758304 0.05803473 -0.06750512 0.045193363
0.023776308 -0.08981261 0.06030858 0.083508745 -0.027262129 -0.08191048 0.12407624 -0.14066166
-0.0032165437 0.05891379 0.022194812 -0.10289089 -0.04133817 0.057488453 0.047390852 -0.086302854
-0.032737803 -0.108316064 -0.05751788 -0.04788338 0.09602654 0.0024428049 0.044897273 0.08292483
0.057563778 -0.09696445 0.023210062 0.037547782 0.09770224 -0.11452084 0.101125024 0.0886422
-0.13441646 -0.056782324 0.108464845 -0.020215081 -0.018464843 0.0007662929 0.0029649856 0.10652658
0.06260838 0.17064834 -0.038404338 0.08980908 -0.116233684 -0.07003229 0.06046885 -0.07719034
0.08155 0.046756037 0.08495612 0.05036448 -0.08932041 0.008411726 0.0061114826 0.095757335
0.034307823 -0.02297368 -0.00471504 0.07913786 -0.07664792 -0.08289001 0.04745446 0.009840336
-0.045263056 -0.03413193 -0.079540625 -0.10097268 0.06459604 -0.061845463 0.018691618 -0.11666971
-0.024783917 -0.059826493 0.066275425 0.04173138 0.033880696 0.07576859 -0.060890377 -0.043089055
-0.14863144 -0.006949506 0.08609962 0.008717233 -0.008738967 -0.09862036 0.072272465 0.04217185
-0.12851042 -0.098803736 0.088840716 0.0063780365 -0.013761923 0.035781268 -0.03230146 -0.060381897
-0.13673857 0.03317588 0.0058271317 -0.052376777 -0.010866228 0.019210394 -0.05170559 -0.10662714
0.0687931 0.1662406 0.0037375381 -0.041044742 0.05411926 0.04004241 0.020832071 -0.080848105
-0.024392128 0.06967674 -0.010508264 0.14178354 -0.07257334 -0.08570894 0.04034528 -0.0015893284
0.065131195 0.051787563 -0.113337874 0.019310717 0.051473394 0.09137793 0.0037031434 0.16664858
0.060552288 0.009350251 -0.09597972 0.17865014 0.010543775 0.16255528 -0.13913333 0.13291949
-0.088126756 0.118636645 0.01737567 -0.1036555 -0.12993497 -0.05401988 -0.09044636 0.19173133
-0.083132334 -0.10578931 0.07746276 0.10067678 0.031087676 -0.03572432 -0.12646422 -0.026057338
0.10450113 -0.099825166 0.051921647 0.119525045 0.16209687 0.11489008 -0.0351836 -0.14101346
-0.09288764 0.012593832 0.012508755 0.15101172 -0.0034358562 0.06169145 0.08474032 -0.08454886

l1.bias_ih_l0 f4 [285]
00000000: 0269 05bc 432d 813c 626e 2a3d 1374 99bb
00000010: 7b74 923d 3f1d 233d 3643 f93d 6e68 6dbd
00000020: 56a9 a93c e50b 153d ea4d 1e3d 5048 20bc
00000030: d050 f5bc 1db3 9e3b 0872 0c3d b94b 8e3d
00000040: 1734 62bb c479 a43c 27c2 83bd d3ab 36bd
00000050: d580 5c3d 42fa 6b3d 0249 9c3d 7848 d9bd
00000060: cb96 b0bd 032e 1b3d 04ac bbbd 300e 99bd
00000070: eacb 2ebd b50f 91bc 75b6 773d f54f 873b
00000080: d3fe 8fbd 166d 2e3d 70e1 dabd 0357 e6bc
00000090: 3d1f 0a3e f135 0dbe 1892 243d f85b 9dbd
000000a0: 2432 c1bb 2917 95bc f646 b13d 34d3 313c
000000b0: c92c 79bb 78c0 7f3d 34e0 0a3c 6293 c83d
000000c0: 5fab 17bd 389c 73bd 9c40 a23d ac93 7dbc
000000d0: 9a24 4b3d ce11 82bd c66a ac3c ea6b e7bc
000000e0: 1dc6 e13b 9872 ae3d f06f afbb 1cda d63c
000000f0: 7347 d13d 05a8 ffbd e8bb 2ebd 044f 30bb
00000100: 37c6 95bd f590 213e 4136 2dbd 44e8 cd3d
00000110: 230d 953d 983e 82bb 863e 3fbd 3897 edbc
00000120: f4a2 b23d a9ae 3f3d 3089 90bc c6d3 093e
00000130: 1a00 99bd ede0 88bd 3526 b6bd 8cfe f1bd
00000140: aec6 683d 48f5 f33b 4264 12bc a0c4 1ebd
00000150: 8fe8 f33b 29b2 abbc 9809 e23c eccd c23d
00000160: 4e96 9dbd c541 393b 8ae8 39bc 11a3 963c
00000170: 0178 90bc e48e d33d f756 733d 1159 bebb
00000180: c5bd a0bd c167 4ebd c64f 80be d545 15be
00000190: cefb d53c 4910 f4bc ad07 0cbd 875b c23d
000001a0: 47e8 44be a94a 2dbe 7c8d aabd 02e8 98bc
000001b0: 1766 343d b897 a4be 7c89 59bd 3f82 87bd
000001c0: fc9e b1be 2b85 84bd e155 80be 18f7 b7bd
000001d0: f59c 9cbe 7fa1 debd 5f78 9dbc b4bc 1abe
000001e0: 797d 39be e931 a5be c5e3 64bd 102e 1ebe
000001f0: 2b21 e3bd 9549 1bbe 6e23 adbe ab2c 0bbe
00000200: daae 03be e57a 92be 7125 59bc bc92 033e
00000210: 6086 7ebd dbc7 ca3d a8e4 a8be d531 c13b
00000220: 6961 5cbe f9ce 803c 3215 4ebe d1b3 8dbd
00000230: b017 b3bd 67c7 b43d c0c7 f83d 3adc a5be
00000240: ed24 9ebd 612a 87bc 83ab 25be 7c8c bdbe
00000250: 4906 98be e301 5f3d 5077 2bbe 640a b7bd
00000260: 4d91 c3bc 5ef1 d33d 95d2 e63d 399e 09be
00000270: c059 88bd 91fb 163d c48a 72bd 791e 89bd
00000280: 9486 6dbc 5ff4 0ebe 5310 79be c2d1 bfbd
00000290: 4a2b 0c3e b46d 543d 6070 adbe efe5 b3bd
000002a0: 9c17 0ebe 41b8 81be ef9f b43d f6d1 06be
000002b0: 59a2 11be 9884 43be 369a 65be c127 13be
000002c0: 92ea 8bbd 90ed a53c 66cb e3bd 070b 4f3c
000002d0: c01a 59be fae5 7bbc 072a 403d 06d5 0fbd
000002e0: 00bb 5dbe 09cd 403c a8b3 84bd c4fa 2fbd
000002f0: a74c 07bd 75c1 bdb9 68f8 6dbd 6f2f 09bd
00000300: 5bf7 92bd 8b8a 563c 7704 c8bc 3009 4e3c
00000310: 23d9 9abc ad3a 6dbd 0b66 80bd e005 db3d
00000320: 4196 043d 2288 debd 0100 d53d e70c 27bd
00000330: 065b 27bd 06c6 b13c 9f59 a63d 3048 243d
00000340: 2f20 a2bd 50f2 a53d 80bb bd3d f398 e53c
00000350: 8898 dc3d fd4c 433c 2891 123d 2afc 9a3c
00000360: bfcf b4bd fdad f2b9 4447 803c 4a8a 21bd
00000370: e791 18bc 754c cebd 6c07 27bd 90c0 56bd
00000380: bab9 253d d8c4 90bd 67c5 d03d 5e55 8d3d
00000390: bb20 5e3d 2799 3e3d 3c8a 8a3d ce58 0e3b
000003a0: 2e84 64bd 24a7 38bd 87d8 68bc 3fe8 9fbd
000003b0: 649b 653d 49ec f2bc 5596 d13a 115f fd3d
000003c0: 6757 f73c 735c 91bd 2b82 ab3d 426f cbba
000003d0: 5e1b 39bd 64a7 98bd d851 f1bc f909 babc
000003e0: fbe1 7bbb 6f7e d73d a57a d8bd 23bd ccbd
000003f0: 1926 c03c c3c9 95bd 8055 db3c 311e 043e
-0.008142712 0.015768653 0.041609176 -0.0046830266 0.07151123 0.039822813 0.121710226 -0.05796092
0.020710628 0.036388297 0.038648523 -0.009782866 -0.029945761 0.0048431293 0.034288436 0.06948037
-0.0034515911 0.020077594 -0.06433516 -0.044597458 0.0538338 0.05761171 0.07631113 -0.106095254
-0.086225115 0.037885677 -0.09163669 -0.07473409 -0.042674936 -0.017707685 0.06047674 0.0041294047
-0.07031026 0.0425845 -0.1068753 -0.028117662 0.13488479 -0.13790108 0.04017839 -0.07683557
-0.00589587 -0.01819952 0.08656113 0.010853577 -0.0038021079 0.062439412 0.008476306 0.09793736
-0.037028667 -0.059475154 0.079224795 -0.015477102 0.049595453 -0.06351052 0.021047007 -0.0282497
0.006890072 0.08517951 -0.00535392 0.02622705 0.10218706 -0.12483219 -0.04265967 -0.0026902566
-0.07313197 0.15777953 -0.04228807 0.10054067 0.07277896 -0.003974747 -0.046690486 -0.02900277
0.08722487 0.04679743 -0.017643541 0.13459691 -0.074707225 -0.06683526 -0.08894006 -0.11816129
0.0568301 0.0074450113 -0.008935036 -0.038761735 0.0074434946 -0.020958977 0.027592465 0.09511933
-0.07694684 0.0028267961 -0.011346946 0.018388303 -0.017635347 0.103299886 0.059409108 -0.0058089574
-0.07848696 -0.050391916 -0.25060862 -0.1457742 0.026121046 -0.029792922 -0.034187008 0.09490114
-0.19229232 -0.16923012 -0.08327767 -0.018665317 0.044042673 -0.32147002 -0.05310963 -0.06616639
-0.34691608 -0.06470712 -0.2506552 -0.08982676 -0.305885 -0.10870647 -0.019222436 -0.15111047
-0.1811427 -0.3226464 -0.05588128 -0.15447259 -0.11090311 -0.15164788 -0.33816093 -0.13591258
-0.1285967 -0.28609386 -0.013253556 0.12848943 -0.06213987 0.09901401 -0.3298695 0.005895833
-0.21521534 0.015723692 -0.20125273 -0.06919063 -0.087447524 0.088270955 0.12147474 -0.32394582
-0.07721887 -0.0164997 -0.16178708 -0.37021244 -0.29692295 0.05444516 -0.16744733 -0.08937529
-0.023872996 0.103487715 0.11270634 -0.13439263 -0.066577435 0.036861006 -0.05921437 -0.06695265
-0.014497418 -0.13960408 -0.24322633 -0.0936618 0.13688388 0.051862434 -0.33874798 -0.08784091
-0.13876194 -0.25335887 0.088195674 -0.13166031 -0.14222087 -0.19093549 -0.22422108 -0.14370634
-0.0683185 0.02025488 -0.111227795 0.0126369065 -0.2120161 -0.015374655 0.04691508 -0.035115264
-0.21653366 0.011767634 -0.06479579 -0.042963758 -0.033032086 -0.00036193026 -0.058098227 -0.0334925
-0.071760856 0.013094555 -0.024416192 0.012575433 -0.018902367 -0.057917286 -0.06269463 0.1069448
0.032369856 -0.10865809 0.10400391 -0.04078379 -0.04085829 0.02170087 0.081225626 0.040107906
-0.07916295 0.08102858 0.092642784 0.028027033 0.107712805 0.011920211 0.035782963 0.01891907
-0.08828687 -0.00046287468 0.015658982 -0.039438523 -0.00931213 -0.10073177 -0.040778562 -0.052429736
0.040460326 -0.07068795 0.101939015 0.06901048 0.054230433 0.046532776 0.06764647 0.0021720412
-0.05579012 -0.045081273 -0.01421178 -0.07807969 0.056056395 -0.029653685 0.0015990237 0.12371648
0.030193044 -0.070977114 0.08374437 -0.0015520828 -0.045192115 -0.07453802 -0.029457971 -0.022709833
-0.0038434255 0.10522162 -0.105702676 -0.099970125 0.023455666 -0.073138736 0.026774168 0.12902142

l1.bias_hh_l0 f4 [285]
00000000: b819 d53d ab53 813c afd7 bfbd b6d1 0ebd
00000010: ccd9 afbd dfff f43b 06bc e43c a599 e9bc
00000020: 4906 d63c 3134 813c 538e 70bc a6bc 323c
00000030: 53d7 5fbd d3c0 bf3d d56b 5cbd 9339 713d
00000040: 32cc db3d 4074 dcbc c354 d1bd 49df e13c
00000050: 0684 833d d66a 9c3d 14b4 86bd aa14 3dbc
00000060: 50a5 eebd 3fa4 593d 1ceb 143c 4702 aa3d
00000070: 25ae 94bd 26bf f5bc ef9c cebc ca2d 27bc
00000080: 040e 13bb 7957 a43c 821d 903c feaf b63d
00000090: ed66 093e 273d a9bd 4e27 0e3e f15b 86bc
000000a0: e6f6 f33c 1141 e6bd 461a ca3c 9763 7e3d
000000b0: d3ef b6bd 88f1 00bd b47f 613d 39bb 92bd
000000c0: 627c c73c c479 89bd efe5 4f3d 10b4 063d
000000d0: 2a07 d03d 4909 6a3c 3c5a 8f3d 9be8 3a3d
000000e0: 2dc4 66bc 5907 bfbd 69b3 753d abc2 ba3d
000000f0: 036e 683d 5460 14be 3189 913c 5981 33bd
00000100: ec99 4abd 6030 5d3c 9ab6 463d fb56 313e
00000110: d99a ae3d a97f c03d 58e8 c23d 48cd dcbd
00000120: 2fec 623d 9bc9 14bd 5713 98bd 0b14 823d
00000130: 3c8e d4bd 7875 b0bd aa00 cabd 2122 21bd
00000140: 3887 f53d cd07 87bd e1fa dfbd 236b c3bd
00000150: 8730 88bd 286f 253d 0efc 1e3d 6cd9 1d3e
00000160: d5e7 f93b a4da e8ba 62af 013e 1439 4a3e
00000170: e498 e93d 255c f53c 9d2f d5bb 807a a23c
00000180: 95f2 fbbd 2c5e 2abd 540d 66be bc77 0cbe
00000190: 1303 a73d e829 f1bc 6c3b 0ebd 8ccf 3c3d
000001a0: e510 65be 02da 51be 249e ac3c f0ba 2ebc
000001b0: 1053 a6bd 26dc 84be 494b e53b 7202 f6bc
000001c0: 0b8e b0be 49cf 43bd 388b 27be 2427 1abe
000001d0: cb7b a5be cf03 29bd 8a5c d43c 5942 8abd
000001e0: e864 4fbe fc9c 34be 97d1 9ebd 7695 8fbe
000001f0: 83c4 61be 7f66 b6bd 72b4 86be f419 02be
00000200: 6ce5 81bd 58a5 72be 3335 30be 45a5 03bd
00000210: cc90 053d 295a 003b 102a a4be 4df9 0f3c
00000220: e793 58be f199 c2bd efa4 75be 6b23 f9bd
00000230: 7ae1 54bd 631a a53d a436 f93c 2dc7 5cbe
00000240: 6c73 2fbc e189 20bd d38e 20be c24c abbe
00000250: 4835 38be 7c27 f0bc 301c 86be 0b1a 15be
00000260: d451 a4bd c55c 863d 41ad 76bd 188f 13be
00000270: 21ac 9cbd b30f 59bd 7464 07bd 8410 4b3c
00000280: bc69 18bd 87f3 c5bd 1901 6cbe c729 7a3d
00000290: 7c9d f23d 3493 94bd 3a85 9ebe 5370 d33d
000002a0: 2a35 27be 1adc 3cbe 164c 3e3d be97 dabc
000002b0: 67e4 63bd 1cb3 80be ff97 30be 5af2 32be
000002c0: f71b 7dbe 49fd b9bc 0af8 0fbd 8887 663d
000002d0: 4e42 80be 6b8b d7bd 4a93 ad3d 2bf0 16be
000002e0: 3be4 42be 0984 03bd d48b 8fbd d9d1 203a
000002f0: 324b b53b 9bdb 6a3c 7c4b 02bd f254 febc
00000300: 52b2 34bd 9bcd 06bc ff6b 153c ac04 e8bc
00000310: a490 fcbd a450 27bd 5136 99bd a5a3 3fbd
00000320: ee22 833d 8dd0 adbd 0335 fe3c 0065 543c
00000330: 1020 34bd 9193 be3d ed2f e13d 01d2 79bd
00000340: f635 dabd ef14 aebd 1d6b 223b 7a51 ad3c
00000350: 6e70 983d 6ced 1e3d 43f0 443d 03c4 e23c
00000360: 1d2e 993c 5210 3abd ee21 d13d d176 8c3d
00000370: d795 ad3c f549 e5bd a187 143d 980a bbbc
00000380: d74c 4c3d 352d 72bd f511 b33d 0837 9b3d
00000390: 5fcf 6cbd 7fdf 7cbd dbfa 35bd e696 58bc
000003a0: 6990 a9bb 933b d03b 79de 623c b3f8 e4bd
000003b0: 62ac cdbc 2726 f03c 2a88 9fbc 4e94 b53d
000003c0: b3b0 93bd 6dd3 203b 975f a03d 143a 9f3d
000003d0: b3fe 42bd ecf6 883c eac4 4e3d fd51 9f3d
000003e0: 450e 35bd 2543 6c3d 881e 103d 1fed 943d
000003f0: f9a8 893d 357a 8dbd e89d c33d bffc ef3d
0.10405296 0.015786966 -0.0936731 -0.034867965 -0.08586463 0.0074767913 0.027921688 -0.028515646
0.026126044 0.015771957 -0.01468237 0.010909235 -0.05464871 0.0936295 -0.053813774 0.058892798
0.107323065 -0.026910901 -0.10221245 0.027572291 0.06421666 0.07637565 -0.06577316 -0.011540571
-0.116526246 0.053135153 0.009089258 0.083012156 -0.07259778 -0.029998373 -0.025221316 -0.010203788
-0.0022438774 0.020061241 0.017592195 0.089202866 0.1341817 -0.08263617 0.13882181 -0.016401263
0.029780816 -0.11242879 0.024670731 0.062106695 -0.089324616 -0.031480342 0.055053428 -0.07164616
0.024351303 -0.06712678 0.05075639 0.032886565 0.101576164 0.01428444 0.06999633 0.045631986
-0.014084858 -0.09327573 0.059985552 0.09119161 0.05674554 -0.14489871 0.017765613 -0.043824527
-0.049463198 0.013500303 0.048513986 0.17318337 0.085256286 0.09399349 0.09516972 -0.10781342
0.055401023 -0.03632508 -0.07425564 0.06351479 -0.103786916 -0.086161554 -0.09863408 -0.03933919
0.119886816 -0.06593285 -0.10936523 -0.09541919 -0.06649881 0.04038921 0.038814597 0.15414971
0.0076265135 -0.0017765355 0.1266456 0.19748336 0.11406115 0.029951164 -0.00650592 0.019833803
-0.12302128 -0.041593716 -0.22466022 -0.1371755 0.08154883 -0.029438928 -0.034724638 0.04609637
-0.22369726 -0.2049332 0.021071501 -0.010664687 -0.08121312 -0.2594921 0.0069975 -0.030030463
-0.3448337 -0.047805104 -0.16361701 -0.15053993 -0.3232101 -0.041263398 0.025923032 -0.06750936
-0.20253336 -0.1763801 -0.0775482 -0.28043717 -0.2204762 -0.08906268 -0.26309544 -0.12705213
-0.06342587 -0.23695886 -0.17207794 -0.032140035 0.032608792 0.001958499 -0.3206334 0.008787465
-0.2115017 -0.09502018 -0.23988698 -0.121649586 -0.051972844 0.080616735 0.030421562 -0.21560355
-0.010708671 -0.03919399 -0.15679483 -0.33457 -0.17989075 -0.029315703 -0.2619338 -0.14560716
-0.0802342 0.06560663 -0.06022382 -0.14410055 -0.076500185 -0.052993488 -0.033054784 0.012394074
-0.03721021 -0.0966559 -0.23047294 0.061075 0.11846444 -0.07254639 -0.3096102 0.103241585
-0.16328874 -0.18443337 0.04645928 -0.026683684 -0.055637743 -0.2513665 -0.17245482 -0.17475262
-0.24717699 -0.022703784 -0.035148658 0.056281596 -0.25050586 -0.10524639 0.08475359 -0.14740054
-0.19032376 -0.03210834 -0.07009092 0.00061347854 0.0055326456 0.014334585 -0.03181027 -0.031046364
-0.044115372 -0.008227731 0.009119987 -0.02832254 -0.123322755 -0.04084839 -0.07481063 -0.046786923
0.06403147 -0.084870435 0.031031137 0.012963533 -0.04397589 0.0930549 0.10995469 -0.06099129
-0.106548235 -0.085000865 0.0024783083 0.021157015 0.07443319 0.038800642 0.048080694 0.027681356
0.018698746 -0.04542572 0.1021155 0.068586 0.021189613 -0.11195747 0.03626216 -0.0228322
0.049877968 -0.059125144 0.087436594 0.07578856 -0.057814952 -0.06173658 -0.044428688 -0.013219571
-0.0051746857 0.006354758 0.013846987 -0.11180248 -0.025106613 0.029315067 -0.019474108 0.088661775
-0.07211437 0.0024540082 0.07830732 0.077747494 -0.04760618 0.016719304 0.05048076 0.0777931
-0.04420306 0.05768122 0.035185367 0.0727179 0.06721682 -0.06908075 0.095516026 0.11718129

l2.weight f4 [1, 95]
00000000: 0c72 3ebd eacb 01be 4434 813d 1030 743e
00000010: 0765 3a3e b8bf bebd 68c4 87bd 0fd2 0f3d
00000020: 936b 0cbd dff2 07be 9e8a d23d f8d1 183d
00000030: f12d 3fbd a09f c03d b79f 29be e5fa b33b
00000040: 7d22 d7bb d3e3 023e 14c9 8a3d f0c3 abbd
00000050: 7a67 44bd 4086 00be e896 e7bc b338 703e
00000060: e43c 483e eef6 123e 8056 4f3e 5171 f53d
00000070: f28d 88be 4eaf 3e3e 42c5 54be 7f04 223e
00000080: 2c78 4fbe a750 b73d 2cc3 69be cf8e e93d
00000090: f6df 37bd 708e aabd e613 8db8 f72a 4fbe
000000a0: 46f0 8bbd 737f 913e fdcf 023d 4237 67be
000000b0: 6693 333e acd0 073e 3b17 0bbc 2fde 14bd
000000c0: 0e2f 8bbe e522 6bbc 093d b4bc fdb2 08be
000000d0: e6b0 dd3d b27b 533e 3dea 6b3d 8fd8 573e
000000e0: dd15 8cbd 090e 7ebe 7d83 ecbd e755 50ba
000000f0: 0d69 243e 7b39 b83d 995a 15bc ee2f a4bd
00000100: d0e8 f5bc 9fcf 833d 63d4 25be f766 b7bd
00000110: d61d be3d 42eb 1d3d f834 3a3d 63c6 443e
00000120: 340c 513c 8e2b 1b3e a726 cc3d e44e 143c
00000130: b53f 2a3e 347d 71bd 5c84 773e 84e6 7abe
00000140: 6052 b43d fe21 2a3d e741 81bd bb18 c8bd
00000150: c7b3 8cbd a9f5 a63d 7279 08be 7653 89bd
00000160: 62ec edbd 3039 563e 4209 14bd 6f89 8bbd
00000170: a006 ea3d 10e9 d2bd a566 e33d
-0.046495482 -0.12675443 0.06308797 0.2384646 0.18202601 -0.09313911 -0.066292584 0.035112437
-0.03428228 -0.13276242 0.102803454 0.037309617 -0.046674673 0.09405446 -0.16564833 0.0054925554
-0.0065653906 0.1278222 0.06776634 -0.083869815 -0.047950245 -0.12551212 -0.0282702 0.23459129
0.19554478 0.14352009 0.20247841 0.11984504 -0.26670796 0.18621561 -0.20778373 0.15822028
-0.20260686 0.0895093 -0.22828358 0.11404192 -0.04489132 -0.08327949 -6.72711e-05 -0.20231234
-0.06832938 0.2841755 0.031936634 -0.22579673 0.17536697 0.13263196 -0.008489425 -0.036344703
-0.27184337 -0.014351581 -0.02200176 -0.13349529 0.10824756 0.20652655 0.057596434 0.21078704
-0.068401076 -0.24810041 -0.11548517 -0.0007947371 0.16055699 0.089953385 -0.009115838 -0.08016954
-0.03001824 0.06436085 -0.161943 -0.08955186 0.092830345 0.038554437 0.04546067 0.19216304
0.012759257 0.15153334 0.0996831 0.009052012 0.16625865 -0.058957294 0.24171585 -0.24501997
0.08804774 0.041536324 -0.06311398 -0.09770342 -0.06870227 0.08152325 -0.13327578 -0.06705372
-0.11617352 0.20920253 -0.03614164 -0.06813323 0.11427045 -0.102983594 0.11103562
