models/rnn-Temperature.pt (torch, 117091 bytes, 5 tensors)

l1.weight_ih_l0 f4 [285, 4]
000000 67 52 49 3d c2 41 68 3d 07 56 9e bd ac 67 12 be
       0.04915085 0.056703337 -0.07731252 -0.1429736
000010 23 95 87 bd 71 71 26 3d d5 9a 0e 3e ce b4 40 3e
       -0.066202424 0.04063553 0.13926251 0.18818972
000020 dc 45 96 bc 3d f3 5e bc 86 50 2b bd ef 19 05 3d
       -0.018343858 -0.013607797 -0.04182484 0.032495435
000030 4c 5f e1 bd bc 5e f3 bc 6b 9a ab bc c8 d2 41 3d
       -0.110045046 -0.029708259 -0.020947656 0.047320157
000040 50 6d b1 3d d8 62 e3 3c 11 9b 33 bd bb d5 d8 bd
       0.08663428 0.027757093 -0.043849055 -0.10587641
000050 b0 e7 a0 3d 85 28 ee 3c a7 66 e6 3c 59 49 4f 3d
       0.07856691 0.029072056 0.02812512 0.05060706
000060 13 d4 c1 3d 23 e8 07 3e 6d 3f 10 3e 6a 75 5c be
       0.09464278 0.13272147 0.14086695 -0.21529165
000070 be 16 4d be 13 e4 58 3d 6b e8 a0 bd e0 6f 6a 3e
       -0.20028207 0.052951884 -0.0785683 0.2289424
000080 f1 c5 82 bc 23 dc b3 3c 0a 73 23 bd 0e 5d 12 be
       -0.015963526 0.021955555 -0.03990463 -0.1429331
000090 a7 fb b6 bd a5 92 13 3e 33 f6 b3 3b 69 9c 60 3d
       -0.089347176 0.14411409 0.0054919957 0.054836664
0000a0 c1 ef 1c 3d 25 5e e6 bd 13 0c ad 3c 30 6b f2 bd
       0.038314585 -0.112484254 0.021123921 -0.11836851
0000b0 e9 d8 3b be eb 1a ff 3b 62 0c a6 3d ef 1f 41 3e
       -0.18344463 0.0077851913 0.081078306 0.18859838
0000c0 73 87 e9 3c 92 35 85 3c 31 a1 e3 3c 7f 7e 80 3c
       0.02850697 0.016260896 0.027786823 0.015685318
0000d0 35 45 b8 3d 77 dd 2e 3d a0 c1 42 3b 97 b2 14 be
       0.08997575 0.042691674 0.002971746 -0.14521252
0000e0 57 f7 d4 3d 52 d5 d2 bd 18 28 4e bd f1 61 1a be
       0.10398739 -0.10294594 -0.050331205 -0.15076424
0000f0 3c 6c 36 3d d3 36 5d 3c 24 02 13 bc c1 b3 80 3d
       0.044536814 0.013501841 -0.008972678 0.06284285
000100 b0 d8 04 bd 2e 5e 87 bd c3 3b 35 3c 5f 32 1f 3e
       -0.03243321 -0.0660976 0.011061612 0.15546559
000110 84 cd e5 3d 2d 05 c2 3d 54 c1 f7 bc 87 4b a2 bd
       0.112208396 0.094736435 -0.030243553 -0.07924562
000120 4c 40 05 bd 0b 96 b3 3d b6 06 51 3d e2 c1 3e 3e
       -0.03253202 0.08768853 0.05103179 0.18628648
000130 1f aa 0b 3e 03 17 c6 bd c1 66 32 3d 12 67 37 be
       0.13639115 -0.09672358 0.043555025 -0.17910412
000140 01 8f 96 bc bc 1c d9 3d 06 a1 0f 3e f0 7e 0a be
       -0.018378736 0.10601184 0.1402627 -0.13524985
000150 27 65 e3 3d 3b 3e 01 3b 09 38 3f 3e 26 65 59 bd
       0.11103278 0.001972093 0.1867372 -0.05307498
000160 9a c6 00 bd 66 17 91 bd 78 36 a6 3d 53 67 3e 3e
       -0.0314394 -0.07084541 0.08115858 0.18594103
000170 0c 61 f5 3d a4 18 a4 3c 65 b3 16 be e9 bf 20 be
       0.11981401 0.02003128 -0.14716871 -0.15698208
000180 68 2a db 3d a1 be 58 bc bf da 91 bd 8a f9 09 be
       0.10701448 -0.013229043 -0.07121801 -0.13474098
000190 3c 49 f0 3d 9c 7a c9 3d fb b8 9d 3d ab 53 b9 3c
       0.11732718 0.09837839 0.07701298 0.022622904
0001a0 61 34 1b be d1 ab 4b 3d 6c c4 a1 bd bd dc 08 3c
       -0.151567 0.049724404 -0.078987926 0.008353409
0001b0 b0 ca ab bd ba 56 86 3d f8 07 83 bd 33 79 25 3e
       -0.08388269 0.065595105 -0.06398004 0.16159515
0001c0 a2 15 d4 bd 53 5e 37 3e cc b8 fa 3c 39 99 7e bd
       -0.10355689 0.17907076 0.030605696 -0.062157843
0001d0 ae 6d 91 3b f3 84 29 3d 0c 5f c1 3d 8c 43 a2 3c
       0.0044381237 0.041386556 0.09441957 0.0198076
0001e0 e9 58 4e 3d 77 7c f6 3c ab 45 8f 3d 1c e1 a5 3d
       0.05037776 0.030088646 0.0699571 0.08099577
0001f0 fa 38 b1 bd 78 79 3d bd 49 de 6c 3b e4 eb 44 bd
       -0.086534455 -0.04625842 0.0036143234 -0.048076525
000200 8d 32 d3 bb e0 56 d2 bd 95 12 14 3d 8d 79 2b 3c
       -0.006445235 -0.10270476 0.036150534 0.010465992
000210 c1 84 5c be b7 33 db 3b e3 bb a0 3d 26 28 5a 3e
       -0.21535017 0.0066895145 0.078483365 0.21304378
000220 c7 0c 56 bd 1f 6d eb 3c 79 af 0a 3d a4 83 2e 3e
       -0.05225828 0.028738556 0.03385875 0.17042404
000230 d7 aa 1d 3e 9e 69 47 3d 0a ee e9 3d e7 55 72 bd
       0.15397201 0.04868471 0.114223555 -0.059163954
000240 f2 9a 75 be e7 69 17 bd ae f1 9b bb e8 0c 29 3e
       -0.23984888 -0.03696623 -0.004759035 0.1650883
000250 cd c3 e9 3b fa 5e 96 bd 44 76 95 bd fc 48 12 be
       0.007133937 -0.07342334 -0.07297948 -0.14285654
000260 12 93 82 3d e0 4d 3f 3e 65 7d fc 3d 05 a6 d4 bd
       0.06375708 0.1868205 0.123286046 -0.10383228
000270 a6 82 0f 3e f7 7b 40 bd a8 28 86 3d 43 1a cf bd
       0.14014682 -0.046993222 0.06550723 -0.10112431
000280 57 a2 d3 3d 47 86 6d 3c ef 43 12 3c b5 27 28 be
       0.10333698 0.014497346 0.008927329 -0.16421397
000290 1d ed 12 bd 71 39 fb 3b 8b 62 56 3d 4d 55 f4 3d
       -0.03587066 0.0076667597 0.05234007 0.11930332
0002a0 30 d1 92 bd 3a 90 37 3c 4a 72 1a 3e 10 f7 cd bc
       -0.071688056 0.01120382 0.1508266 -0.025142223
0002b0 21 f4 1c 3e 9c 7b 60 3d 83 b2 a3 bd b8 5f 84 bd
       0.15327503 0.054805383 -0.07993033 -0.064635694
0002c0 66 ee bc 3c 66 54 9f bd 57 03 97 3d 4d b2 08 be
       0.023062896 -0.077797696 0.07373684 -0.13349266
0002d0 d8 89 ee bd 33 1e 2b 3d 47 67 82 bd bd 7b b5 3d
       -0.11647385 0.041776847 -0.06367355 0.08861492
0002e0 e3 d1 3c 3e 17 0d 14 3e ee 80 ab 3d 21 e2 bd bd
       0.1843944 0.14458118 0.08374201 -0.09271646
0002f0 d2 e8 99 bd ee f8 e8 3c e6 07 a1 3b f5 d9 6d 3d
       -0.0751511 0.028439011 0.0049142716 0.05806919
000300 9b f2 83 bd d2 46 35 3d 1e ed e2 bb af 8a 5b bc
       -0.06442758 0.044256993 -0.006925239 -0.013399764
000310 a7 69 f9 bd 26 99 d0 3d 68 90 d7 bd 7f 75 29 3d
       -0.12178355 0.10185461 -0.1052559 0.04137182
000320 2c 04 06 3d 18 7d b9 3d 2d 53 73 bc 46 49 39 bd
       0.032718822 0.09057063 -0.014851374 -0.045235895
000330 31 74 3f 3d 1c ab 9c 3d 84 70 59 3c bf 6f c9 bc
       0.046741668 0.07649824 0.013271455 -0.024589418
000340 49 44 f0 3d e5 64 37 3d 7f b8 0a 3e 43 7a 01 bd
       0.11731774 0.044773955 0.13546942 -0.03161074
000350 87 b0 e2 3c b6 e5 80 bc 2e d5 16 3b 1f 8f 0e bc
       0.027672065 -0.015734535 0.0023015249 -0.008701115
000360 0e c3 5a be 29 64 10 bd 29 dd 06 3e 60 2e f7 3d
       -0.2136347 -0.03525177 0.13170303 0.12069392
000370 21 fa 2d 3d f5 c6 cb 3d f5 34 9a bd 1b b5 de bd
       0.04247487 0.099500574 -0.07529632 -0.10874387
000380 2a b8 89 bd 00 e1 da 3c 88 a8 d6 bd 3a 23 50 bd
       -0.0672458 0.026718616 -0.104813635 -0.050814845
000390 db 62 b6 bd 19 0f 24 3d e9 de 2b bd d6 13 f9 3d
       -0.08905574 0.04005346 -0.04196063 0.121619865
0003a0 c8 db 1e 3e 27 f6 c0 3d bb 44 ed 3d 34 06 55 be
       0.15513527 0.0942195 0.11585375 -0.20803148
0003b0 33 12 7d 3d 80 65 98 ba 4a 09 92 bd 29 77 38 3b
       0.061784934 -0.0011626929 -0.07130678 0.0028147197
0003c0 3f 70 a6 3c ec 4a 49 3d 22 dc a3 bc bd 69 26 3d
       0.020317195 0.049143717 -0.020002428 0.040628184
0003d0 3b 83 53 3d 9b b6 de bd 3b 3a ea 3d ef 10 6a bd
       0.051638823 -0.10874673 0.11436888 -0.057145055
0003e0 7a 38 40 bd 51 de 9b 3b 0c 3b 17 bd bd 27 89 3d
       -0.04692886 0.004756727 -0.036921546 0.066970326
0003f0 ee b3 1f 3e 86 1a 6c bd 92 df 03 bd 1d 42 00 be
       0.15595981 -0.057642482 -0.032195635 -0.1252522

l1.weight_hh_l0 f4 [285, 95]
000000 d7 31 d9 3b e6 83 87 3d d7 e1 41 bd 5c de 49 bd
       0.006628256 0.066169545 -0.04733452 -0.049284324
000010 d1 59 0f 3d fa e9 82 bd a5 0d ae 3d eb 1b 64 bd
       0.034997765 -0.06392284 0.08498696 -0.055690687
000020 69 08 cc 3d 93 b6 d3 bd dd 0c 1b 3d b8 96 88 bd
       0.099625416 -0.10337558 0.037854064 -0.06669372
000030 40 aa 95 bd 58 55 9f 3b 80 5a e0 3d a4 be c5 bd
       -0.07307863 0.0048624687 0.109547615 -0.096555024
000040 e9 58 8a bd a2 30 73 3d 9e 5d a5 3a aa 96 a7 3d
       -0.067552395 0.05937255 0.0012616401 0.08183034
000050 de 94 16 be 9f b4 10 bc ae af c0 bd b1 d1 ae 3d
       -0.14705226 -0.008832126 -0.09408508 0.08536089
000060 4e 2f e3 3c 12 14 df bd 17 1f 50 3d 81 63 a9 3c
       0.027732518 -0.108925 0.0508109 0.02067733
000070 aa 8b 86 bd df d0 7a bd b2 73 92 bc 4c ea b2 3d
       -0.065696076 -0.06123435 -0.017877433 0.08736095
000080 e1 b0 83 bd 58 a6 43 bd 88 db 78 bd 9f f4 db bc
       -0.06430221 -0.04776606 -0.060756236 -0.026850043
000090 05 d4 81 3c 23 23 ea 3b e9 ac 88 bd 77 4e 4e bd
       0.01584817 0.007145302 -0.06673605 -0.0503678
0000a0 25 6e 62 3c 42 03 9c bc 44 1c b7 3d 7d b4 cb bd
       0.013820206 -0.019044522 0.08940938 -0.09946535
0000b0 36 3a 9b bd 9f e3 7c bd cd f1 09 3d 1a a5 da 3d
       -0.07579462 -0.061740514 0.033677865 0.10676022
0000c0 44 20 9a 3d f3 31 e2 bd 1a d7 80 3c 13 dc db 3d
       0.075256854 -0.11044683 0.015727568 0.10735335
0000d0 75 f8 9b bb 64 a1 a4 3d 6e f9 cd 3c 66 a7 2d bd
       -0.004759843 0.08038595 0.025143351 -0.04239597
0000e0 3d 11 bd 3d 49 43 88 bd a7 47 b3 3d 96 20 53 bd
       0.092318036 -0.066534586 0.08753901 -0.05154475
0000f0 1b fd 96 3d 95 d6 da 3d 4a c0 a4 3d 6a 37 89 bd
       0.07372495 0.106854595 0.08044489 -0.067000225
000100 77 ad 9f bd f5 78 9d bd ac e3 fc bc 66 ab f0 3d
       -0.07796758 -0.07689086 -0.030870281 0.11751442
000110 0c cc 16 bd 6e 99 f3 bd 9d ec 31 bd 64 5b 49 bd
       -0.036815688 -0.11894499 -0.043438543 -0.049159423
000120 bb b7 bf 3d f1 c1 a1 bd 83 7e 0a be 44 ce 16 be
       0.09361216 -0.078983195 -0.13524823 -0.14727122
000130 cb 03 b8 3c 98 d5 0e 3d ad 29 fe bc 95 6a 01 3d
       0.022462746 0.034871668 -0.031025732 0.031595785
000140 92 5a d8 3d e9 b6 f3 3c 1b 84 16 bd da a1 3b bc
       0.1056415 0.029750304 -0.03674708 -0.011452163
000150 ff 6a 37 bd 2b 5f 52 3d ac 9e c9 bd 7c b5 32 3d
       -0.044779774 0.05136029 -0.098447174 0.04363011
000160 31 e7 f5 3d 0e 2b 7f bd 71 6d bd 3d a4 76 0b 3e
       0.12006987 -0.06229692 0.0924939 0.13619477
000170 15 f2 b2 bd 2a 41 b5 3b 10 e6 f3 3c f4 fc c5 bd
       -0.0873758 0.00553145 0.029772788 -0.096673876
000180 3f 09 a7 3d 72 98 16 ba 78 ef 75 3d 52 21 b1 bd
       0.081560604 -0.0005744762 0.06004283 -0.086489335
000190 65 b1 a5 bd 4b 91 09 3d 91 f3 68 3c bd 24 ef bd
       -0.08090476 0.033585828 0.014218227 -0.11676929
0001a0 44 9e 1e bd 6e f4 cb bd 06 f6 cd bd 94 f0 ef bc
       -0.038725153 -0.09958731 -0.10056691 -0.029289521
0001b0 25 88 91 3d d9 17 ec bc a8 99 1e 3c 6e ae 08 3e
       0.07106046 -0.028819965 0.009680189 0.1334779
0001c0 bb 68 41 3d e1 39 09 be 82 e4 5a 3d 4b 14 2f 3d
       0.04721902 -0.13400985 0.05344058 0.042743962
0001d0 c1 75 f1 3d bd bb 25 bd ed 3a 93 3d 30 83 b4 3d
       0.11790038 -0.040462244 0.071889736 0.088140845
0001e0 8d 98 c9 bd 00 b3 01 bc dd 62 8c 3d 9d 6d 6a bd
       -0.0984355 -0.007916212 0.06854794 -0.05723344
0001f0 13 b6 5f 3c d4 5a 64 3d 28 e8 31 3b 03 5f dd 3d
       0.01365425 0.055750683 0.0027146433 0.10809138
000200 cc cf ee 3c 53 35 d0 3d 64 de 31 bc b6 a3 9e 3d
       0.02915182 0.10166421 -0.010856245 0.07746069
000210 53 d1 76 bd 89 9b 5f bd 08 45 28 bb f2 e1 84 bc
       -0.06025822 -0.05459169 -0.0025675911 -0.01622102
000220 b5 bb a8 3d 46 ae c3 3c 91 4a 92 3d 6c 67 8e 3d
       0.08238927 0.023886811 0.07143129 0.0695332
000230 c1 5b e2 bd 03 dd ee bb c2 da 9d bb 16 b3 25 3d
       -0.11052657 -0.0072895302 -0.0048173377 0.040453993
000240 d2 9c aa 3d 9f 65 16 bd cc 14 40 bd 79 e2 c4 3d
       0.08330692 -0.036718007 -0.046894833 0.09613509
000250 48 88 14 bd e9 5a 01 be 01 1f 3d 3d 46 dd 82 3d
       -0.03626278 -0.12632336 0.046172146 0.06389861
000260 12 0c a5 bc 3f d5 d7 bc 0c 9c 0b bd 32 c5 e4 bd
       -0.020147357 -0.0263468 -0.034084365 -0.111704245
000270 ca 3c 98 3b 23 8b 9d bc d5 60 8a 3d 77 e0 4d bd
       0.0046459185 -0.019231385 0.067567505 -0.050262894
000280 28 5b e3 3b 14 2a af 3b a1 37 46 3d 53 f4 d2 3d
       0.006938357 0.0053455923 0.048392896 0.103005074
000290 d8 dd 9a 3d 7d 46 df 3c a9 fc 59 bd 44 58 e6 bd
       0.075618446 0.027255291 -0.05321947 -0.11247304
0002a0 a3 a3 f0 bd 61 ea 62 3c bc df 09 3e d7 6d a2 bb
       -0.11749961 0.013849826 0.13464254 -0.0049569416
0002b0 cf 58 53 bc da 54 ad bd 82 95 2e 3d c0 93 55 3d
       -0.012899592 -0.0846345 0.04262305 0.05214286
0002c0 35 10 d7 bd 07 3f 59 bd 85 b9 98 3d b6 42 38 3d
       -0.10501138 -0.053038623 0.0745726 0.044985496
0002d0 15 a7 0c 3c 76 9e e4 39 0c 8f 44 bd 9d 9a a8 bd
       0.008584757 0.0004360561 -0.047987983 -0.08232615
0002e0 88 f7 cd bd e8 69 a7 3d fa da 91 bc 1e ed 22 bd
       -0.100569785 0.08174497 -0.017804611 -0.039776914
0002f0 d5 2a 2d bd 30 8c 1d bd 41 12 1d bc 24 33 97 bc
       -0.042277176 -0.03846377 -0.009586872 -0.018457003
000300 ec 9f c8 3d 9e 6b e6 3c 5d 18 47 bd a4 cb 11 bd
       0.09796128 0.028127488 -0.04860722 -0.035594597
000310 4f ae eb 3d 85 00 96 3c 64 7b d1 3d 2f 5f b9 3c
       0.11507856 0.018310795 0.10228613 0.022628395
000320 26 23 ae bd b0 ae 59 3d 72 69 fd 3b 5f f1 fb 3d
       -0.08502798 0.05314511 0.0077335173 0.12301897
000330 29 98 08 bc 6a 91 a0 3b 13 74 03 3d 0d ac de bd
       -0.008337059 0.004900147 0.03209312 -0.1087266
000340 75 c0 40 3d 0a b6 27 3e fa 6d e5 bd d6 09 19 3e
       0.04705854 0.16378036 -0.11202617 0.14945158
000350 e2 e5 09 3d d6 39 b2 3d 2c 55 14 bd ad b0 31 3d
       0.0336665 0.087024376 -0.03621404 0.04338138
000360 93 ec 8e ba f6 ff 76 bc c0 59 6a 3c 7d 85 0e bd
       -0.0010904245 -0.015075674 0.014303625 -0.034795273
000370 46 50 d9 3d 1a 3b 88 3d 8b 84 6d bd cd 39 dc 3d
       0.10611014 0.06651898 -0.05798773 0.10753212
000380 bc 44 00 bb 49 9c a1 3c ae 08 f6 bb cc e7 da 3c
       -0.001957222 0.019727843 -0.007508359 0.026721857
000390 2e c9 34 be 09 a2 fd 3d 36 3c 19 3d 35 67 db 3d
       -0.17654869 0.123844214 0.037410937 0.107130446
0003a0 93 40 37 3d 07 99 8f bb 88 bf 96 bb 1b c1 69 3d
       0.044739317 -0.004382256 -0.004600469 0.057068925
0003b0 ef 75 a7 3d 62 92 85 3d f1 ea 3b 3c f1 bf d0 3b
       0.08176791 0.06522061 0.011469589 0.0063705374
0003c0 fc 6a 1b 3e ef a3 88 bc 4f 85 90 bd 56 14 9c bd
       0.1517753 -0.016679732 -0.070566766 -0.07621066
0003d0 1f 38 1b 3e 41 f2 e1 3d c3 c3 27 3d 52 79 78 bd
       0.15158127 0.110325344 0.040958177 -0.060662575
0003e0 e0 14 d8 3a 77 e8 5e 3d 2a 8a 0b 3d cf 51 75 3d
       0.0016485713 0.054420915 0.03406731 0.059892472
0003f0 9e ed a0 3d ac af 16 3e 35 0c bd 3d 16 45 00 be
       0.07857822 0.14715451 0.09230844 -0.12526354

l1.bias_ih_l0 f4 [285]
000000 39 48 96 bd ba 8d 4f 3d 1b 3a 8c bb 1a 80 14 3c
       -0.07337994 0.05067227 -0.0042793876 0.009063745
000010 15 b2 5d 3d 0c 4e 08 bb f4 85 fe 3d 36 52 78 bd
       0.05412491 -0.0020798473 0.12427893 -0.060625277
000020 34 cb 91 3d e0 44 14 3d 8b f4 13 bc 04 20 6d bd
       0.07118836 0.036198497 -0.009030472 -0.05789186
000030 fc 1f 88 bd 50 fc 51 bd 44 b7 15 3d e1 f1 c4 3c
       -0.066467255 -0.051266015 0.03655173 0.024041118
000040 e8 19 75 3c 5a d9 a8 bc 70 9f fd b9 eb fd 4b bd
       0.01495979 -0.020611454 -0.0004837471 -0.049802702
000050 b5 29 09 3d 61 c4 fe 3c 25 b2 c0 3d 4a eb 10 be
       0.03348704 0.0310995 0.094089784 -0.14152256
000060 af 6c c1 bd 65 c5 99 3d 1b 2e 79 bd b4 f7 a4 bd
       -0.09444558 0.07508353 -0.060834985 -0.08055058
000070 19 7d 0a bd a3 f4 22 3d 65 00 d8 3d e9 0a ed bb
       -0.03381071 0.039784085 0.1054695 -0.0072339666
000080 38 84 43 bd 41 06 b0 3d 18 3a 53 bd 76 41 56 bd
       -0.047733516 0.08594943 -0.051569074 -0.052308522
000090 88 c3 01 3e f7 ce f2 bd 00 2a aa 3c ea 68 a0 bd
       0.12672246 -0.11855882 0.02077198 -0.07832511
0000a0 9b cc 76 3b 20 94 ac bc 1c 4f 76 3d 70 1d 46 bb
       0.0037658575 -0.021066725 0.06013404 -0.0030229948
0000b0 9f 8e 13 3d d5 00 bc 3d 8a c4 aa 3c 08 2a 94 3d
       0.036024686 0.09179846 0.02084567 0.07234579
0000c0 f1 8b 80 bd 36 98 cd bd 4f 6d b5 3d a8 34 cd 3b
       -0.06276692 -0.100387976 0.088587396 0.0062623806
0000d0 88 b6 6c 3c f3 4d 7b bd f3 b9 0e 3d b4 0c b5 bd
       0.014447816 -0.061353635 0.034845304 -0.088403136
0000e0 51 ed 6e bd e1 b5 be 3d 5f 6c 63 3c 5d a5 77 bd
       -0.05833179 0.093120344 0.013880818 -0.060460437
0000f0 9b 06 aa 3d 5c fd 84 bd c7 80 b8 bd d2 8e dc bb
       0.08302041 -0.06493637 -0.09008937 -0.0067308927
000100 b1 62 de bd a4 53 43 3e 19 aa cc bc b2 b9 73 3c
       -0.10858668 0.19074875 -0.024983453 0.014875816
000110 d7 4b 85 bc bc 3e 9f 3d 0c cf b5 bd dc 6c 04 bd
       -0.016271515 0.077756375 -0.08877382 -0.03233038
000120 99 6e 1c 3c 17 e8 cc 3c 0e a3 14 3c a1 ff ff 3d
       0.009547853 0.025013013 0.009072078 0.12499929
000130 95 c8 91 bd 95 c6 14 bc cd d6 a1 bd f9 1e 77 bd
       -0.07118336 -0.009080549 -0.07902298 -0.060332272
000140 59 51 99 3c 61 03 f8 bb f7 97 09 3d 26 d1 71 bb
       0.018715547 -0.007568762 0.03359219 -0.0036898344
000150 b9 86 6f 3c d3 9f 4c bd 05 15 99 3d 32 ac 83 3d
       0.014619523 -0.049957108 0.07474712 0.06429328
000160 6b ab 49 bd 22 b3 ad 3c af 11 06 bd 06 91 b9 bd
       -0.049235743 0.021203581 -0.03273171 -0.09060864
000170 32 7b a4 3c 17 08 d9 3d b5 4c 1b 3d f9 8a d0 bd
       0.020078275 0.10597246 0.03791495 -0.10182757
000180 7e 3c 32 be d0 fc 05 be f7 c1 e0 bd 25 45 7d bd
       -0.17405888 -0.13084722 -0.10974496 -0.06183352
000190 90 ce b6 bd 69 07 80 bd bd 00 70 be 08 87 8d bd
       -0.089261174 -0.062514134 -0.23437782 -0.06910521
0001a0 69 23 91 bd 8e 5d 55 bd df 3f 47 be f7 33 e0 bd
       -0.07086832 -0.052091174 -0.19457959 -0.109474115
0001b0 4b 1e 0d 3d cf 49 2e be ab eb ea bd b7 da 2b be
       0.034452718 -0.17020343 -0.11470731 -0.16782652
0001c0 ea e8 c7 bd d1 06 f1 bd 3f 98 3f be ec 46 0d be
       -0.09761222 -0.11768878 -0.18710421 -0.13796586
0001d0 5d 6f 37 be de 44 2c be 80 16 b1 bd bf 19 dc bd
       -0.17913575 -0.16823146 -0.0864687 -0.10747098
0001e0 af d9 bf bc b2 eb 76 be 66 ec 22 be 6a 5f 5f bd
       -0.02341923 -0.24113348 -0.15910491 -0.054534353
0001f0 63 a8 ed bc 81 7d 3a be 55 5c 0a be f1 d4 8a bd
       -0.029010957 -0.18211938 -0.13511784 -0.067788966
000200 30 ba 44 be 92 7e 4a be ae 20 bf bb 05 f5 07 3d
       -0.1921165 -0.19774845 -0.005832753 0.033192653
000210 46 45 1d be 0a 9c da bd e5 f4 4b be 46 d3 a4 bd
       -0.15358457 -0.10674293 -0.19917639 -0.0804811
000220 1f c9 c5 bd 2f f0 d9 bc 32 61 a5 bd 66 f9 7f bd
       -0.096575014 -0.026603786 -0.08075179 -0.062493704
000230 f3 a4 02 be 90 9a 85 bc 8e c0 21 3d 0c b4 3d be
       -0.12758236 -0.016309053 0.039490275 -0.18525714
000240 12 11 52 be af 16 ad bb 3d 56 3e be bb ab 19 be
       -0.20514324 -0.005282245 -0.18587585 -0.15006916
000250 a2 6a 26 be a7 62 fa bd 59 36 68 bd 0f 7e 6f bd
       -0.16251615 -0.12225848 -0.056692455 -0.05846983
000260 7e 89 ce bc ef 43 3d bd 5b ff 5b 3c ed c0 bb 3c
       -0.025212046 -0.046207365 0.013427581 0.022919143
000270 d2 31 09 be 4b 0a 4b bd a2 33 fc bd f9 45 49 be
       -0.13397911 -0.049570363 -0.12314536 -0.19655599
000280 fe c8 b3 bc ed 86 0b be 93 0b 57 be 82 6a 2d be
       -0.021946426 -0.13625689 -0.21000509 -0.16935161
000290 b1 e4 e0 3d 0b 66 27 bd 02 f4 48 be e2 fe 92 be
       0.109811194 -0.0408688 -0.19624332 -0.28710085
0002a0 e4 aa 40 bb 56 76 df bd 12 8a 80 3d 4e dc 2d be
       -0.0029398734 -0.10911243 0.06276335 -0.16978571
0002b0 85 25 99 bd 7c 6b 12 be d5 d9 c2 bd ee cb b7 bd
       -0.074778594 -0.14298815 -0.095142044 -0.089744434
0002c0 7b 61 38 bd 3f 4d 60 bd 41 09 7c bd 61 2d e4 bd
       -0.04501484 -0.054761168 -0.061532263 -0.11141468
0002d0 db 8f ac bd e5 5d 9c bd 2e 2c 00 3c a6 0b 16 3c
       -0.08425876 -0.076350965 0.007823033 0.009158051
0002e0 ac 8c e8 bd ad 22 6a bd 84 0f 5b 3b f7 4a d1 bc
       -0.11354956 -0.057161976 0.0033425996 -0.025548441
0002f0 2a 0e c4 3d af af 23 bd c5 26 9c bd a0 70 33 bd
       0.09573014 -0.039962467 -0.07624582 -0.04380858
000300 2d 80 8f bd ab 45 b5 3c d1 91 24 bc f8 95 2d 3c
       -0.070068695 0.022127947 -0.010044531 0.010594837
000310 8a 2c bc bc 69 60 08 bd 53 9b e3 bd 0e 5d c8 3d
       -0.022970457 -0.03329507 -0.1111361 0.09783374
000320 0d d1 83 3c 4a c7 9f bd 31 03 a8 3d a8 e6 dc bc
       0.016090894 -0.07801683 0.08203734 -0.026965454
000330 69 eb 81 bd 1f d8 05 3c a9 a5 ab 3d 00 4f 89 3d
       -0.06343729 0.008169203 0.083812065 0.06704521
000340 f6 19 c9 bd d6 bf 46 3d 00 34 d9 3d a5 7a ce 3c
       -0.09819405 0.048522793 0.10605621 0.025204966
000350 e4 6f d3 3d 29 d8 87 3c fd 3f 51 3d a6 cb 76 3c
       0.10324076 0.016582565 0.051086415 0.015063202
000360 93 88 c4 bd a6 30 60 3c 70 da 58 3c 26 22 f2 bc
       -0.09596362 0.013683474 0.013235673 -0.029557299
000370 fa 34 64 bc 77 9e bc bd 00 d5 56 bd 60 91 96 bd
       -0.013928646 -0.09209912 -0.052449226 -0.07351947
000380 6d 53 1b 3d 16 c7 5a bd 14 5e d7 3d 89 2d 83 3d
       0.037921358 -0.05341252 0.10515991 0.064051695
000390 ad 46 9b 3d fb ea 0d 3d 10 dc 88 3c 1b 15 fa 3b
       0.0758184 0.034647923 0.016706496 0.0076319105
0003a0 18 2a 4b bd 74 91 78 bd 09 9b 43 bb c4 0e af bd
       -0.04960069 -0.06068559 -0.0029847047 -0.08547738
0003b0 6c 7f 5c 3d 01 81 78 bd 93 bd 27 bb d0 93 e2 3d
       0.053832456 -0.060669903 -0.0025595173 0.11063349
0003c0 bf 0f 81 3d 1a 76 e2 bd 3e 61 b0 3d f1 9c 16 3b
       0.063018315 -0.11057682 0.086122975 0.0022981728
0003d0 7e bd 26 bd cb d1 9f bd 40 00 49 bd 55 ff cc bc
       -0.040708058 -0.07803687 -0.049072504 -0.025024096
0003e0 da 04 d9 bc 2f 91 ba 3d 9d e2 a5 bd 27 e8 bb bd
       -0.026491571 0.09109723 -0.08099864 -0.09175139
0003f0 6e eb 0a 3b d9 92 c1 bd 11 b0 42 3c de 0e 40 3e
       0.0021197456 -0.09451837 0.011882798 0.18755671

l1.bias_hh_l0 f4 [285]
000000 32 88 1f 3d db a0 4f 3d 3e 12 0f be 04 52 ad bc
       0.038948245 0.050690513 -0.13971803 -0.021157272
000010 1d d9 d3 bd 85 2b 0d bd e0 d6 f8 3c f5 23 ff bc
       -0.103441454 -0.03446533 0.030375898 -0.031145075
000020 85 e4 9c 3d 4a e0 7e 3c 1b af 7f bd 87 44 18 bd
       0.07660774 0.015556404 -0.062422853 -0.037174728
000030 ce c8 ba bd e7 1b 1a 3d 5d 99 53 bd 3c 30 5c 3c
       -0.09120332 0.037624266 -0.05165993 0.013439234
000040 12 e1 00 3e c4 8f 8a bd 4f 51 1d bd 08 f3 b7 3c
       0.12585858 -0.06765702 -0.03840762 0.022454754
000050 01 c0 33 3d a5 57 4c 3d b6 48 45 bd 16 e6 3f bd
       0.04388428 0.04988827 -0.048165046 -0.046850286
000060 55 8b ff bd e7 0a b9 3d ae e0 23 3d 2e 7c 9e 3d
       -0.12477747 0.090352826 0.040009193 0.07738529
000070 e2 97 82 bd 79 1c e1 3c 67 13 a1 3c 0a d1 b0 bc
       -0.063766256 0.027479397 0.019662572 -0.021584053
000080 d5 42 a7 3c d0 d6 81 3d b2 9a 95 3d f1 70 85 3d
       0.02041761 0.063398 0.073048964 0.065156825
000090 1a 0a 01 3e 52 79 81 bd 08 d0 f4 3d 4d f4 91 bc
       0.1260151 -0.06321968 0.11953741 -0.017816687
0000a0 84 b8 21 3d f9 5d ec bd 5e 97 f0 ba 18 d3 45 3d
       0.03948261 -0.11541361 -0.0018355658 0.048297018
0000b0 a5 2a 4b bd 1d c4 12 bb de 33 8a 3d 43 91 c7 bd
       -0.049601216 -0.0022394725 0.06748174 -0.09744503
0000c0 84 7a ac ba 2a 4a dd bd bc 1d 76 3d 2e fd 5f 3d
       -0.0013159071 -0.10805161 0.06008695 0.05468481
0000d0 9f 2a 88 3d 74 7e 87 3c f3 bc ab 3d 6f 76 6c bc
       0.06648754 0.01653979 0.083856486 -0.014432534
0000e0 57 79 a2 bd 56 35 af bd 2f 66 a2 3d 29 25 96 3b
       -0.079333 -0.08555095 0.07929646 0.0045820666
0000f0 17 b3 19 3d 6f 1f ae bd e4 65 f2 bc 16 42 44 bd
       0.03752431 -0.08502089 -0.0295896 -0.047914587
000100 41 da ad bd 5c a4 3d 3d 83 04 87 3d 1c 6c b3 3d
       -0.08488894 0.046299323 0.065926574 0.087608546
000110 8a ad 77 bb 2c 10 34 3e ab 23 5a 3d 79 d0 e3 bd
       -0.0037792646 0.17584294 0.053256672 -0.111237474
000120 48 cd b6 bc 3d 6c 6e bd fe 02 43 bd f4 87 5c 3d
       -0.022314683 -0.058208693 -0.047610275 0.053840593
000130 8e 69 cd bd 68 e6 e8 bc 50 b8 b5 bd 3f 3d 98 3c
       -0.100298986 -0.028430179 -0.088730454 0.018583892
000140 52 9e a7 3d 43 f6 a5 bd 79 24 89 bd bc 73 77 bd
       0.08184494 -0.08103611 -0.0669641 -0.060413107
000150 80 59 73 bd 65 d9 3b 3c d4 15 b0 3d 17 b7 fc 3d
       -0.059411526 0.011465405 0.085979134 0.12339609
000160 76 28 11 3d 5a f4 87 3c c8 ee d7 3d 5f a8 b5 3d
       0.035438977 0.016596008 0.10543591 0.08870005
000170 a1 96 1b 3e fd 43 05 3d 9a 08 e6 bc 5b f6 9b bd
       0.15194179 0.03253554 -0.028080273 -0.07615348
000180 53 e6 5f be 4d f0 f9 bd 87 8e ab bd 2d 07 5a bd
       -0.21865205 -0.12204037 -0.08376794 -0.0532295
000190 d8 4b 0a bd b0 99 7e bd 21 8d 70 be 64 97 f1 bd
       -0.033763736 -0.062158287 -0.23491336 -0.117964536
0001a0 56 85 d1 bd e9 e2 b3 bd 46 89 b8 bd 15 ce cf bd
       -0.1023051 -0.08783514 -0.09010558 -0.10146729
0001b0 c8 48 ba bd 61 81 dd bd 04 55 5f bd 63 d0 06 be
       -0.09095913 -0.10815693 -0.054524437 -0.1316543
0001c0 e6 aa c3 bd ce 5c ce bd 66 b1 cc bd 8e 82 4b be
       -0.09554081 -0.10076295 -0.099947736 -0.19874021
0001d0 d1 2c 49 be 6b 3d ce bd 41 06 29 bd 7e b1 c2 bc
       -0.19646002 -0.10070308 -0.04126573 -0.023766275
0001e0 70 9c 37 bd 99 eb c1 bd 60 22 39 be 1e fd 38 be
       -0.044826925 -0.09468765 -0.1807952 -0.18065307
0001f0 c4 07 0e be db aa f4 bd 37 90 75 bd 3a 54 71 bd
       -0.1387015 -0.119466506 -0.059951987 -0.058918215
000200 fb e6 01 be 4b 18 18 be 35 d2 28 be ca b1 02 be
       -0.12685768 -0.14853017 -0.16486438 -0.12763134
000210 3e 83 70 bd 83 cf 50 be ef 7b 42 be c3 e7 9e bd
       -0.058718912 -0.2039166 -0.1899259 -0.07759049
000220 70 29 be bd a6 c8 0c be 56 94 f4 bd 67 91 eb bd
       -0.09285247 -0.13748416 -0.11942355 -0.11502343
000230 c4 8c bc bd 4e 6b c4 bc 53 a5 53 bd b9 3b 9d bd
       -0.092065364 -0.023976948 -0.051671337 -0.07677407
000240 74 e4 0d be 46 6f e5 bc b9 3a 39 be 80 40 ea bd
       -0.13856679 -0.02800716 -0.18088807 -0.11438084
000250 a3 c0 39 bd 17 12 53 be ed ee 1a be 7f 0d eb bd
       -0.04534973 -0.2061237 -0.15130205 -0.114771836
000260 57 33 a7 bd e1 4e ac bd f9 8a 23 be 21 55 58 3c
       -0.08164089 -0.084134825 -0.15970983 0.01320389
000270 3d 5f 13 be 15 e3 0e be 42 92 c6 bd 50 db ef bd
       -0.143918 -0.13953812 -0.09695865 -0.117117524
000280 94 09 37 bd ba 02 bf bd 9b fa 49 be 99 59 6c bc
       -0.04468687 -0.09326692 -0.19724505 -0.014425659
000290 2c 20 bb 3d ea 66 29 be fa 14 2b be 79 28 c4 bd
       0.09136996 -0.16543165 -0.1670722 -0.09578032
0002a0 75 3b e1 bc ae 24 24 bd 29 d8 ab 3c 8b 7a 84 bd
       -0.027494172 -0.040074043 0.020977097 -0.06468686
0002b0 04 10 43 3c dd 69 50 be c2 6e 31 bd 2f 6e f7 bd
       0.011905674 -0.20352884 -0.043318518 -0.12081563
0002c0 ba 76 65 be 0c 3a c8 bd c8 c7 6f 3c d4 af 8a bd
       -0.22408572 -0.097766966 0.014635034 -0.06771818
0002d0 99 7d fb bd a1 52 2a be cb 34 3b 3d d2 78 d3 bd
       -0.12279815 -0.16633083 0.045704644 -0.10325779
0002e0 51 d7 b2 bd 10 09 cf bd f5 73 00 bb d6 1e 94 3c
       -0.087324746 -0.101091504 -0.0019600366 0.01808111
0002f0 8e 91 09 3e 54 da ce bc c4 9d 64 bd fe 1c 0f bd
       0.13434431 -0.025250591 -0.05581452 -0.03493976
000300 da a8 0b bd 33 97 3c 3c c0 16 91 3c f9 e3 c5 bc
       -0.034096576 0.011510658 0.017711043 -0.024156557
000310 00 4b 07 be 7c 8a 41 bd ca 63 02 be 6f 8a 59 bd
       -0.13212204 -0.04725121 -0.12733379 -0.053110536
000320 ad 72 22 3d 34 4f 99 bd fb 29 a7 3c ee d0 de 3c
       0.039660145 -0.0748581 0.02040576 0.027199235
000330 6a 34 4a bd 12 18 8c 3d 10 3b 09 3e 49 28 17 bd
       -0.049366392 0.068405285 0.13401437 -0.036903653
000340 2f d2 10 be 69 ff fa bd 8b 3c db 3c 5e cc d3 bc
       -0.14142679 -0.12255747 0.026762268 -0.025854286
000350 43 eb a6 3d 4d 13 36 3d 9f f9 63 3d f2 d8 99 3c
       0.08150341 0.044452 0.05565798 0.018780205
000360 42 49 92 3c 1b d7 27 bd d7 ba c6 3d 94 80 b4 3d
       0.017857198 -0.040976625 0.097036056 0.08813587
000370 fc 05 4a 3c e8 07 c0 bd b7 72 ab ba 4a a5 86 bd
       0.012330528 -0.09376508 -0.0013080452 -0.06574495
000380 f5 63 3d 3d b9 37 47 bd 64 70 d3 3d 08 aa 84 3d
       0.046237905 -0.048637126 0.10324171 0.064777434
000390 b0 72 ce bc 5b ac 8f bd e9 29 d6 bd 38 af 44 bc
       -0.025201172 -0.07015296 -0.104572125 -0.012004666
0003a0 b9 75 d9 bb 46 ad 80 bb 5f ad b6 3c 41 d4 0e be
       -0.006636348 -0.003926906 0.022299467 -0.13948156
0003b0 1f 26 3d bd 6f 1b 9d 3b 4c d0 f6 bc 31 37 a5 3d
       -0.046178933 0.00479453 -0.03012862 0.080671676
0003c0 d5 7b 35 bd 66 36 e1 bc 04 6d 91 3d d8 ea aa 3d
       -0.04430755 -0.02749176 0.07100871 0.08345574
0003d0 74 ab 6d bd cb 07 e4 3b 32 8a 17 3d 16 26 a5 3d
       -0.05802484 0.006958937 0.036997028 0.08063905
0003e0 6c ba aa bd 49 cd 13 3d 70 14 2a 3d 12 3f bd 3d
       -0.083363384 0.036084447 0.041523397 0.09240545
0003f0 6e 41 33 3d 9d 2e bd bd 04 f2 ab 3d 66 b0 26 3e
       0.04376357 -0.092374064 0.0839577 0.16278228

l2.weight f4 [1, 95]
000000 da a4 be bd 0b cb 29 be 46 71 01 3e 7c fa 0f 3e
       -0.09308787 -0.16581361 0.12640867 0.14060396
000010 fa 79 f7 3d ac 0f fd bd 43 9e d4 bd 0d af e8 3d
       0.12083812 -0.12356505 -0.103817485 0.11361513
000020 86 16 80 bd d9 b7 11 be d6 72 d2 3d 6e fb bb 3d
       -0.06254296 -0.14230289 0.102758095 0.09178816
000030 f0 d2 e5 bd 85 2d ea 3d 61 7b 02 be d8 e2 1b 3d
       -0.11221874 0.114344634 -0.12742378 0.038058132
000040 43 e6 85 bd 65 8a d3 3d 01 fe bc 3d be 33 ec bd
       -0.065380596 0.10329131 0.09228135 -0.115333065
000050 9f dc a0 3d 49 a3 09 be 5c 2e ea bd 52 07 5c 3e
       0.0785458 -0.13441195 -0.114346236 0.21487167
000060 21 ac 10 3e c0 a3 c0 3d 94 15 08 3e 96 83 37 3e
       0.14128162 0.09406233 0.13289481 0.1792129
000070 5e 20 3e be 66 5e 2a 3e c0 75 24 be 77 7a c6 3d
       -0.18567035 0.16637573 -0.16060543 0.09691327
000080 69 f5 1f be bd 9a 15 3e b2 2a 25 be a1 e5 d4 3d
       -0.1562096 0.14609809 -0.16129568 0.10395361
000090 52 29 56 bd b3 66 de bd 40 01 42 3d 54 55 1e be
       -0.0522855 -0.10859432 0.047364473 -0.15462238
0000a0 f1 85 c7 bd 7b 7f 52 3e 5f 20 5a 3c 02 f5 47 be
       -0.09742344 0.20556442 0.013313382 -0.19527057
0000b0 ac 85 09 3e 46 7b ff 3d 72 7d 93 bd b9 b3 e0 bd
       0.13429898 0.124746844 -0.07201661 -0.109717794
0000c0 9e 52 3b be 57 c7 c7 bd b5 45 a8 bc 13 1c 12 be
       -0.18293235 -0.09754818 -0.020541051 -0.14268522
0000d0 49 d2 c7 3d a0 03 2a 3e ad 33 10 3e fe ba 1e 3e
       0.097569056 0.16602945 0.14082213 0.1550102
0000e0 50 86 d8 bd 38 7f 52 be dd 98 0b be e5 d4 a4 bd
       -0.10572493 -0.20556343 -0.13632531 -0.08048419
0000f0 4e b9 14 bd 33 6a 10 3e d3 3f ca bd c0 dc d5 bd
       -0.036309533 0.14103012 -0.09875455 -0.10442495
000100 ad de f4 bd 43 ce 4c 3d 82 a1 03 be 74 4b 2c bd
       -0.119565345 0.050001394 -0.12854579 -0.042064145
000110 1f 55 f3 3d 8c e0 84 3d ce 97 d4 3d 06 c6 2f 3e
       0.1188147 0.064881414 0.10380517 0.17165384
000120 ea c8 0d 3e b3 1a 15 3e eb 46 a4 3d fd 04 2e 3d
       0.13846174 0.14560966 0.08021339 0.042485226
000130 ff 39 f4 3d 50 da 60 bc f8 4e 2e 3e 26 47 47 be
       0.119251244 -0.013723925 0.17022312 -0.19460735
000140 73 2a 80 3d b0 8d 9d 3d 4d e2 cd bd cd 98 59 bd
       0.062580965 0.0769304 -0.10052929 -0.053124238
000150 95 2b 19 be e3 48 9b 3d 3b d7 c1 bd fb 64 8a bd
       -0.14958031 0.075822614 -0.0946488 -0.06757542
000160 6a ad d0 bd 83 12 06 3e c8 e8 a7 bd 1f b3 ab bd
       -0.10189326 0.13092999 -0.081986964 -0.08383774
000170 6e 70 a6 3d f2 98 d2 bd bc 58 aa 3d
       0.08126913 -0.10283078 0.08317706
